checkpoints/live_20251008_201508.pt (torch, 73189 bytes, 10 tensors)

gru.weight_ih_l0 f4 [192, 1]
000000 38 c4 2c bd 6f af b2 3d 7a b5 d2 3d 7d 3a 03 3d
       -0.042179316 0.087248676 0.1028852 0.0320382
000010 10 bc ad 3d 4b 00 d9 bd 18 a4 c5 3d e8 d6 bb 3d
       0.08483136 -0.10595759 0.09650439 0.091718495
000020 14 bd d6 3c 05 36 bc bd 83 70 75 bd 6b d6 4f bd
       0.026213206 -0.09189991 -0.059921753 -0.050741594
000030 0a 13 1d 3d 37 a0 47 bd a5 52 9f 3c b3 ac 97 bd
       0.038348235 -0.048736777 0.019448588 -0.07405987
000040 ce c1 a0 3d 2d 22 c0 bd 9a 3c 14 bd a6 11 e5 3d
       0.07849465 -0.093815185 -0.036190607 0.11185007
000050 06 21 b8 bd 65 ea 6d 3d 56 69 e7 bd 92 be 45 3d
       -0.08990674 0.058084864 -0.11299388 0.048277445
000060 45 bf f0 bd 5e 5a 55 3d 31 8f b8 bd 1a 25 4b bc
       -0.11755232 0.052088134 -0.090116866 -0.012398982
000070 31 e8 0a 3e dc bd 10 bc 31 0b c2 bd d7 e8 a2 3c
       0.13565136 -0.0088343285 -0.09474791 0.019886417
000080 f5 f7 d7 3d 14 42 bd 3d 6b 0e 48 3d 6a 0f ba 3c
       0.10545341 0.09241119 0.048841875 0.022712428
000090 fb 41 9e 3c f8 34 ba bd 1f cd c0 3d e8 2d 9d 3c
       0.019318571 -0.09092134 0.09414124 0.019186929
0000a0 36 bc 2f bd f8 7e 9e 3d dd 68 8f 3d 3e 00 80 3d
       -0.0429041 0.07739061 0.07002423 0.06250046
0000b0 37 ae 04 be 2c 5c e1 3d 02 17 89 3d 37 6e e6 bd
       -0.12957083 0.110039085 0.066938415 -0.112514906
0000c0 8f 5c c7 3c e3 2b 50 bd 72 72 4b bc 5e ac 67 3d
       0.024336128 -0.050823104 -0.012417423 0.056560867
0000d0 7f a3 e3 bc fa a4 ec bd 10 ee 8c bd 01 73 70 bb
       -0.027787922 -0.11554904 -0.06881344 -0.0036689641
0000e0 dc cb e7 bd c5 69 28 3d 53 1e e8 bd 6a e3 63 3d
       -0.1131818 0.041116495 -0.11333909 0.0556368
0000f0 e8 d7 94 bd 89 29 8b 3d 63 8d fe bd 8e 7c c5 bd
       -0.07267743 0.067950316 -0.12429311 -0.096428975
000100 59 30 59 3d 86 7c 9c bc 00 e3 15 3d 28 23 98 bd
       0.053024624 -0.019102346 0.036593437 -0.074285805
000110 a8 b0 af 3d a7 eb 9f bd 1f a9 ba bd fa bd cc 3c
       0.085786164 -0.07808619 -0.091142885 0.024992932
000120 59 49 d9 ba 38 af 05 bd ab 01 b8 bc dd 1c 5d bd
       -0.0016577645 -0.032637805 -0.022461733 -0.053982604
000130 77 b6 ce 3c ce c7 ca 3d 78 39 8b 3d b0 cf e4 bd
       0.02523349 0.09901391 0.06798071 -0.11172426
000140 93 26 95 bd e4 47 0e 3d 25 ab c6 3d 24 31 c1 bd
       -0.07282748 0.03473653 0.09700612 -0.09433201
000150 81 0c 9a bc 2d 33 00 be ba dd 97 3d e9 75 ee 3c
       -0.01880479 -0.12519522 0.07415338 0.029108958
000160 f4 87 74 bd cb 1a 44 bc 57 d3 f0 bc c4 7c db 3c
       -0.059699968 -0.011969279 -0.02939765 0.026792891
000170 ee f8 58 bd 49 b9 be 3d 53 0e 81 3d e1 02 c8 bd
       -0.052971773 0.09312684 0.0630156 -0.09766174
000180 ae 5f 02 be 1b 27 8b bd 97 2e 83 bd 01 e6 03 bd
       -0.12731811 -0.06794568 -0.06405371 -0.03220177
000190 51 18 0d be 92 9a e4 3c 7d 45 37 3d be c3 98 bd
       -0.13778807 0.027905736 0.044744004 -0.0745921
0001a0 09 2c d4 bd a4 a1 00 3d 73 ca 63 bd 36 77 35 bc
       -0.103599615 0.031404153 -0.055612992 -0.011075785
0001b0 52 2a 18 bd 3b 16 f1 bc c7 85 67 3c 3e 22 65 bd
       -0.037149735 -0.029429546 0.014131016 -0.05594086
0001c0 5a fe de 3d a7 8a d9 3d 83 04 04 3b 2a d1 f8 bc
       0.108883575 0.10622149 0.002014429 -0.030373175
0001d0 44 14 5d bc 51 1c 3a 3d 4a 06 d4 bd ea cc 16 3d
       -0.013493601 0.04543716 -0.10352762 0.036816515
0001e0 54 c7 04 3d b4 c3 7f bd da 4a c7 bd 6f 2e 3a bd
       0.032416657 -0.062442496 -0.09731074 -0.04545444
0001f0 f1 56 96 3d fe e4 be 3d 4c d0 02 3e d5 bd 93 bd
       0.073408015 0.093210205 0.12774771 -0.07213942
000200 64 25 bb bd bc fc bc bd fb b3 af bd 93 10 1f bd
       -0.09137991 -0.09227893 -0.085792504 -0.038834166
000210 ce 86 5d bd f2 df c9 3c 0b 36 d1 bd 17 d1 32 bd
       -0.054083638 0.024642918 -0.10215386 -0.043656435
000220 33 2d 23 3d 84 80 8a 3b 4e 50 f1 3c 18 f0 90 bd
       0.039838027 0.004226746 0.029457238 -0.07077044
000230 3e af 9e 3d ac d4 99 bd b4 9a 09 bd 42 93 49 bd
       0.077482685 -0.07511267 -0.033594802 -0.0492127
000240 b0 77 b9 3d a3 89 8e 3d e1 4b af bd d2 0c 8d 3c
       0.09056032 0.06959846 -0.08559395 0.017218027
000250 4e 44 6b bd 9f 77 88 3d e6 39 9d bd 54 30 00 bd
       -0.057438187 0.06663441 -0.07677059 -0.03129609
000260 30 fb 03 3d 45 88 e4 bd ec 35 4c bd f8 48 e3 bc
       0.032221973 -0.11158804 -0.04985611 -0.027744755
000270 b1 cc 9b 3c 3d 39 41 3d 47 02 00 be 8b 37 bc bd
       0.019018503 0.047173727 -0.12500869 -0.091902815
000280 8c 6b f3 3b 71 74 a2 bc ba da 9f 3d 86 60 63 bd
       0.007428592 -0.019830914 0.07805391 -0.055511974
000290 f5 8b 82 3d 02 63 03 3e b6 62 63 3d d2 7c 16 bc
       0.06374351 0.12830737 0.05551406 -0.009185033
0002a0 0e 61 3b 3c f3 9c fe bc a2 9f be 3d 46 0a 5b 3d
       0.011436714 -0.031080699 0.09307791 0.053476594
0002b0 2b 82 9e bb ab 3b 0a bd b2 d3 3c 3c 80 0c bb 3d
       -0.0048372946 -0.03374831 0.0115250815 0.091332436
0002c0 29 4e 2e 3d c8 01 1e 3c ce d4 b3 3d ff 63 f5 bd
       0.042555008 0.009643979 0.08780824 -0.11981963
0002d0 10 2c 14 3c 0a 60 8c 3d 06 ef 97 bd 67 cb 38 3d
       0.009043708 0.068542555 -0.07418637 0.045115855
0002e0 de 9a b6 bd 54 61 3d 3d 49 94 cb bd 31 c9 e4 3d
       -0.08916257 0.046235397 -0.099403925 0.11171187
0002f0 2a 82 bf bc cf 88 06 be d2 4d 86 bd f4 91 b4 bd
       -0.023377497 -0.13138126 -0.06557812 -0.08816901

gru.weight_hh_l0 f4 [192, 64]
000000 a7 48 0e 3d ce ca d7 bd 8f 94 5c 3d 32 96 05 bd
       0.034737255 -0.10536729 0.053852614 -0.03261394
000010 70 37 e1 3d bb 0f d4 3d 46 41 bd 3b cb 20 7c bd
       0.10996902 0.10354563 0.0057756035 -0.06155471
000020 3f 2b 18 bd ff 8b 4b bd d0 ed 71 3c b6 c9 04 be
       -0.037150618 -0.049694058 0.014766172 -0.12967572
000030 b3 1f 2f bc d8 6f f1 3c 9e e5 ab bc 81 fe ab bd
       -0.01068871 0.029472277 -0.020983513 -0.08398152
000040 d5 0c 88 3d d9 af 95 bd 60 d9 85 3d e6 1c 85 bd
       0.066430725 -0.07308931 0.065356016 -0.064996526
000050 07 a8 4c 3c a6 5d dc bd 23 13 c0 bc b5 71 f2 3c
       0.012491233 -0.107600495 -0.023446625 0.029595235
000060 74 c0 5f bc 80 b3 e5 3d 4b b6 94 bd f0 f5 ca bd
       -0.013656724 0.112158775 -0.07261332 -0.0991019
000070 e3 ce 4f bb 39 7f 0b 3d 4c de 92 bc 7d e6 ba 3d
       -0.0031709007 0.034056876 -0.017928265 0.091259934
000080 be 0f 37 bd e2 dd e8 3d 3d 3c 1f bd 25 6b 60 3d
       -0.044692747 0.11370446 -0.038875807 0.05478968
000090 48 a7 a5 bd c8 e0 79 bc 8b 33 f0 3c 2e 17 49 3c
       -0.08088547 -0.015251346 0.029321453 0.012273593
0000a0 e4 4d da bc b9 83 52 bd 7c db fb bc 14 7c b4 bd
       -0.02664847 -0.05139515 -0.030744307 -0.088127285
0000b0 6d 32 ba 3d ab 95 fb 3d de 32 9d 3d b9 ca 45 3d
       0.09091649 0.12284406 0.07675718 0.048289035
0000c0 e1 df 6b 3d 48 cb 21 bd bc 6b a1 3d d9 1f 03 3e
       0.057586554 -0.039500505 0.07881877 0.12805118
0000d0 ef fb 57 3d 83 03 22 3c 21 98 07 3e 2d 08 d9 bb
       0.052730497 0.009888533 0.13241626 -0.006623289
0000e0 c4 63 ef 3c a2 28 16 bd d8 65 aa bd c7 f5 05 be
       0.029222377 -0.036659844 -0.083202064 -0.13082038
0000f0 c9 a9 12 bd c9 7a ee ba c0 d6 35 bd 19 d8 12 3d
       -0.03580645 -0.0018194552 -0.044394255 0.035850618
000100 cc 0f 83 3c b0 1a de bd 11 e3 d1 bd 33 15 f6 bd
       0.015998743 -0.10844934 -0.102483876 -0.12015762
000110 13 19 e4 bb e7 ff 1f bd a1 1f 0d bd 4f 3b cb 3c
       -0.006960997 -0.039062407 -0.03445399 0.024808554
000120 fe a0 bc 3b cc 28 6a bd 4a e7 c1 bd 51 3d c7 3d
       0.0057564965 -0.057167813 -0.09467943 0.09728492
000130 84 fb f9 3c 97 28 74 bd 45 5a 42 3d 90 43 b8 3d
       0.03051544 -0.059609022 0.04744937 0.089972615
000140 17 8c e2 3d bb 33 2d bd be 1b 56 3c d0 68 ae bd
       0.11061876 -0.042285662 0.013068138 -0.08516085
000150 97 12 14 bd f0 ba a7 3d 3f 71 f2 bb f5 5f 7d bd
       -0.03615054 0.081899524 -0.007398754 -0.06185909
000160 04 b5 dc bd d4 15 db 3d 51 a2 09 bc 9e 3d ed 3c
       -0.107767135 0.10697523 -0.008400516 0.028960045
000170 25 15 d6 bd af de cd bd 92 fb ba bd f3 88 2b bd
       -0.10453252 -0.10052239 -0.091300145 -0.04187865
000180 b9 1a ed 3d f4 81 6b 3c be 95 91 3d 38 70 f2 3d
       0.115773626 0.014374245 0.07108639 0.1183781
000190 97 75 e1 bd 88 04 75 bd 17 0d cd bd b6 9b b8 3d
       -0.110087566 -0.059818774 -0.10012262 0.090140745
0001a0 3b 5e 2d 3d 31 69 e9 3d 63 c4 ce bd e5 93 34 bd
       0.042326193 0.11397017 -0.100960515 -0.044086356
0001b0 77 c8 fb bd 6e 4f f2 3c e8 cc f1 bc f3 95 64 3d
       -0.12294095 0.02957889 -0.029516652 0.055807065
0001c0 82 7b c7 bd 3c d9 0c 3d a5 1b 9c 3d 5c c2 63 bd
       -0.09740354 0.03438686 0.0762246 -0.055605277
0001d0 82 69 35 bd d6 5a 95 3d fc fb c5 bd 9d 34 1c bd
       -0.044290073 0.07292716 -0.09667203 -0.038136113
0001e0 51 b9 01 3e 6f 18 d5 3d 4e 6d 80 3d e3 83 0f bd
       0.12668349 0.10405051 0.06270848 -0.035037886
0001f0 d4 aa 9f bd ee 26 e6 3d e2 71 8c bd ab 83 d9 3c
       -0.07796255 0.11237894 -0.06857659 0.026552042
000200 f2 b5 39 bd ad a1 56 bd 1b b6 f0 3d ca 6d 1b 3e
       -0.045339532 -0.05240028 0.11753484 0.151786
000210 49 c2 16 3c eb 0d 5b 3d bd f4 0b be ee 90 89 3d
       0.009201595 0.05348007 -0.13667579 0.06717096
000220 d1 c0 f0 3d a2 1a 22 3e e5 56 0b 3e eb 4e 7c 3d
       0.11755527 0.15830472 0.13607366 0.0615987
000230 65 31 ae 3c f4 c9 91 3d 30 bd e3 bb 5f d1 a7 bc
       0.021263788 0.071185976 -0.006950043 -0.020485578
000240 fc 44 d4 bd 8d 1f 04 3d ab 66 69 bd 34 61 73 bd
       -0.1036472 0.03225665 -0.056982677 -0.059418872
000250 8d e8 8c 3d 6c 91 18 be 5f 0c b1 3c 73 08 31 bc
       0.06880293 -0.14899224 0.021612344 -0.010805237
000260 fd 76 42 bd 8a 15 9a 3d 0d 50 fe bd 97 82 0b 3d
       -0.047476757 0.075236395 -0.12417612 0.034060087
000270 79 b0 80 3d 1e ac 3d bd 28 b2 22 3c 4e f1 df 3d
       0.062836595 -0.046306722 0.009930171 0.10934697
000280 5c a5 03 bd 84 3e 5b 3d f4 cc 5b 3d 2d 73 a3 3d
       -0.03214012 0.053526416 0.053662255 0.079809524
000290 63 01 ed bd 5f a2 fe bc cc 85 a7 bd 96 cd 6a 3c
       -0.1157253 -0.031083284 -0.081798166 0.014331242
0002a0 ff 74 0a bd c6 5b a4 3b d9 8b 44 3d 96 32 eb bd
       -0.033802982 0.005015823 0.04798493 -0.11484258
0002b0 82 5a 0c bd c1 1e 92 bd 5d 72 cb 3d 56 a3 de 3d
       -0.034266002 -0.07134772 0.099339224 0.108709976
0002c0 82 b1 b8 ba 15 94 15 be a2 18 8a bc 6e 38 9a 3d
       -0.0014090987 -0.1460727 -0.016857449 0.07530294
0002d0 eb 78 96 3c cd 92 01 be b4 06 c7 3d a3 43 e3 bd
       0.018368205 -0.12653656 0.097180754 -0.11096885
0002e0 67 05 14 3e 6e e9 11 bd 1f 24 9f 3d 2d 82 e3 bd
       0.14455186 -0.035623007 0.077705614 -0.111088134
0002f0 45 25 dd bd 00 12 80 bb d6 3b e4 3d 95 95 75 3a
       -0.10798124 -0.003908396 0.11144225 0.0009368298
000300 b7 58 ad 3d 9f 2e 07 3d 1b c2 06 3d e6 35 e3 bb
       0.08464187 0.033003446 0.032899957 -0.0069339154
000310 5f 83 58 bd c7 ce d9 bd 93 72 90 bd 42 41 b4 3d
       -0.05285966 -0.10635143 -0.07053103 0.088015094
000320 a9 a9 f1 3d 29 1b 14 bd 0b 4b 9f bd 6d 97 8b bd
       0.11799938 -0.036158714 -0.07777985 -0.068159916
000330 4d 51 fb bc 06 9e 45 3d 1b c6 a3 bc bd 05 32 bb
       -0.030678416 0.048246406 -0.019991925 -0.0027164065
000340 ae d1 eb bd a2 3b ed 3d c5 b7 d1 3d de cf 4e 3c
       -0.115146026 0.1158364 0.102401294 0.012622802
000350 b3 ce ae 3c 0e a3 52 bd 1e f6 94 3c 7f 25 d7 3d
       0.021338796 -0.051425032 0.018183764 0.10505199
000360 9e 69 85 3c 2c 5d 28 bc f0 17 0e 3d 11 0e ff bd
       0.016285714 -0.01027612 0.034690797 -0.12453855
000370 77 05 71 bd 8f 49 95 bc 44 60 8f bd 21 b6 3b bd
       -0.058843102 -0.018223552 -0.07000783 -0.04582799
000380 78 f1 ca bd ea 50 c9 bd 5e de 44 bd af 01 14 3d
       -0.09909338 -0.09829886 -0.04806363 0.036134418
000390 38 d6 ed bd 4e 9e 8a 3d b1 5b 90 bd cd 5b 8b bd
       -0.116131246 0.067684755 -0.07048739 -0.06804619
0003a0 84 af cf 3d 54 4a af bd ae 84 8f bd 8a 41 47 3a
       0.10140899 -0.08559099 -0.070077285 0.00076010136
0003b0 32 de 8f bd ef 21 c7 3d c3 3e e6 3d 8d 9f 88 bb
       -0.07024802 0.09723269 0.112424396 -0.0041694106
0003c0 e8 32 2b 3d b3 d9 e7 3c 3e e6 c2 bd 5b 9b db 3d
       0.041796595 0.02830205 -0.095165715 0.10722991
0003d0 de 31 26 3c d3 16 c5 bd 40 c3 0c bc 1c 01 eb bd
       0.010143725 -0.09623494 -0.008591473 -0.11474821
0003e0 41 b9 53 bd cb fb bd bb 60 ea c8 3d b8 7d 9d 3d
       -0.051690344 -0.0057978383 0.098103285 0.076899946
0003f0 a7 3b 45 3d 44 9f ec bc c9 5f 8f 3d 10 a2 5e bd
       0.048152592 -0.028884538 0.070006914 -0.054353774

gru.bias_ih_l0 f4 [192]
000000 2f 48 40 3d 5d 4f dc 3d 29 6c aa 3d be 0f 2f bd
       0.04694384 0.10757325 0.08321411 -0.042739622
000010 d0 68 c5 3c 17 09 1c bd 65 f8 9c 3d e4 d9 81 3d
       0.02409783 -0.038094606 0.07664565 0.063403875
000020 dd 4d 9e bd 84 71 f2 3d 40 42 df 3d 6d 40 da 3c
       -0.07729695 0.11838058 0.10901308 0.026642049
000030 f7 04 a7 bd b4 27 2e bc 14 d0 5a 3d 65 4d 88 3d
       -0.08155244 -0.010629583 0.053421095 0.06655387
000040 ff f4 9d bc 65 b2 16 bc 5e 61 c0 3a 8e 48 d6 bd
       -0.019281862 -0.009197806 0.0014677455 -0.104630575
000050 e5 4c e0 bd e7 90 32 bd 33 43 09 bd 1c 01 eb 3d
       -0.109521665 -0.04359522 -0.03351135 0.11474821
000060 4a cc 1a bd 33 00 c3 bd 5a 9c 6d bd 37 41 84 bc
       -0.03779248 -0.095215224 -0.058010437 -0.016144378
000070 95 4c a6 3d bb 02 b2 3d 80 dc 2b 3d 6c ad 48 3d
       0.081200756 0.08691927 0.041958332 0.048993513
000080 7f b5 c1 bb 57 fb 9c bd 5f 27 e0 bd ac 2f a9 bc
       -0.0059115286 -0.07665127 -0.109450094 -0.020652615
000090 49 b2 c3 3d f8 d7 cf bd 79 c9 eb bd d5 88 bb 3d
       0.095554896 -0.10148615 -0.11513037 0.09156958
0000a0 22 62 99 3d 09 e4 6b bd f2 bb ce bd ac 50 16 3a
       0.074894205 -0.05759052 -0.100944415 0.0005734067
0000b0 c7 83 85 3d 01 39 5a bd cc d2 47 bd df 82 cc bc
       0.06519275 -0.05327702 -0.048785016 -0.024964748
0000c0 37 c7 46 3d 46 30 02 3e 98 70 d2 bd ce de 35 3d
       0.04852983 0.12713727 -0.10275382 0.044401936
0000d0 82 f8 29 3c e8 e6 1a bd 15 9b 0b bc 96 4f b6 bd
       0.01037419 -0.037817866 -0.008520861 -0.089018986
0000e0 e1 1c bf 3d 71 e1 b8 bd f1 be 86 bd 78 2e 75 bc
       0.0933168 -0.090273745 -0.06579388 -0.014964692
0000f0 9e ce ca bd 5c 9d fc 3d 65 bb 3f bc 39 bf 0c bd
       -0.0990269 0.123347014 -0.011702393 -0.03436205
000100 a2 78 3c 3d da 26 f8 3d 7d 39 90 3d ac 8f dc bd
       0.046013482 0.12116785 0.07042215 -0.10769591
000110 a6 bb 37 3d 2d 74 c4 3d a0 27 f5 3d 88 a5 5e bd
       0.04485669 0.09592471 0.119704485 -0.05435708
000120 5f 38 f2 3b 49 65 7d bd f3 94 5f bd b7 26 5c bd
       0.007391974 -0.06186417 -0.05458541 -0.05374786
000130 de e4 b7 bd cc 58 6d bd 2c 6b bf bd d3 aa 97 bb
       -0.089792 -0.05794601 -0.09346613 -0.004628518
000140 50 0c bc bc 65 eb 72 bd 6d 53 e3 3d 4e 7b 97 bd
       -0.02295509 -0.05930652 0.110998966 -0.073965654
000150 77 60 09 be a1 52 74 3d f0 db ee bd 17 fa 76 3d
       -0.13415705 0.059649114 -0.116630435 0.060297098
000160 e6 4d fb 3d 44 9b 89 3d de cc 88 3d 08 7f 68 bd
       0.12270717 0.06719068 0.066797 -0.05676177
000170 78 13 8d 3d c4 15 e8 3c 6c af aa 3c 75 60 9a 3d
       0.06888479 0.028330691 0.0208356 0.07537929
000180 d8 f6 01 3e 21 98 93 3d 3d 9f 90 3d 5a 24 23 3d
       0.1269182 0.07206751 0.07061622 0.03982959
000190 ae 9d 88 3b ef 69 38 3d 7e 82 a6 bd d5 df d3 3d
       0.0041691875 0.0450229 -0.08130358 0.10345427
0001a0 4c 39 d2 3d 3e e6 ea 3d 48 3e aa 3d 38 09 50 bc
       0.10264835 0.114696965 0.083126605 -0.01269751
0001b0 4b f3 18 bd 6e 74 53 bd 2a f2 50 3d e3 45 07 3d
       -0.037341397 -0.051624708 0.051012196 0.033025634
0001c0 84 e3 bf 3d 77 97 19 bd 46 34 65 3c 72 50 a1 3d
       0.09369567 -0.037497964 0.013989514 0.07876672
0001d0 0d 0e d2 3d 87 92 78 bc b3 43 d0 ba c4 06 01 bc
       0.10256586 -0.015171654 -0.0015889317 -0.007875148
0001e0 21 29 e5 3d 41 e6 48 ba e9 a6 9d 3d d6 f4 a1 bb
       0.11189485 -0.0007663705 0.07697851 -0.004942517
0001f0 b7 a0 c7 bd 0d dc 24 bd 33 55 bd 3d 3d 90 bb 3d
       -0.09747451 -0.04024892 0.09244766 0.09158371
000200 42 78 00 3d 57 6b 77 bc 72 aa a2 bd b9 01 fb bd
       0.031364687 -0.015101275 -0.07942666 -0.12256188
000210 9e b7 45 3d d0 b6 cd 3b 94 03 6d 3d 20 68 9e bd
       0.048270814 0.0062778965 0.05786474 -0.07734704
000220 d0 52 e0 bc e5 f7 66 bd 95 6a 9c bd 1f 19 ee bc
       -0.027383238 -0.056388754 -0.076375164 -0.029064713
000230 e2 27 bb 3d fa b7 d5 3d f8 a8 bc bc 6b a7 8f 3c
       0.091384664 0.10435481 -0.02302979 0.017535886
000240 3c ce 37 3d b1 f7 d0 bd 6f 18 b4 bd 98 ad c4 bd
       0.044874415 -0.102034934 -0.08793723 -0.09603423
000250 79 c6 fe 37 a2 5d bd bc a6 d7 02 3e 8c 00 f1 bc
       3.037158e-05 -0.023115937 0.12777576 -0.029419206
000260 98 66 af 3d 8e 85 b0 bd e0 27 d0 3d d3 3a 93 3d
       0.0856449 -0.086192235 0.101638556 0.07188954
000270 b8 f4 a6 bc 2e 31 d3 3d d8 e6 2a bd 4a 89 c6 bd
       -0.020380363 0.10312115 -0.041724056 -0.096941546
000280 97 62 a9 3d 02 18 dc 3c 5c ac 05 3d b7 05 6a bd
       0.08270758 0.026866917 0.032635078 -0.057134356
000290 d0 37 1d 3d 73 01 ed bd 46 84 36 3d c8 73 ab 3d
       0.038383305 -0.11572542 0.04455974 0.08371693
0002a0 65 ad 17 bc 31 3c 65 bb 19 ce 68 bd 47 c3 cf 3d
       -0.009257649 -0.0034978504 -0.056837175 0.10144668
0002b0 53 27 ee 3d 10 9d 11 3d c2 45 45 bd af 79 56 bd
       0.11628594 0.035550177 -0.04816223 -0.05236214
0002c0 ad df 46 bd 0d e3 df 3d 0c 32 00 be 17 6e cb 3d
       -0.048553158 0.109319784 -0.12519091 0.09933107
0002d0 f3 75 e0 bd 33 3f 88 3d 7a 4e f5 3c 9a 61 b9 3d
       -0.10959997 0.06652679 0.029944647 0.09051819
0002e0 6f 3d 3c bd d6 18 0b 3d a7 29 d4 3d e1 8e 5c 3d
       -0.045957025 0.033959232 0.10359507 0.053847197
0002f0 ba 54 48 bd 74 f5 a4 bd d2 75 d2 bd 22 fd ef bd
       -0.048908927 -0.08054629 -0.10276379 -0.11718203

gru.bias_hh_l0 f4 [192]
000000 9d 78 8f 3c 84 ec d7 bd 58 72 85 bd c9 16 40 bd
       0.017513568 -0.10543159 -0.0651595 -0.04689673
000010 aa 0f 9d bc e8 b7 cd bd 72 7c 01 be ab 9c bd 3d
       -0.019172508 -0.10044843 -0.12645128 0.09258398
000020 68 42 83 bd 51 f1 08 bd 22 af 93 bd 94 c8 8d bd
       -0.0640915 -0.033433262 -0.07211138 -0.06923023
000030 21 21 2f bd 0e 33 90 bd 39 16 e6 bd 1b 31 22 bc
       -0.042756204 -0.07040988 -0.112347074 -0.009899403
000040 47 b0 05 be 1c 8a cd 3d c1 b8 ea 3c 75 08 fc bc
       -0.13055526 0.10036108 0.02865255 -0.030765751
000050 0e e7 4c bd ad 89 03 3d 29 37 7e bd 8b 55 f2 bd
       -0.05002504 0.03211372 -0.062064324 -0.11832722
000060 ab 83 99 bd 2f 91 bf 3d 10 92 b7 bd 79 8c 05 be
       -0.07495817 0.093538634 -0.08963406 -0.13041867
000070 ad db 8b bc 12 37 7e 3d a6 5c a9 bd 72 dd a2 3c
       -0.017072523 0.062064238 -0.082696244 0.019880984
000080 41 b5 ca 3d 92 77 4f 3b 71 4f 97 3d f7 e6 7f bd
       0.09897853 0.0031656963 0.07388199 -0.062476125
000090 9b 8d 99 3d a7 da 94 bd 10 14 35 3d c3 2b 70 bd
       0.07497712 -0.07268267 0.044208586 -0.058635484
0000a0 05 c0 5d 3d fb 72 27 bd dc ed 87 3d cd ae f5 bc
       0.054138202 -0.04088114 0.06637165 -0.029990578
0000b0 ce 53 f2 3c 9c b7 08 be 98 56 d7 bd ae 02 f7 bd
       0.029580977 -0.13351291 -0.10514563 -0.12061058
0000c0 04 1e fd 3d 8f e0 f9 bb 2c 88 9f 3d a2 31 dd bb
       0.12359241 -0.0076256464 0.077896446 -0.0067503015
0000d0 d9 79 ea 3c e3 59 98 3d 60 59 8c 3d 19 21 96 bd
       0.028622555 0.074390195 0.068529844 -0.073305316
0000e0 f2 1d 1e bd ab 7a c7 3d ad e0 8b bd c7 b6 31 bd
       -0.038602777 0.09740194 -0.06829963 -0.0433872
0000f0 b6 ce b6 3d ed cf ad 3d 10 92 0b 3d d1 0f 92 3d
       0.08926146 0.08486924 0.034074843 0.07131923
000100 10 8c 3c bb 9a 97 8c 3d 15 3b 53 3d 28 87 86 bd
       -0.0028770007 0.06864853 0.051570017 -0.06568748
000110 46 3b 82 3d 84 f1 04 bd 84 e2 8a 3d 51 be b5 3d
       0.06358962 -0.03245689 0.06781486 0.088741906
000120 e4 70 ae bc f2 8c 5c bc eb 05 fc 3b 53 9d b5 bd
       -0.021294065 -0.013461338 0.007691135 -0.08867898
000130 be ae d1 3d 8b 79 9c 3d a8 fa c4 bd 50 cb 27 3d
       0.102384076 0.0764037 -0.096181214 0.04096538
000140 56 ab 6f bd 0d ef f8 3d e7 d1 70 3d 9d eb 49 3c
       -0.058513008 0.1215497 0.05879393 0.012324241
000150 19 2d b6 3c 3c bf 6e bc 14 01 9f bb ed 95 ad bd
       0.022238301 -0.014571961 -0.0048524234 -0.08475862
000160 0b 41 e2 3d aa 41 b4 bd 3e f1 0a bd 18 cb 30 3d
       0.11047562 -0.08801587 -0.033921473 0.043162435
000170 40 ab d7 bd 65 bc 5d 3d 15 37 f5 3d 40 39 4b 3b
       -0.1053071 0.054134745 0.11973397 0.0031009465
000180 b2 34 ce 3d 82 5b 6e 3d 8a b2 d4 3d 4b 6c 37 3d
       0.100686446 0.058192737 0.10385616 0.04478101
000190 f2 da 98 bd b9 4c d9 3d cc d3 d1 3c 2f f1 ca bd
       -0.074636355 0.10610337 0.025613688 -0.09909283
0001a0 04 27 23 3c 5c b0 e7 3d 22 51 c4 3d 94 81 ef bc
       0.0099580325 0.11312935 0.09585787 -0.029236592
0001b0 22 af 3d 3d 4b b0 f6 3d d7 d9 7b bd dd ef a8 bd
       0.046309598 0.12045344 -0.061487045 -0.08248875
0001c0 4d 41 14 3c b4 ff ed 3d 7c 94 6c bd df 9a 0d bd
       0.009048772 0.11621037 -0.057758793 -0.034571525
0001d0 30 f6 6b 3d 29 3f 22 bd a6 2c 26 3d b2 d1 0f bc
       0.05760783 -0.039611015 0.040569924 -0.008778023
0001e0 d4 bd fc bd e6 2b cd 3c e1 50 d3 bd 46 a9 9a 3d
       -0.12340894 0.025045346 -0.10318161 0.075518176
0001f0 51 ee 9b bd 03 ef a3 3d 61 37 72 3d 18 0a 23 bd
       -0.076138146 0.08004572 0.059134845 -0.039804548
000200 85 c9 0c bd 69 dd fb 3d 42 ed 8b bd c5 45 89 3d
       -0.03437187 0.1229809 -0.06832363 0.067027606
000210 37 d5 9f bd d7 c1 92 bd 36 43 3e bd 26 e6 2c 3d
       -0.078043394 -0.07165878 -0.046450816 0.042211674
000220 72 a9 c6 3c 8b 28 63 bd 43 fd 12 3d 6e ed 9d bd
       0.02425072 -0.055458587 0.03588606 -0.07711302
000230 cc 4b cd bd f6 26 30 3b a5 f4 b0 3d 2b bd 6c bd
       -0.10024223 0.0026878691 0.08640412 -0.057797592
000240 20 2a bf 3d 6b 18 02 3d 7d f4 85 3d 31 43 01 bc
       0.093342066 0.031761568 0.06540773 -0.007889555
000250 ed d8 2b 3d 5d 33 aa 3d 8b 45 77 bd 2f 99 bf bd
       0.041954923 0.08310578 -0.060369056 -0.09355389
000260 5c 06 84 3d 5d 0b cb 3c dc 95 a1 3d ab 50 99 3d
       0.064465255 0.024785692 0.078899115 0.07486089
000270 b2 e6 a8 bd e1 23 ab bd 75 d4 14 3d c3 88 d4 3d
       -0.08247127 -0.08356453 0.036335427 0.10377648
000280 aa 47 91 3d f5 5e cc bd 2d 7c b8 3c 79 f1 a0 bd
       0.07093747 -0.09979049 0.02252015 -0.07858557
000290 0b 02 65 bd cf 40 bc bd 1f ac ad bd 77 f7 09 bc
       -0.05591015 -0.09192049 -0.08480095 -0.008420817
0002a0 cf 39 ca bc c2 79 73 3d 55 bb 95 3d 3d ae 47 3d
       -0.024685768 0.05944229 0.073111214 0.04875015
0002b0 e5 f5 4a bd 6b 07 7c bd 51 f9 8b bd fe d7 19 3c
       -0.04955091 -0.06153051 -0.06834663 0.009389875
0002c0 74 65 ab bd c3 7d 1b bd 3d 15 61 bd d3 66 b8 bd
       -0.0836896 -0.037961733 -0.054951895 -0.09003987
0002d0 a5 56 78 3a 37 5b 1e bc 85 7f 1a 3d 25 f2 18 3c
       0.000947336 -0.009665302 0.03771927 0.0093350755
0002e0 68 b7 2d bd c0 21 85 3d d0 70 59 bd 05 88 82 bc
       -0.042411238 0.06500578 -0.053086102 -0.015934
0002f0 bf 36 00 3e 9f bb 01 3e 0d 52 43 bc 48 a3 96 3a
       0.12520884 0.12669228 -0.011921418 0.0011492753

attn.query.weight f4 [1, 64]
000000 d9 85 07 3d 4b c9 22 bd 69 7a fa bc f0 06 ae 3d
       0.03308663 -0.03974275 -0.030575948 0.08497417
000010 d4 40 40 bd 5c a4 8a 3d b1 81 76 bd 30 2b 0d bd
       -0.046936825 0.0676963 -0.060182277 -0.034465015
000020 a5 f4 f9 bc ad 81 e1 3d 36 5d 94 3b fa 0b b3 bd
       -0.030512163 0.11011062 0.004527713 -0.08742519
000030 a1 d6 26 bd 91 83 b8 bd 05 8c f9 bb 06 13 7e 3d
       -0.04073203 -0.09009469 -0.0076155686 0.06202986
000040 9f 8f 69 3d 37 f2 bf bd 80 c1 dc bd d7 86 db bc
       0.057021733 -0.09372371 -0.10779095 -0.026797695
000050 53 da 19 3d 28 8d 8b 3d 4e b6 f0 bd 78 af c0 bd
       0.037561726 0.06814033 -0.11753522 -0.09408468
000060 1c f0 10 3c c1 a9 39 3c 7d a9 af bd df 26 d2 bd
       0.008846309 0.011331976 -0.08577249 -0.1026132
000070 47 f4 77 3d 08 d3 e3 bd e1 7e a7 3d eb 9c ce 3d
       0.060535695 -0.111242354 0.08178497 0.100885235
000080 73 13 e6 bd af f3 ba bd a1 bb e5 bd 4b 52 e9 3d
       -0.112341784 -0.0912851 -0.11217428 0.11392649
000090 fb eb b5 3c 85 8a c1 3d d4 e7 76 3d ea a7 bb 3d
       0.02220725 0.09450249 0.060279682 0.091628864
0000a0 4e 00 09 bc ff 93 83 bd 93 e2 fe bd d1 07 b8 bc
       -0.008361889 -0.064247124 -0.12445559 -0.022464665
0000b0 89 87 43 3d 50 9d e1 3b ad 44 19 3c de 19 a5 bd
       0.04773668 0.006885208 0.0093547525 -0.080615744
0000c0 8a 22 fa bd 82 95 16 bc d9 d1 2e bd 02 ea 90 3d
       -0.12213619 -0.009190919 -0.042680595 0.070758834
0000d0 b3 ec ea 3d 00 bc 5b bd 89 06 15 bd c2 86 11 3d
       0.11470928 -0.053646088 -0.036383186 0.035528906
0000e0 fb 00 c5 bc 5a 2a 9a bd da 83 5e 3d 78 98 be 3d
       -0.02404832 -0.07527609 0.054324962 0.09306425
0000f0 4c 16 c6 3d 5f 8e f4 3d 3d d9 3f 3d c7 36 84 bb
       0.096722215 0.11941218 0.046838034 -0.0040348503

fc.0.weight f4 [64, 64]
000000 9a 65 9b bd f8 c4 ea bc f4 eb 7f 3d d2 c2 b9 bd
       -0.07587738 -0.028658375 0.06248088 -0.09070362
000010 0c dc 81 bd a0 8c e5 3c 16 6f ef bd a8 cc d1 3d
       -0.06340799 0.028021157 -0.1169111 0.10244113
000020 30 3b 3a bd 38 b5 bb bd 10 b2 08 bc 20 52 a5 3b
       -0.0454666 -0.09165424 -0.008343235 0.0050451905
000030 ba f9 cd bd 3e 8e 95 bd 78 26 8c 3d e8 68 88 3d
       -0.10057397 -0.07302521 0.06843275 0.06660634
000040 80 76 c7 3b d8 fa 39 3d e8 5f 49 3d e0 b9 d2 bb
       0.0060871243 0.04540524 0.04916373 -0.0064308494
000050 9a da 9c 3d fc e9 fa bd 40 44 fe 3b d8 01 78 bd
       0.076588824 -0.1225166 0.007759601 -0.060548633
000060 16 b4 e0 3d 04 92 1c 3d a0 b0 ab bc c0 b4 cf bd
       0.10971849 0.03822519 -0.020958245 -0.10141897
000070 80 e6 e5 3a 1c 58 da bd 54 8a 44 bd 78 63 a5 3d
       0.0017540008 -0.10661337 -0.047983482 0.08075613
000080 fe f8 a3 bd f8 df 7e bd f4 da fd 3d 74 d0 7a 3d
       -0.08006476 -0.062225312 0.123952776 0.061233953
000090 50 1e 56 bc f2 29 df bd 10 87 58 bd 80 f8 66 3b
       -0.0130687505 -0.10896672 -0.05286318 0.0035243332
0000a0 02 c4 f6 bd c0 2e 5f bc e0 31 aa bd fc d4 fe bd
       -0.12049104 -0.013621986 -0.08310294 -0.12442967
0000b0 88 83 8a bc 00 f2 e1 3c 40 87 87 3b a2 00 c8 3d
       -0.016908422 0.027581215 0.004135996 0.09765746
0000c0 58 c3 34 3d d0 63 3b 3c c4 83 56 3d 68 74 eb bc
       0.044131607 0.011437371 0.052371755 -0.02874203
0000d0 5a 46 ef bd 8a aa 83 bd 50 26 ee 3c dc 57 3b 3d
       -0.1168334 -0.06429012 0.029071003 0.045738086
0000e0 50 7f ba bd c4 c4 81 bd 0a ba d7 bd a8 f5 01 bd
       -0.09106314 -0.06336358 -0.10533531 -0.031728417
0000f0 00 22 9a 3c 2a f2 e3 bd 60 87 90 3b e0 d9 0a 3d
       0.01881504 -0.111301735 0.004410669 0.033899188
000100 5e 3d b5 bd 1e 34 25 3c 6d 83 db bb b0 a5 84 3a
       -0.088495955 0.0100832265 -0.006699017 0.001012018
000110 dd 4f 81 bd 59 44 88 bd 9d db 8c bd be 31 91 bd
       -0.06314061 -0.06653661 -0.068778254 -0.07089566
000120 ef 72 32 3d 09 b9 db 3d fb 23 b5 3c 11 1a 9f bd
       0.04356664 0.10728652 0.022111883 -0.07768644
000130 87 09 51 3c e4 12 fe bd 51 7c ae bd 30 3f 41 bd
       0.012758619 -0.12405947 -0.08519805 -0.0471794
000140 b6 3a fe bc 98 93 1f bd 0a 8b c8 bd 76 a4 af bd
       -0.031033855 -0.038959116 -0.097921446 -0.0857629
000150 5e ef 36 bc ad 32 b3 3b 77 76 3a bd 9f 22 c9 bd
       -0.011165468 0.0054686875 -0.045523133 -0.098210566
000160 2f 61 bf bd 5d 35 f4 bd 13 de 08 bd 39 f2 27 bd
       -0.09344708 -0.11924241 -0.03341491 -0.041002486
000170 70 6e 35 b9 02 31 7c 3c c5 37 92 bd ed 8e d5 3d
       -0.00017302646 0.015392544 -0.071395434 0.104276516
000180 f9 52 90 bd 80 13 83 bc 6a 4d 17 bd 30 87 70 bc
       -0.07047076 -0.01600051 -0.036939062 -0.014680669
000190 16 ec b3 bd 37 09 ea 3b cb 20 51 3d 04 59 e8 3c
       -0.08785264 0.007142212 0.051056664 0.028362758
0001a0 01 46 a6 bd 40 9c cf bc 57 a6 f6 bd 0a 41 95 bc
       -0.08118821 -0.02534306 -0.120434456 -0.01821949
0001b0 ad 2c be bd 6b a1 8f bd 27 62 1a 3d ec c1 c5 bd
       -0.09285865 -0.0701321 0.03769126 -0.09656128
0001c0 4e 36 f8 3d 12 1f d9 bd b6 66 a5 bd 8d 16 e6 3b
       0.12119733 -0.10601629 -0.08076231 0.007021731
0001d0 a1 64 41 3d 60 69 b4 bd 4e 6d 03 3c 02 e2 80 bd
       0.047215108 -0.08809161 0.008021666 -0.062931076
0001e0 c0 e3 17 3a 6b cc 49 3d 7b d8 fb bb eb 46 e1 bd
       0.000579413 0.049267214 -0.0076857186 -0.10999855
0001f0 99 b4 82 3d 8c be 96 bc 06 37 dc 3d d8 94 e9 bd
       0.063821025 -0.018401407 0.107526824 -0.11405343
000200 c7 d4 28 3d 2d a4 64 bd 83 ef e9 bd 84 be 5c bd
       0.041218545 -0.055820633 -0.11422636 -0.053892627
000210 22 dc a1 3c 29 a3 b8 3d a0 b4 17 3d ee dc 42 3d
       0.019758288 0.09015495 0.03703749 0.047573976
000220 7f 79 2d bc e9 55 b9 3d ae 6e 01 3e 6e fc 83 3c
       -0.010588049 0.09049589 0.12639877 0.016111579
000230 27 ad 2e bd 70 8b b3 bd e3 b8 77 3d 97 72 83 bd
       -0.0426456 -0.0876683 0.060479056 -0.06418341
000240 23 f7 93 3d dc b2 50 3d 15 31 ba 3d 63 e7 70 bd
       0.07224872 0.050951824 0.09091393 -0.058814418
000250 df e4 cf bd 99 66 c3 3d 89 7d d8 bd 4b 7c 53 bd
       -0.101510756 0.09541053 -0.10570819 -0.051632207
000260 de 79 f2 3d b5 3d 11 3d 02 eb a8 3d ad 30 1e 3d
       0.118396506 0.03545924 0.08247949 0.03862064
000270 4b c2 94 bd 90 28 9c bd 43 f5 24 3d 99 4e 71 bd
       -0.07263621 -0.07624924 0.040272962 -0.058912847
000280 d3 c8 9c 3d f6 c0 86 bd 5e 11 d5 bd f2 2b 90 3d
       0.07655492 -0.06579773 -0.10403703 0.07039632
000290 0e 6c c9 3d 17 98 a7 39 e5 a1 8e bd d3 63 13 bc
       0.09835063 0.00031966038 -0.06964473 -0.008995968
0002a0 a5 47 36 3d ec 44 ae 3d 60 bc 39 bd 9b 8d dc 3d
       0.04450192 0.085092396 -0.045345664 0.107691966
0002b0 42 ad e1 bd db 5d 58 3d ef a9 73 3d 57 7c 0d 3c
       -0.110193744 0.052823883 0.059488233 0.008635602
0002c0 fc e5 58 bc 65 bc c4 3b b9 fe 9d 3c d1 20 0a 3d
       -0.013238426 0.0060039037 0.0192865 0.033722702
0002d0 53 03 e0 bd 1c f1 4b 3d a5 8c aa 3d cf 39 36 3d
       -0.10938134 0.049790487 0.08327607 0.044488724
0002e0 c2 bb e3 3d f4 0a 15 bc a8 c4 23 bd 79 15 00 be
       0.11119796 -0.00909685 -0.039982468 -0.12508191
0002f0 a6 6a ad bd 41 f4 da bd 01 3e b3 bc df 87 8c 3d
       -0.08467607 -0.10691119 -0.021880152 0.06861853
000300 80 ee f3 bc 5c fc d9 3d 5c 59 0f bd dc a6 6e bd
       -0.029776812 0.10643837 -0.03499733 -0.0582646
000310 6a d1 97 bd 10 cf af bc 64 d0 cc 3d 60 ac 4a 3c
       -0.074129894 -0.02146104 0.10000685 0.012370199
000320 f4 b7 fb bd b8 9e eb 3d fc 91 d7 3d cc fe 08 3d
       -0.12290946 0.115048826 0.10525891 0.03344612
000330 38 0e 2c 3d 40 25 7c 3b c0 d4 c4 bb 50 e4 91 3c
       0.042005748 0.0038474351 -0.006006807 0.017809063
000340 aa b7 e0 3d 18 56 bc 3c 70 e7 52 bd b0 ce a7 bd
       0.10972531 0.022990271 -0.051490247 -0.081937194
000350 18 77 d7 3c 8e a2 94 3d 34 05 03 bd 6c 52 70 bd
       0.026301906 0.07257567 -0.031987384 -0.058672354
000360 d4 01 3d 3d 34 e2 8d 3d 40 7f 93 bc 00 c8 53 3a
       0.04614432 0.069279104 -0.018005013 0.00080788136
000370 de 37 d2 3d 46 74 a5 3d 80 8d 08 3c 20 a5 2c bc
       0.10264562 0.08078818 0.0083345175 -0.010537416
000380 94 b5 1d 3d 10 12 11 3c 60 4d f5 bd 80 ac 90 bc
       0.038503245 0.008854404 -0.11977649 -0.01766038
000390 fc b2 a8 bd 20 57 fc 3c 5e 8e f5 bd a2 a7 a2 3d
       -0.082372636 0.030803263 -0.11990045 0.0794213
0003a0 e4 28 94 3d 34 65 a7 3d 20 4c a3 bc 04 a5 9e bd
       0.07234362 0.081736 -0.01993376 -0.07746318
0003b0 54 cc da bd 8e 3c b4 3d a0 a9 e0 bd 22 4f f7 3d
       -0.10683504 0.088006124 -0.109698534 0.1207564
0003c0 40 4c 47 3b 1c 65 72 3d b4 c6 13 bd a2 41 84 bd
       0.0030410439 0.059178457 -0.03607817 -0.06457831
0003d0 3a 4e c6 bd 78 a1 a9 3d 0e 38 ba 3d c0 42 c8 3b
       -0.09682889 0.08282751 0.09092723 0.006111473
0003e0 d8 31 b8 bd c0 6a ad 3b 48 a0 b9 bc 00 79 bd bc
       -0.08993882 0.0052922666 -0.022659436 -0.023128986
0003f0 90 6f 39 bc dc 70 ae 3d 22 51 ce 3d 00 57 58 bb
       -0.0113181025 0.0851762 0.100740686 -0.003301084

fc.0.bias f4 [64]
000000 c0 70 0e bb 2d 54 48 3d 65 6a 08 bd ee 67 c7 bd
       -0.0021734685 0.0489084 -0.03330459 -0.0973662
000010 c7 37 55 bb 1d 87 31 3d fa 78 cc bc 43 b5 e2 3d
       -0.0032534467 0.043341745 -0.02496003 0.11069729
000020 a4 51 b7 bd 04 90 98 bd c2 a4 89 bc 58 bc 90 bd
       -0.089511186 -0.07449344 -0.016802195 -0.07067174
000030 22 54 97 bd 30 b8 dc bd 7f 83 c1 3d d8 07 de bd
       -0.07389094 -0.107773185 0.09448909 -0.1084134
000040 fe 70 94 bd 66 99 58 3d 84 38 a2 3d 70 9d 03 3c
       -0.07248114 0.052880667 0.07920936 0.0080331415
000050 96 d5 f6 bd a5 a6 14 3d 7c 4f 55 3d c4 e9 c4 3b
       -0.12052457 0.036291737 0.052077755 0.0060093123
000060 90 ae c3 3c 00 31 ad 3d 3a d2 c9 bc 28 1a ae 3c
       0.023886949 0.08456612 -0.024636377 0.021252707
000070 51 44 a6 3d 21 03 2a bd 48 85 9c 3c fc aa af 3d
       0.08118499 -0.04150689 0.019106522 0.085775346
000080 f0 02 c8 3d 76 9a d2 bd 63 f8 ed bc 38 4a f6 bc
       0.09766185 -0.10283367 -0.029049104 -0.030064687
000090 9b b4 b3 3d a4 ab c6 bd 57 46 f3 bd ac 3f 15 3d
       0.08774682 -0.097007066 -0.11878651 0.036437675
0000a0 5a 06 c4 3d fc c8 7e 3d 26 bb ca bd ec e4 7e 3d
       0.09571524 0.062203392 -0.09898977 0.062230036
0000b0 44 ff c8 bd b8 4f a9 bd 44 b8 c1 bd 07 1b 15 bd
       -0.09814313 -0.08267158 -0.09458974 -0.03640273
0000c0 7a 1d f7 3c 46 35 89 3c 1a dc 1e 3d ae b4 fb bd
       0.030165423 0.016749036 0.038784124 -0.12290321
0000d0 9f 1e a2 3d 82 13 80 bd 38 c4 97 3c 91 b1 f5 3d
       0.07915997 -0.06253721 0.018526182 0.11996759
0000e0 a3 72 e4 3d 3d ae fa 3d 30 f0 67 bd 20 0a 84 bd
       0.11154678 0.122402646 -0.056625545 -0.06447244
0000f0 c0 8f 07 bd 64 c5 21 3d b2 e3 04 3e 0a 09 ae bd
       -0.033096075 0.039494887 0.12977484 -0.08497818

policy_head.weight f4 [2, 64]
000000 f8 e4 c8 3d c8 a5 e1 bd 8d a9 e5 3d 24 51 f9 3d
       0.09809297 -0.110179484 0.1121398 0.121736795
000010 d4 b9 a5 bd f4 ef 28 bd aa 6b df bb 45 0c 2a bd
       -0.080920845 -0.041244462 -0.0068182545 -0.041515607
000020 30 9e e2 3c 30 67 cb 3c d4 cd ac bb b2 88 78 bd
       0.02766332 0.024829477 -0.00527356 -0.060677238
000030 8a d6 80 3d e0 e8 a0 3b 30 85 b1 bd 7c 07 fb 3d
       0.0629092 0.0049105734 -0.086679816 0.12257287
000040 8a bf f4 bd cc f4 a4 3d 01 76 aa bd 70 d7 20 3c
       -0.11950596 0.08054504 -0.08323289 0.009816989
000050 18 44 b9 3c 38 76 ac bd af 3a e1 3d d0 06 78 3d
       0.022615477 -0.08420986 0.10997521 0.060553372
000060 48 2a 98 bd 8b 6b 1e 3d e3 a0 28 bd 34 af d8 3d
       -0.074299395 0.03867678 -0.04116906 0.10580292
000070 2f dd 8b 3c c5 f8 27 3d 92 3c a9 3d 1e a3 8e bd
       0.017073242 0.04100873 0.08263506 -0.06964706
000080 05 47 2a bb 4a 01 99 bd 90 5a b2 3d f2 5e a9 bd
       -0.0025982272 -0.07470949 0.0870868 -0.082700625
000090 28 66 e9 3d b0 f0 67 3c 6d 4f ee bd e6 f1 d1 3d
       0.11396438 0.014156505 -0.11636243 0.102512166
0000a0 1a bc 29 bd 67 39 87 bd 10 fb d8 3d 1c a4 a9 3d
       -0.041439153 -0.066027455 0.10594761 0.082832545
0000b0 e8 83 c6 bd c0 b9 6b bb 5a f8 98 3d 52 f0 29 3d
       -0.09693128 -0.003596887 0.07469244 0.041488953
0000c0 58 73 ec bd 51 5c 7a 3b 3e a4 43 bd 82 a5 e0 3d
       -0.115454376 0.0038201998 -0.047764055 0.10969068
0000d0 a7 57 03 3e 00 b3 1b 3d f8 4a 9f bc e3 19 a6 3d
       0.12826405 0.038012505 -0.019444928 0.08110406
0000e0 36 9a 20 bd c6 d6 d9 3d 28 20 3b bd 96 7a dc bd
       -0.039209567 0.10636668 -0.045684963 -0.10765569
0000f0 2a 18 c2 3d 60 e0 89 3c 22 fc 2a 3d 4e ff ca 3d
       0.09477265 0.016830623 0.04174436 0.09911977
000100 a8 ca a8 3c d9 38 ac bc 08 d5 38 3d bc 89 36 3d
       0.020604447 -0.0210232 0.045125037 0.044564947
000110 d4 71 a2 3d 3b 1a f8 3c 1b 4d a4 3c 50 cb 23 3c
       0.07931867 0.030285945 0.020056298 0.009997204
000120 50 bd bf bd 80 51 35 bc 9a 0b 16 bc b9 83 30 3d
       -0.0936228 -0.011066794 -0.009158039 0.04309437
000130 d4 cd 23 3d 48 bc f1 3c 46 dd a3 bd 44 6f 9c bd
       0.039991215 0.029508725 -0.08001189 -0.0763841
000140 80 a6 9f bd 38 1b 18 bd 77 a3 37 bd 60 c9 c2 3b
       -0.07795429 -0.037135333 -0.044833627 0.005944416
000150 d0 f1 33 bc f0 d8 8a 3d 96 81 e9 3d 31 78 b9 3d
       -0.010982946 0.06779659 0.1140167 0.09056128
000160 94 14 f4 bd d6 52 d9 3d d5 06 46 bd 38 c5 ed 3d
       -0.119179875 0.10611503 -0.04834636 0.11609882
000170 9b f0 15 bc 24 e0 c8 3d be 77 9e bd b0 60 63 3c
       -0.009151603 0.098083764 -0.07737683 0.013878033
000180 ba 3c 6c 3c 28 91 b0 3d c2 f5 1c bd 84 2b 7c 3d
       0.014418775 0.08621436 -0.03832031 0.061564937
000190 a7 78 18 3c 80 ae f2 3d 05 27 c1 3d eb 3a f6 3d
       0.0093061095 0.118496895 0.094312705 0.120229565
0001a0 ea 26 8a 3d e1 7f 9a bd 4c e5 21 3d 32 84 e6 bd
       0.067457035 -0.07543922 0.039525315 -0.11255683
0001b0 20 29 be 3b 4e 8d af 3d de 55 d4 3d 44 65 26 3d
       0.0058032423 0.085718736 0.1036794 0.04062392
0001c0 f6 b4 f3 bd f2 6c 75 3d 4b dc 45 bd a0 79 33 bd
       -0.1189975 0.05991835 -0.04830579 -0.043817163
0001d0 ad b2 aa 3c 34 ab a2 3d 70 db c0 bc 17 26 96 3d
       0.020837152 0.07942811 -0.023542136 0.07331484
0001e0 33 09 96 bd a8 89 60 bd 7a 81 b2 bd 20 42 f1 bd
       -0.07325973 -0.05481878 -0.08716102 -0.117801905
0001f0 b2 45 c7 3d 86 dd b3 bd 5c e1 bf 3b 40 d8 b5 bc
       0.0973009 -0.087824866 0.0058557224 -0.022197843

policy_head.bias f4 [2]
000000 10 7b ec 3d 4b bb 42 bd
       0.1154691 -0.047541898

value_head.weight f4 [1, 64]
000000 36 5f d8 bd 69 d1 d2 bd be 2f 07 be ea 4b bd bd
       -0.10565035 -0.10293848 -0.13201806 -0.09242995
000010 ea 7c a8 bd 6b c2 7c 3d b3 7b 8c 3d c6 87 82 3c
       -0.082269505 0.06170885 0.06859531 0.015933882
000020 5c db d8 3d 00 36 84 bc 2b 8a 49 3d 58 10 d0 3d
       0.105887145 -0.01613903 0.049204033 0.10159367
000030 b4 4c ab bd ec 4e c4 3d 0c 99 ab 3c 68 ab df 3c
       -0.08364239 0.09585366 0.020947002 0.027303413
000040 2e 8d c6 bd ef a2 3b 3a 17 cc b9 bd 70 53 88 bc
       -0.09694897 0.0007157763 -0.0907213 -0.016641349
000050 84 08 82 3d a9 02 ae 3d 4c e9 8f bc 44 63 a3 3c
       0.063492805 0.08496601 -0.0175673 0.019944794
000060 d8 a5 73 3d d6 3d 60 bd e2 61 b7 3d d0 56 7f 3d
       0.059484333 -0.05474647 0.089542165 0.06233865
000070 57 ba a0 bc e9 62 5d 3d 44 60 ab 3d 23 a2 5f bd
       -0.019620104 0.054049406 0.083679706 -0.054597985
000080 41 43 9f 3b 50 9b da bd 30 32 73 bb 30 2f 9c bc
       0.004860312 -0.10674155 -0.0037108772 -0.01906547
000090 5a 7b 60 bb 78 b1 51 bd 1b 3e 5f bc ba 59 e6 3b
       -0.003425321 -0.051194638 -0.013625647 0.007029739
0000a0 b8 34 73 3c 67 55 b7 bd 2c b0 cf 3d 0a 8e 15 bb
       0.014844112 -0.08951836 0.10141024 -0.0022820258
0000b0 60 ce 28 3c 7a e5 f1 3d e4 af 9c 3d 8a 63 f3 bd
       0.01030311 0.11811347 0.07650736 -0.1188422
0000c0 40 63 c5 3d 98 b7 8c bc 11 82 7b bd e0 21 ed 3b
       0.09638071 -0.017177388 -0.061403338 0.007236704
0000d0 0f ea eb ba f8 66 b9 3d 00 6e d8 bc cd 5a 58 bb
       -0.0017998832 0.09052843 -0.02641964 -0.0033013106
0000e0 5c 09 1e bb 30 41 f1 ba 46 2e 9e bd a8 97 d1 3c
       -0.0024114465 -0.0018406268 -0.0772367 0.02558501
0000f0 58 22 79 3d da f2 8b bb db b2 a5 ba 54 55 b1 bd
       0.06082377 -0.0042708935 -0.0012641804 -0.08658853
