checkpoints/live_20251008_201544.pt (torch, 73189 bytes, 10 tensors)

gru.weight_ih_l0 f4 [192, 1]
00000000: a42b 12bd 44e1 b43d 9728 c33d 3c5b c43c
00000010: c8a0 af3d 99af d1bd 9c5b c63d a42b bf3d
00000020: 9faa fc3c 6124 b7bd 6299 81bd 122a 4bbd
00000030: eba5 343d 355c 2ebd 94cf 6e3c 302b a7bd
00000040: 9a99 913d 0685 cbbd cd9b 12bd 2c90 cc3d
00000050: e433 c3bd 2431 803d b797 e5bd 03b9 4b3d
00000060: e010 f4bd 93f5 383d 4f04 b7bd ace4 27bc
00000070: 84fe 0c3e ece4 94bc 44b8 b9bd dbf4 9f3c
00000080: d4c6 cc3d 848f ca3d 98a0 383d ec5e 0c3d
00000090: c0c2 a43c 9e47 c6bd f6de bf3d 2e1b 7d3c
000000a0: 4225 30bd 924b a03d 5e87 823d a33b 853d
000000b0: 5f37 04be 8a40 e13d 9449 8c3d a484 ecbd
000000c0: 51c6 ba3c e3b1 49bd 34ff 31bc 1874 583d
000000d0: 096a d4bc 06de e2bd adae 8abd ad81 89bb
000000e0: 38c1 e3bd 9e09 303d 5521 f2bd e35b 673d
000000f0: e2a7 8fbd 5409 8f3d c19d f8bd 80c5 bdbd
00000100: 4577 703d 2c35 a5bc 4fda e83c dc52 99bd
00000110: a554 af3d d60a b2bd f9fc b9bd 010f b33c
00000120: 361c 7d3a f787 00bd 8789 cbbc 9ec1 61bd
00000130: 519d 913c ca0a d03d f7df 953d 43d8 f0bd
00000140: b84c 9dbd ecb7 fb3c b837 d23d 3494 b8bd
00000150: 43cd 6ebc 4555 e0bd 39d0 983d a08d ed3c
00000160: 7c36 89bd 5ef2 54bc 27eb f9bc 8de3 633c
00000170: 09e7 43bd e92e d53d 557a 693d 9e24 c6bd
00000180: 54d1 f9bd 20e9 85bd a456 90bd 337b e7bb
00000190: 5e97 0ebe 26e8 143d f650 2f3d ad47 96bd
000001a0: fccc d2bd b2b0 fa3c 61e9 80bd f750 1fbc
000001b0: de99 1cbd b80f f4bc f23a 573c fe32 6fbd
000001c0: f9a4 e43d 6ad1 d43d f788 203a e8f1 07bd
000001d0: d622 60bc eb84 223d 0f5c dabd 308f 1f3d
000001e0: 5ebc 0e3d f581 38bd 4b27 d1bd 41f8 51bd
000001f0: afd6 913d 2c94 bc3d 2071 fb3d af91 85bd
00000200: 5a1e c3bd 257d babd 6495 a0bd 31e8 39bd
00000210: fd77 60bd e505 903c 13c9 cfbd 6180 2ebd
00000220: b103 293d 6a22 9a3b 6188 e83c a65d 97bd
00000230: ac43 913d 195b 9ebd b0a5 1fbd 89fa 19bd
00000240: e367 aa3d 01a9 853d c297 b3bd ffd2 d43c
00000250: bb72 7ebd 410b 943d d4c5 a0bd d84a 06bd
00000260: 9acf 053d 036b ecbd 9790 48bd a170 a8bc
00000270: bfa5 b83c cedd 653d ce66 f8bd 5eff babd
00000280: 3535 2c3b 8767 e4bc 9412 953d 6e41 84bd
00000290: be74 7e3d 7f17 0a3e 5290 6b3d 8ad6 2dbc
000002a0: 99f2 1f3c da4a f6bc 7450 b33d ede9 673d
000002b0: e94f 86bb c2bb 04bd f1a7 253c 9b69 b63d
000002c0: fa4a 343d 9560 5a3c 54a5 af3d e5f7 eebd
000002d0: cde6 1f3c fbae 843d ccdd 96bd 8df1 223d
000002e0: c54d bdbd 170e 6f3d cbbb c4bd 8f3a d13d
000002f0: 5791 aabc 6130 04be 75bf 85bd 21b8 b4bd
-0.03568615 0.088320285 0.09529226 0.023969285 0.085755885 -0.10238571 0.09685442 0.09334496
0.030843077 -0.089424856 -0.063280836 -0.04960067 0.044103544 -0.042568404 0.014575858 -0.08162534
0.07109375 -0.099374816 -0.035793114 0.09988436 -0.09531382 0.06259373 -0.11210578 0.049736988
-0.11917281 0.045156073 -0.08936369 -0.010247391 0.13768965 -0.018175565 -0.09068349 0.019525936
0.09998861 0.09890655 0.04507503 0.034270212 0.020112395 -0.09681629 0.09368698 0.015448375
-0.04300428 0.07826914 0.063734755 0.065055154 -0.12911747 0.10998638 0.068499714 -0.11548737
0.022799643 -0.04924191 -0.010864068 0.05284509 -0.025929468 -0.11077504 -0.06771598 -0.0041963668
-0.11120838 0.04297792 -0.11822764 0.056484114 -0.07014443 0.06984201 -0.12139464 -0.09266186
0.058707494 -0.020166956 0.02842441 -0.07486507 0.085610665 -0.08693473 -0.09081454 0.02185774
0.0009655388 -0.031379666 -0.024845852 -0.05511629 0.01777521 0.10158308 0.073181085 -0.11759999
-0.076806486 0.03072735 0.10264534 -0.090126425 -0.014575305 -0.10953764 0.0746159 0.028998196
-0.06699845 -0.012997238 -0.030507637 0.013909233 -0.047827754 0.10409338 0.05700143 -0.09674953
-0.12198129 -0.06538606 -0.070477754 -0.007064247 -0.1392493 0.036354207 0.04280182 -0.0733789
-0.10293004 0.030601833 -0.062945135 -0.009723893 -0.038232677 -0.029792652 0.013136612 -0.05839824
0.111642785 0.10391505 0.0006123925 -0.033189684 -0.013680181 0.03967754 -0.1066209 0.038954914
0.03484761 -0.04504581 -0.10212573 -0.051262144 0.07121026 0.09207949 0.12277436 -0.065219276
-0.095272735 -0.09105901 -0.07840994 -0.04538745 -0.05480193 0.017580936 -0.10145774 -0.0426029
0.041263286 0.0047038095 0.028385343 -0.07390909 0.070929855 -0.07732219 -0.03897637 -0.037592445
0.08320596 0.065263756 -0.0876918 0.025979517 -0.062121134 0.07228709 -0.07850233 -0.03278622
0.032668687 -0.11543848 -0.048966017 -0.020561518 0.022539971 0.056119733 -0.121289834 -0.09130739
0.002627683 -0.027881397 0.07278934 -0.06457792 0.062123053 0.13485526 0.05751068 -0.010610232
0.00976243 -0.030064989 0.087555796 0.056619573 -0.0040988815 -0.032405622 0.010110841 0.089068614
0.044016816 0.013328691 0.08576456 -0.11668376 0.009759617 0.064786874 -0.07366523 0.039781142
-0.09243349 0.058363046 -0.09606131 0.10216247 -0.020821257 -0.1290908 -0.06530658 -0.08824182

gru.weight_hh_l0 f4 [192, 64]
00000000: 6d81 1b3d 19ce d2bd ed44 4e3d e9a6 12bd
00000010: 82cc ed3d 0679 cf3d e18f 0c3c b344 88bd
00000020: 2d81 23bd 31d6 56bd a14d 493c a9dd 0abe
00000030: 0307 0ebc 0b39 113d b049 9dbc 5cbf abbd
00000040: 058d 9e3d 9960 9bbd 448a 903d 253e 8dbd
00000050: 1f27 563c 7c97 dbbd c964 a6bc ba9c db3c
00000060: cd47 66bb 9f98 ef3d 6575 8ebd 4411 c4bd
00000070: 79df 11bc 02f2 0e3d d892 83bc 592f bf3d
00000080: 920b 23bd cfd9 de3d 6697 05bd 5bb2 563d
00000090: 9e7d a3bd be5d 9bbc 7fd3 073d fd52 723c
000000a0: 03bf 12bd 0b37 4dbd 8345 11bd b3f9 afbd
000000b0: 77f2 ca3d 6673 003e 9262 983d 1e15 3c3d
000000c0: 85fc 5e3d 203b 19bd 92fb 9a3d e611 063e
000000d0: d21a 4d3d 3483 9e3c 4274 0a3e ad6d 57bb
000000e0: a59a f33c c53b 0cbd d858 a4bd 08a7 09be
000000f0: 0fe1 10bd db0a ca39 7748 61bd 0473 073d
00000100: c0e1 793c e2d5 dfbd 9f31 d3bd 5fe1 f3bd
00000110: 4269 03bc 6fe0 1bbd b274 10bd c55b c53c
00000120: ba82 d53b 120a 67bd 730e c0bd 662a c73d
00000130: 0e4c 033d 6256 78bd d2f5 403d 59d9 b73d
00000140: c420 e03d 3f02 29bd 0d95 5d3c f836 adbd
00000150: e752 14bd 123c a53d 4cda 07bc baee 79bd
00000160: f6bc dfbd ac13 db3d 31b4 18bc 1372 e33c
00000170: c281 d4bd f6be d0bd 4a29 bdbd 1f3b 2abd
00000180: 5f8e eb3d b8dc 753c 95f8 933d 48d8 f43d
00000190: 560e e2bd 44d8 71bd d742 ccbd d503 b73d
000001a0: b355 2f3d b90b e83d 3d48 ccbd f383 38bd
000001b0: 9bbe febd 96e3 eb3c 5f35 ebbc df5f 683d
000001c0: fdca c5bd a9d2 083d 4c0e 9e3d 2292 67bd
000001d0: 65db 31bd 89fd 943d fa5e c7bd 5305 1ebd
000001e0: e585 023e 2f09 d33d 8fcd 7c3d c54b 08bd
000001f0: f951 a1bd 4559 e43d 121b 8abd 2b85 df3c
00000200: d367 35bd 47a1 57bd 7158 de3d 2d55 163e
00000210: 2784 cc3b be22 633d 2da6 0bbe 7cb3 6b3d
00000220: e665 ec3d 51c8 1e3e 2033 093e fa71 523d
00000230: 0c73 fa3c 386b 973d 13ab d7bb 7fa0 e1bc
00000240: 7207 bebd 870c 043d ddcb 72bd c97a 81bd
00000250: 0ad7 843d 6825 13be 2b6f bb3c 41f5 81bc
00000260: ae8e 21bd 92a3 913d de07 fabd 1244 133d
00000270: 963a 683d c7da 34bd cd5a c13b 0a35 d43d
00000280: e7c1 debc b10f 3a3d a22c 813d 9089 9b3d
00000290: 2402 dcbd 4e53 06bd b888 93bd 974f 873c
000002a0: bb00 15bd 0d49 8b3b 764d 4a3d c354 e2bd
000002b0: 2640 f6bc 3726 8fbd d27f c63d 9c7a e13d
000002c0: 781e 7fbb 73b8 14be d5ac 96bc 46f0 993d
000002d0: a46a 873c fc58 ebbd 4a14 c33d e469 d7bd
000002e0: 6bb2 0e3e e147 01bd 4fb9 9f3d 58ac d5bd
000002f0: da81 e3bd 1d1b c9bb 9944 cd3d 4b4e cabb
00000300: eaa6 c83d eb06 2f3d 0b2e 973c 055c a1bc
00000310: 4329 21bd 0cad e7bd a129 74bd 9ddc 803d
00000320: 56b6 d93d 474f 45bd f8b6 b3bd b0ba c0bd
00000330: 4bbb 83bc 8ef6 883d af7d 3cbc 8659 b8bb
00000340: 5a7e b7bd 4594 d73d 00cf fd3d a5b0 17bb
00000350: 2259 c93c 2f37 4fbd aca8 f73c 9807 bd3d
00000360: 6608 283d 225e 6b3b d827 3e3d 2432 e6bd
00000370: a53c a3bd aced 80bc 0382 82bd 08fd 1ebd
00000380: 7165 aabd 4bee eebd f571 cebc 7203 d83c
00000390: d02f dfbd 6be2 5c3d 8474 67bd 0e06 6cbd
000003a0: 8daf 9d3d 15ac a5bd 7161 b4bd bcc6 1e3c
000003b0: c603 4fbd fee2 df3d efe2 d23d 4bc9 58bc
000003c0: 6c96 f03c 17c6 123d 969d dbbd 0e9a f13d
000003d0: 07d7 91b9 78f5 8ebd 3086 193b 488e cebd
000003e0: cdcd 44bd 0f43 333b 6196 df3d bf05 a03d
000003f0: b3dc 473d 7f8d a7bc a838 393d af41 87bd
0.037965227 -0.10293216 0.0503587 -0.03580371 0.116112724 0.10130505 0.008579225 -0.06653728
-0.039918113 -0.052450363 0.012286575 -0.13561119 -0.008668664 0.03545479 -0.019200176 -0.08386108
0.07741741 -0.07586784 0.07057622 -0.06896619 0.013070851 -0.10722253 -0.02031173 0.026808131
-0.0035138011 0.11699032 -0.06955985 -0.09573606 -0.008903378 0.034898765 -0.016061231 0.09335203
-0.039805956 0.108813874 -0.032615088 0.052416187 -0.07982944 -0.018965598 0.033160683 0.014790294
-0.035826694 -0.05010132 -0.035466682 -0.08592548 0.09909528 0.12544021 0.07440676 0.045918576
0.05444004 -0.0374099 0.075675145 0.13092765 0.050074406 0.019349672 0.13520911 -0.0032871768
0.029736826 -0.03423669 -0.08024758 -0.13442624 -0.035370883 0.0003853653 -0.05500075 0.03306867
0.015251577 -0.10929467 -0.10312199 -0.119082205 -0.008020701 -0.038055833 -0.03526754 0.02409161
0.006515828 -0.05640609 -0.09377756 0.09724884 0.032054953 -0.060629256 0.047109433 0.08977003
0.109437495 -0.041261908 0.013524306 -0.0845775 -0.036211874 0.08068098 -0.008291792 -0.061018683
-0.10924713 0.106971115 -0.009320305 0.027764356 -0.10376312 -0.10192673 -0.09236391 -0.04156029
0.115017645 0.015006237 0.07225148 0.11955315 -0.110378906 -0.059044138 -0.09973686 0.08936278
0.04280634 0.11330361 -0.09974716 -0.04504771 -0.12438699 0.028795045 -0.028711973 0.056732055
-0.096578576 0.033404026 0.07717571 -0.056535847 -0.04342212 0.072749205 -0.09734912 -0.038579296
0.12746389 0.10304486 0.061719473 -0.033275384 -0.07876963 0.11149839 -0.067434445 0.02728518
-0.044288468 -0.05264404 0.108567126 0.1468093 0.0062413397 0.055453055 -0.1363761 0.057544217
0.11542873 0.15506102 0.13398409 0.051378228 0.030572437 0.07393497 -0.006581673 -0.02754235
-0.09278764 0.03223851 -0.05927645 -0.063222475 0.06486328 -0.14369738 0.022880157 -0.015864016
-0.03944271 0.07111277 -0.12208532 0.03595359 0.056696497 -0.044153955 0.005900717 0.10361679
-0.02719207 0.04542512 0.06307341 0.07594597 -0.10742596 -0.03279429 -0.072038114 0.016517444
-0.03637765 0.0042506517 0.04939028 -0.11051323 -0.030059885 -0.06989711 0.096923485 0.11009714
-0.0038928073 -0.14523487 -0.01839296 0.07516532 0.016530342 -0.11491582 0.09525354 -0.10518244
0.13935249 -0.03156269 0.07799017 -0.104332626 -0.111087516 -0.0061372654 0.100228496 -0.006173884
0.09797461 0.042731207 0.018454572 -0.019697199 -0.03934599 -0.11312303 -0.059610013 0.06292079
0.10630481 -0.048171308 -0.08775133 -0.09410608 -0.01608052 0.066876516 -0.011504575 -0.0056259064
-0.089596465 0.10526327 0.12392998 -0.002314606 0.024578635 -0.050589737 0.030231796 0.09229964
0.041023634 0.0035914262 0.046424717 -0.11240032 -0.079705514 -0.01573833 -0.06372454 -0.03881553
-0.0832013 -0.116665445 -0.025200823 0.02636883 -0.108977914 0.053926867 -0.056507602 -0.05762296
0.07699499 -0.08089463 -0.08807648 0.009690937 -0.050540708 0.10931967 0.102971904 -0.013231586
0.029368602 0.035833444 -0.107234165 0.11796962 -0.00027816763 -0.06980413 0.002342593 -0.10085732
-0.04804783 0.0027353202 0.109173544 0.07813596 0.04879446 -0.020453213 0.045220047 -0.06604325

gru.bias_ih_l0 f4 [192]
00000000: a8b0 4f3d 7131 da3d f5c5 c03d 8065 f3bc
00000010: 88ac c13c 9af1 2ebd 1167 9c3d 4010 743d
00000020: 36e6 9abd 01b5 f53d 699b db3d a508 ca3c
00000030: ab52 b7bd 067e 69bc 6eb2 713d 9aaa 923d
00000040: 5983 7bbc 9f34 eeba 4616 c03b 7383 d4bd
00000050: 86cb edbd 327e 51bd 2777 12bd 89cc e53d
00000060: 9840 2ebd fb14 c4bd ce58 72bd 4d70 d5bc
00000070: 759b b23d 6fca c73d 6feb 1d3d a5eb 493d
00000080: 96bd 67ba 2e25 aabd 0412 d6bd 5839 cebc
00000090: 45b8 c43d 0f87 bdbd 458b f3bd 3ef9 b33d
000000a0: e935 953d 597f 6fbd 0936 c3bd 71fe 3a3a
000000b0: ce3f 853d 7972 58bd 84ed 4abd 207a adbc
000000c0: ded1 513d 70b1 083e 5911 d5bd 7091 4a3d
000000d0: 7a26 223c b644 11bd cee0 d2bb 7269 bbbd
000000e0: 82d1 bb3d e4b0 d0bd a151 82bd 314b 80bc
000000f0: 6645 d0bd 52ee f93d c716 a3bc 13d1 07bd
00000100: c516 353d ee44 fa3d e2c2 7c3d 1eb3 c8bd
00000110: 5078 3a3d 86c6 c13d b20d f73d e1ea 65bd
00000120: 46f9 d13b 8eea 81bd 2e08 57bd 5cbd 55bd
00000130: 3b30 ccbd 67a7 73bd 4381 bbbd 1f1e 0ebc
00000140: 66b5 d8bc e935 67bd 8e94 ec3d f77f a1bd
00000150: 2d31 03be 420d 893d aadb f0bd d7d8 803d
00000160: 1d1e f53d 3c6b 863d 38f7 8a3d 744e 40bd
00000170: 5041 823d e769 063d d152 2a3c 230f 9c3d
00000180: 0f30 f83d b825 a23d 8411 853d 9359 4f3d
00000190: 1d81 553b bbe1 1e3d 8fb7 a6bd 8395 d13d
000001a0: fdb1 db3d 9b69 ed3d 2917 a13d fdc0 1fbc
000001b0: ec55 17bd 4805 50bd f27b 543d b6d8 0c3d
000001c0: 3057 bc3d abdb 0cbd da36 7f3c 1e09 a63d
000001d0: 0cd5 d23d 662f 93bc c75d 6cbb b90c 17bc
000001e0: 1ac6 e83d 5cef 533c 9273 a33d 1612 00bc
000001f0: 4103 d0bd a6d4 21bd 65f0 b73d 965a c03d
00000200: 3abb 173d e3e9 84bc 487b b3bd 6b99 e5bd
00000210: aaa7 463d 3d40 8a3c 4f00 6f3d 64b0 a2bd
00000220: be9f f9bc a4ee 70bd 943d 96bd c792 e5bc
00000230: d43f cc3d 4193 db3d f2f6 82bc e08a 2f3c
00000240: 0faa 473d c583 c7bd 3c8a acbd 6a95 cdbd
00000250: 8e87 bb3b d6fb 06bd 1479 033e 1148 d9bc
00000260: 8c2b b53d 884e b0bd 6ef9 cd3d 68fe 6d3d
00000270: f1d9 d8bc 7230 c23d 51a4 43bd ea84 c5bd
00000280: 2830 b63d bcb2 053d 59ad 1e3d aaed 2fbd
00000290: e0fd 223d 726a ffbd d4e8 363d 6853 af3d
000002a0: e5db 2bbc 0db5 86bb 8cbc 4bbd 5d4c c93d
000002b0: 79ce ed3d d1d4 103d faf7 41bd 4ea6 4bbd
000002c0: 28b1 53bd 5b63 d63d 1181 fdbd 2b24 c53d
000002d0: fed8 dfbd 707f 8f3d 81e5 d73c ad40 bd3d
000002e0: 7419 33bd b79d 903c 6408 c93d 879f 7a3d
000002f0: a9cd 56bd 1297 a7bd 22a3 d8bd 0c50 ebbd
0.050705582 0.106539614 0.09412757 -0.029711485 0.02364184 -0.042710878 0.07636846 0.05958581
-0.075634405 0.119974144 0.107230015 0.024662325 -0.089513145 -0.014251238 0.059008054 0.07161446
-0.01535114 -0.0018173641 0.00586203 -0.103766344 -0.11611085 -0.05114574 -0.035758164 0.112206526
-0.04254207 -0.09574314 -0.059166722 -0.026054526 0.08721057 0.09755408 0.038554605 0.049296994
-0.0008840201 -0.08307873 -0.10452655 -0.025173828 0.09605459 -0.09254276 -0.11891798 0.087877735
0.07285673 -0.058471058 -0.09531791 0.00071332516 0.065063104 -0.052843545 -0.04954292 -0.021176398
0.051225536 0.13348937 -0.104036994 0.049455106 0.009896869 -0.03546592 -0.00643549 -0.091509715
0.0917082 -0.10189989 -0.06363226 -0.015660854 -0.10169487 0.12203659 -0.019908322 -0.033158373
0.044211168 0.122201785 0.061709292 -0.09799789 0.045524895 0.094616935 0.12063159 -0.0561322
0.0064078895 -0.06343566 -0.052498035 -0.05218254 -0.09970137 -0.05948582 -0.09155514 -0.008674174
-0.026453685 -0.056447897 0.11551772 -0.078857355 -0.12811728 0.06691982 -0.117606476 0.06291359
0.11968634 0.06563422 0.067854345 -0.04694982 0.063601136 0.03281584 0.0103957215 0.076200746
0.121185414 0.079173505 0.064974815 0.050622534 0.0032578178 0.038789492 -0.0814048 0.10233595
0.10727308 0.11592408 0.078657456 -0.009750602 -0.036947176 -0.050786287 0.051876016 0.03438636
0.09196317 -0.03438918 0.0155770425 0.08107208 0.10294542 -0.017966937 -0.0036066638 -0.009219342
0.1136591 0.012935486 0.07981028 -0.007816812 -0.10156871 -0.039509438 0.089813985 0.09392278
0.037043788 -0.016224807 -0.087637484 -0.11210903 0.04849974 0.016876334 0.058349904 -0.079438
-0.030471679 -0.058821335 -0.07335964 -0.02802409 0.09973112 0.10721446 -0.015986893 0.010714263
0.048746165 -0.0974193 -0.084248036 -0.10038264 0.0057229465 -0.032955013 0.12839156 -0.026523622
0.088461965 -0.08608729 0.100573406 0.05810395 -0.02647111 0.094818965 -0.047764126 -0.09644492
0.08895904 0.032641158 0.038739536 -0.042951263 0.039792895 -0.12471475 0.044655636 0.0856083
-0.010489439 -0.0041109384 -0.04974036 0.09829018 0.11611647 0.035359208 -0.04735563 -0.049719147
-0.05168262 0.10468169 -0.12378133 0.09626039 -0.1093006 0.07006729 0.026354553 0.092408516
-0.043725446 0.01765333 0.098160535 0.061187293 -0.052442227 -0.08183111 -0.1057799 -0.11489877

gru.bias_hh_l0 f4 [192]
00000000: 9649 ae3c 700a dabd 0c31 5ebd cfb9 0abd
00000010: f2cb a0bc 2c2c d7bd 16c5 01be e7ca b53d
00000020: 83b5 7fbd 5f6a 02bd f955 97bd 84d6 91bd
00000030: abbc 4fbd de9d 97bd 0ea5 dabd ab8e 9ebb
00000040: daa9 01be 9ca7 dc3d 1e5c 073d f7f3 f4bc
00000050: 5de4 67bd c438 c93c 92b5 83bd 1e8a f7bd
00000060: cf3d a3bd 677c be3d 42f0 b9bd 63b2 0fbe
00000070: 2a40 35bc 3ce3 943d 3255 b0bd d759 a53c
00000080: 1901 d53d 50c3 55bb cc64 a13d e335 89bd
00000090: 9793 9a3d be89 82bd 9d90 253d 074b 7fbd
000000a0: 8667 553d 4b0e 2bbd c573 933d 5b89 f4bc
000000b0: eb43 f13c fb45 08be 04e4 d8bd 7d40 efbd
000000c0: a951 013e afea a6ba 6be7 9c3d cf72 deba
000000d0: e590 e63c f32a 9d3d ac9e 903d f53a 9bbd
000000e0: bfb4 24bd 38ab af3d 5773 87bd be90 34bd
000000f0: ee57 b13d e320 ab3d 01eb d33c e686 943d
00000100: 2255 99bb aeb5 8e3d f68a 2f3d 1655 65bd
00000110: 9699 833d c44c 0abd 96c8 8c3d a31b b23d
00000120: a680 b6bc 394c 76bc e635 203c 9c68 b2bd
00000130: 6163 bd3d 3452 993d bf10 c1bd 1c39 173d
00000140: f4ff 7dbd d0c9 fe3d 23aa 813d 458c f33b
00000150: 6ea7 e73c 713e efbb e9fc bebb 223a a8bd
00000160: 4211 dc3d b271 b7bd a09c 06bd acfb 583d
00000170: 687d e2bd 6f1b 703d 8ed5 df3d 9187 803b
00000180: 0a77 c23d 63bb 853d d124 c93d 84a1 633d
00000190: cbb8 9abd 9e88 cc3d a1ff d03c 813b cdbd
000001a0: c2ec 6e3c b933 ea3d 032a bb3d 765d d7bc
000001b0: 814c 3f3d ed67 f83d 0f50 78bd 7926 a6bd
000001c0: 11bd ef3b a05d f43d e113 66bd 6829 04bd
000001d0: 2184 6d3d 3db2 2dbd e4e8 1d3d a9d7 25bc
000001e0: db20 f9bd 62b5 1e3d 3884 cdbd 4dc6 943d
000001f0: db50 a4bd bb72 a53d b16d 673d 6875 19bd
00000200: 48dd eabc f59c f93d d7b5 9cbd f8b9 9e3d
00000210: 9353 9fbd 4ecb 7abd 8246 3cbd 5742 243d
00000220: 6aa2 ad3c 9aef 6cbd ae1a 1f3d 5294 9bbd
00000230: 3566 bcbd bb05 b13b 293d bf3d 8259 84bd
00000240: c902 c73d a636 153d 6ba7 8d3d 306a 46bc
00000250: 6fd4 433d b373 963d 688b 74bd c0b1 b9bd
00000260: 8dc1 893d 10aa cb3c 036b 9f3d 8217 7b3d
00000270: 3c6c b5bd aa97 bcbd 4b26 f93c 437d d53d
00000280: a314 9e3d e674 c0bd 3e08 ea3c 731f 84bd
00000290: b74b 5fbd 55be cebd 3b9d adbd c13c d5bb
000002a0: b99f d3bc c4fd 703d 851b a43d b8d6 3a3d
000002b0: d051 4bbd b7b6 7cbd 6554 8abd 1944 453c
000002c0: 3eb2 b1bd a507 2fbd 6560 5bbd 5cb8 bebd
000002d0: 5273 9d3a bc5a cebb 08fa 0b3d dae9 373c
000002e0: c09a 24bd 974d 483d 8464 6fbd 481a 10bc
000002f0: 3e65 f93d f26e 003e cc61 73bc bbe2 5e3b
0.021275323 -0.10646522 -0.054245993 -0.033868607 -0.019628499 -0.10506472 -0.12672839 0.08876591
-0.062428962 -0.031839725 -0.07389445 -0.07120994 -0.050717037 -0.07403158 -0.10676013 -0.0048387847
-0.1266245 0.107741565 0.033046834 -0.029901488 -0.05661427 0.0245632 -0.06431116 -0.12086891
-0.079707734 0.093010716 -0.09079029 -0.14032893 -0.011062661 0.07269904 -0.0861 0.02018444
0.104006 -0.0032617636 0.078805536 -0.06699731 0.07547682 -0.063739285 0.040421117 -0.06232741
0.05210068 -0.041761678 0.07199816 -0.029850652 0.029451331 -0.13307945 -0.105903655 -0.11682222
0.12628807 -0.0012734736 0.07661327 -0.0016971471 0.028145263 0.076742075 0.07061514 -0.075796045
-0.040211435 0.08577579 -0.06613796 -0.04408335 0.086593494 0.08355882 0.025868895 0.07252292
-0.004679338 0.069682464 0.042857133 -0.055989347 0.064257786 -0.033764616 0.06874196 0.086966775
-0.022278141 -0.015032821 0.009778475 -0.08711359 0.09247471 0.07486382 -0.09427022 0.036919698
-0.062011674 0.124408364 0.06331279 0.007432493 0.028278079 -0.007301145 -0.005828489 -0.08214213
0.10745479 -0.089572325 -0.032864213 0.052974388 -0.110590756 0.058619913 0.10929404 0.003922411
0.09495361 0.06529882 0.09821475 0.055573955 -0.07554778 0.09986995 0.025512518 -0.10021115
0.014582815 0.114356466 0.091388725 -0.026289683 0.04670382 0.12129197 -0.060623225 -0.08112807
0.0073162396 0.1193192 -0.0561713 -0.03226605 0.057987336 -0.04240631 0.03855218 -0.010122218
-0.1216447 0.0387472 -0.10034984 0.07264385 -0.080232345 0.08078524 0.056501094 -0.037465483
-0.028669968 0.1218814 -0.07651871 0.077503145 -0.077796124 -0.061229043 -0.04596568 0.04010233
0.02119561 -0.05784569 0.038843803 -0.07596649 -0.09199182 0.0054022945 0.09337837 -0.06462385
0.09717328 0.03642907 0.06916698 -0.012110278 0.047810014 0.073462866 -0.05970326 -0.09067106
0.0672637 0.024861366 0.07784083 0.061301716 -0.08858535 -0.09208615 0.030413767 0.104242824
0.0771878 -0.093972966 0.028568383 -0.06451311 -0.054515567 -0.10094897 -0.08477255 -0.0065074866
-0.025832998 0.05883576 0.080130614 0.045614928 -0.04963857 -0.061697688 -0.06754378 0.0120401615
-0.08676575 -0.0427319 -0.053558726 -0.093125075 0.0012012518 -0.0062974375 0.034173995 0.011225188
-0.040186644 0.04890212 -0.05844547 -0.008795328 0.121775135 0.12542322 -0.01485486 0.0034009654

attn.query.weight f4 [1, 64]
00000000: 0a1b 003d 97f3 28bd 16a9 04bd d62d a93d
00000010: 0714 48bd 7a50 883d 2e5d 7dbd c5b5 13bd
00000020: f764 f2bc 0690 e03d eff0 9f3b 6db3 b6bd
00000030: 2103 20bd 2934 bdbd 6936 1dbc 9f87 723d
00000040: fae3 723d ac2e bdbd 0e64 e1bd e608 c8bc
00000050: 5887 103d 24be 903d e4a5 f3bd 709e c5bd
00000060: 9c90 283c f488 193c 8c3c b2bd 6ab1 d1bd
00000070: 0932 753d f88e ddbd f005 a43d 3011 ca3d
00000080: f179 e2bd e3ca bebd baf6 e1bd 34b1 e33d
00000090: a436 ca3c 9f25 c53d d067 7f3d 1971 ba3d
000000a0: 7049 ddbb 6d59 86bd a1a8 fabd 4f98 a3bc
000000b0: a2de 4a3d d01d c43b f82c 223c a352 a1bd
000000c0: 63cf f6bd 345b c9bb b071 29bd 407a 8d3d
000000d0: fa0d e93d ec86 53bd 7705 1dbd 34c7 1c3d
000000e0: f7c8 d8bc b619 95bd d280 583d 5aae c23d
000000f0: e1dc c33d 7d2e f13d 35aa 383d 8cbc d0bb
0.031275786 -0.04124793 -0.032387815 0.08260696 -0.048847225 0.06655975 -0.06185644 -0.03606202
-0.02958916 0.1096497 0.0048810164 -0.089209415 -0.039065484 -0.092384644 -0.009595492 0.05921137
0.059299447 -0.092374176 -0.11005412 -0.024418306 0.035285324 0.070675164 -0.118968755 -0.0964936
0.010288384 0.009371031 -0.08702955 -0.10238917 0.05986217 -0.10818285 0.08008945 0.098665595
-0.11058415 -0.09316041 -0.110333875 0.11117783 0.024684258 0.09626316 0.062354863 0.09103603
-0.006753139 -0.06560025 -0.12239195 -0.019970087 0.049528725 0.0059849992 0.009898417 -0.0787709
-0.120512746 -0.0061449055 -0.041368186 0.06908083 0.11379619 -0.051642343 -0.03833529 0.038275912
-0.026463015 -0.072802946 0.052857228 0.09505911 0.09563614 0.11776445 0.045084197 -0.006370133

fc.0.weight f4 [64, 64]
00000000: 9a65 9bbd f8c4 eabc f4eb 7f3d d2c2 b9bd
00000010: 0cdc 81bd a08c e53c 166f efbd a8cc d13d
00000020: 303b 3abd 38b5 bbbd 10b2 08bc 2052 a53b
00000030: baf9 cdbd 3e8e 95bd 7826 8c3d e868 883d
00000040: 8076 c73b d8fa 393d e85f 493d e0b9 d2bb
00000050: 9ada 9c3d fce9 fabd 4044 fe3b d801 78bd
00000060: 16b4 e03d 0492 1c3d a0b0 abbc c0b4 cfbd
00000070: 80e6 e53a 1c58 dabd 548a 44bd 7863 a53d
00000080: fef8 a3bd f8df 7ebd f4da fd3d 74d0 7a3d
00000090: 501e 56bc f229 dfbd 1087 58bd 80f8 663b
000000a0: 02c4 f6bd c02e 5fbc e031 aabd fcd4 febd
000000b0: 8883 8abc 00f2 e13c 4087 873b a200 c83d
000000c0: 58c3 343d d063 3b3c c483 563d 6874 ebbc
000000d0: 5a46 efbd 8aaa 83bd 5026 ee3c dc57 3b3d
000000e0: 507f babd c4c4 81bd 0aba d7bd a8f5 01bd
000000f0: 0022 9a3c 2af2 e3bd 6087 903b e0d9 0a3d
00000100: 5e3d b5bd 1e34 253c 6d83 dbbb b0a5 843a
00000110: dd4f 81bd 5944 88bd 9ddb 8cbd be31 91bd
00000120: ef72 323d 09b9 db3d fb23 b53c 111a 9fbd
00000130: 8709 513c e412 febd 517c aebd 303f 41bd
00000140: b63a febc 9893 1fbd 0a8b c8bd 76a4 afbd
00000150: 5eef 36bc ad32 b33b 7776 3abd 9f22 c9bd
00000160: 2f61 bfbd 5d35 f4bd 13de 08bd 39f2 27bd
00000170: 706e 35b9 0231 7c3c c537 92bd ed8e d53d
00000180: f952 90bd 8013 83bc 6a4d 17bd 3087 70bc
00000190: 16ec b3bd 3709 ea3b cb20 513d 0459 e83c
000001a0: 0146 a6bd 409c cfbc 57a6 f6bd 0a41 95bc
000001b0: ad2c bebd 6ba1 8fbd 2762 1a3d ecc1 c5bd
000001c0: 4e36 f83d 121f d9bd b666 a5bd 8d16 e63b
000001d0: a164 413d 6069 b4bd 4e6d 033c 02e2 80bd
000001e0: c0e3 173a 6bcc 493d 7bd8 fbbb eb46 e1bd
000001f0: 99b4 823d 8cbe 96bc 0637 dc3d d894 e9bd
00000200: c7d4 283d 2da4 64bd 83ef e9bd 84be 5cbd
00000210: 22dc a13c 29a3 b83d a0b4 173d eedc 423d
00000220: 7f79 2dbc e955 b93d ae6e 013e 6efc 833c
00000230: 27ad 2ebd 708b b3bd e3b8 773d 9772 83bd
00000240: 23f7 933d dcb2 503d 1531 ba3d 63e7 70bd
00000250: dfe4 cfbd 9966 c33d 897d d8bd 4b7c 53bd
00000260: de79 f23d b53d 113d 02eb a83d ad30 1e3d
00000270: 4bc2 94bd 9028 9cbd 43f5 243d 994e 71bd
00000280: d3c8 9c3d f6c0 86bd 5e11 d5bd f22b 903d
00000290: 0e6c c93d 1798 a739 e5a1 8ebd d363 13bc
000002a0: a547 363d ec44 ae3d 60bc 39bd 9b8d dc3d
000002b0: 42ad e1bd db5d 583d efa9 733d 577c 0d3c
000002c0: fce5 58bc 65bc c43b b9fe 9d3c d120 0a3d
000002d0: 5303 e0bd 1cf1 4b3d a58c aa3d cf39 363d
000002e0: c2bb e33d f40a 15bc a8c4 23bd 7915 00be
000002f0: a66a adbd 41f4 dabd 013e b3bc df87 8c3d
00000300: 80ee f3bc 5cfc d93d 5c59 0fbd dca6 6ebd
00000310: 6ad1 97bd 10cf afbc 64d0 cc3d 60ac 4a3c
00000320: f4b7 fbbd b89e eb3d fc91 d73d ccfe 083d
00000330: 380e 2c3d 4025 7c3b c0d4 c4bb 50e4 913c
00000340: aab7 e03d 1856 bc3c 70e7 52bd b0ce a7bd
00000350: 1877 d73c 8ea2 943d 3405 03bd 6c52 70bd
00000360: d401 3d3d 34e2 8d3d 407f 93bc 00c8 533a
00000370: de37 d23d 4674 a53d 808d 083c 20a5 2cbc
00000380: 94b5 1d3d 1012 113c 604d f5bd 80ac 90bc
00000390: fcb2 a8bd 2057 fc3c 5e8e f5bd a2a7 a23d
000003a0: e428 943d 3465 a73d 204c a3bc 04a5 9ebd
000003b0: 54cc dabd 8e3c b43d a0a9 e0bd 224f f73d
000003c0: 404c 473b 1c65 723d b4c6 13bd a241 84bd
000003d0: 3a4e c6bd 78a1 a93d 0e38 ba3d c042 c83b
000003e0: d831 b8bd c06a ad3b 48a0 b9bc 0079 bdbc
000003f0: 906f 39bc dc70 ae3d 2251 ce3d 0057 58bb
-0.07587738 -0.028658375 0.06248088 -0.09070362 -0.06340799 0.028021157 -0.1169111 0.10244113
-0.0454666 -0.09165424 -0.008343235 0.0050451905 -0.10057397 -0.07302521 0.06843275 0.06660634
0.0060871243 0.04540524 0.04916373 -0.0064308494 0.076588824 -0.1225166 0.007759601 -0.060548633
0.10971849 0.03822519 -0.020958245 -0.10141897 0.0017540008 -0.10661337 -0.047983482 0.08075613
-0.08006476 -0.062225312 0.123952776 0.061233953 -0.0130687505 -0.10896672 -0.05286318 0.0035243332
-0.12049104 -0.013621986 -0.08310294 -0.12442967 -0.016908422 0.027581215 0.004135996 0.09765746
0.044131607 0.011437371 0.052371755 -0.02874203 -0.1168334 -0.06429012 0.029071003 0.045738086
-0.09106314 -0.06336358 -0.10533531 -0.031728417 0.01881504 -0.111301735 0.004410669 0.033899188
-0.088495955 0.0100832265 -0.006699017 0.001012018 -0.06314061 -0.06653661 -0.068778254 -0.07089566
0.04356664 0.10728652 0.022111883 -0.07768644 0.012758619 -0.12405947 -0.08519805 -0.0471794
-0.031033855 -0.038959116 -0.097921446 -0.0857629 -0.011165468 0.0054686875 -0.045523133 -0.098210566
-0.09344708 -0.11924241 -0.03341491 -0.041002486 -0.00017302646 0.015392544 -0.071395434 0.104276516
-0.07047076 -0.01600051 -0.036939062 -0.014680669 -0.08785264 0.007142212 0.051056664 0.028362758
-0.08118821 -0.02534306 -0.120434456 -0.01821949 -0.09285865 -0.0701321 0.03769126 -0.09656128
0.12119733 -0.10601629 -0.08076231 0.007021731 0.047215108 -0.08809161 0.008021666 -0.062931076
0.000579413 0.049267214 -0.0076857186 -0.10999855 0.063821025 -0.018401407 0.107526824 -0.11405343
0.041218545 -0.055820633 -0.11422636 -0.053892627 0.019758288 0.09015495 0.03703749 0.047573976
-0.010588049 0.09049589 0.12639877 0.016111579 -0.0426456 -0.0876683 0.060479056 -0.06418341
0.07224872 0.050951824 0.09091393 -0.058814418 -0.101510756 0.09541053 -0.10570819 -0.051632207
0.118396506 0.03545924 0.08247949 0.03862064 -0.07263621 -0.07624924 0.040272962 -0.058912847
0.07655492 -0.06579773 -0.10403703 0.07039632 0.09835063 0.00031966038 -0.06964473 -0.008995968
0.04450192 0.085092396 -0.045345664 0.107691966 -0.110193744 0.052823883 0.059488233 0.008635602
-0.013238426 0.0060039037 0.0192865 0.033722702 -0.10938134 0.049790487 0.08327607 0.044488724
0.11119796 -0.00909685 -0.039982468 -0.12508191 -0.08467607 -0.10691119 -0.021880152 0.06861853
-0.029776812 0.10643837 -0.03499733 -0.0582646 -0.074129894 -0.02146104 0.10000685 0.012370199
-0.12290946 0.115048826 0.10525891 0.03344612 0.042005748 0.0038474351 -0.006006807 0.017809063
0.10972531 0.022990271 -0.051490247 -0.081937194 0.026301906 0.07257567 -0.031987384 -0.058672354
0.04614432 0.069279104 -0.018005013 0.00080788136 0.10264562 0.08078818 0.0083345175 -0.010537416
0.038503245 0.008854404 -0.11977649 -0.01766038 -0.082372636 0.030803263 -0.11990045 0.0794213
0.07234362 0.081736 -0.01993376 -0.07746318 -0.10683504 0.088006124 -0.109698534 0.1207564
0.0030410439 0.059178457 -0.03607817 -0.06457831 -0.09682889 0.08282751 0.09092723 0.006111473
-0.08993882 0.0052922666 -0.022659436 -0.023128986 -0.0113181025 0.0851762 0.100740686 -0.003301084

fc.0.bias f4 [64]
00000000: c070 0ebb 2d54 483d 656a 08bd ee67 c7bd
00000010: da7c 88bb 1d87 313d fa78 ccbc 9ff9 d83d
00000020: a451 b7bd 0490 98bd 5cf0 99bc 58bc 90bd
00000030: 2254 97bd 30b8 dcbd f091 bc3d d807 debd
00000040: fe70 94bd 1cb2 613d dceb a23d 709d 033c
00000050: 96d5 f6bd a5a6 143d 8638 473d ce12 9a3b
00000060: 90ae c33c 0031 ad3d 86cb d8bc 281a ae3c
00000070: a552 ab3d 2103 2abd 4885 9c3c c675 a93d
00000080: e5d7 c63d 769a d2bd af8a edbc 384a f6bc
00000090: f221 b53d a4ab c6bd 5746 f3bd ac3f 153d
000000a0: 31e0 bd3d 9555 783d 26bb cabd 3d9f 5b3d
000000b0: 44ff c8bd b84f a9bd 44b8 c1bd a517 1bbd
000000c0: 139a e13c 4635 893c b1e8 173d aeb4 fbbd
000000d0: a8b5 9e3d 8213 80bd 38c4 973c fd52 f13d
000000e0: dcb0 e43d 707f fb3d 30f0 67bd 200a 84bd
000000f0: c08f 07bd 862b 243d f4dd 033e 0a09 aebd
-0.0021734685 0.0489084 -0.03330459 -0.0973662 -0.004165274 0.043341745 -0.02496003 0.105944864
-0.089511186 -0.07449344 -0.01879137 -0.07067174 -0.07389094 -0.107773185 0.09207523 -0.1084134
-0.07248114 0.0551015 0.07955143 0.0080331415 -0.12052457 0.036291737 0.04863789 0.0047019487
0.023886949 0.08456612 -0.026464235 0.021252707 0.083653726 -0.04150689 0.019106522 0.082744166
0.09709147 -0.10283367 -0.028996794 -0.030064687 0.08844365 -0.097007066 -0.11878651 0.036437675
0.09271277 0.060628492 -0.09898977 0.05361866 -0.09814313 -0.08267158 -0.09458974 -0.037864346
0.027539289 0.016749036 0.037087146 -0.12290321 0.07749492 -0.06253721 0.018526182 0.11783407
0.11166546 0.12280166 -0.056625545 -0.06447244 -0.033096075 0.04008057 0.12877637 -0.08497818

policy_head.weight f4 [2, 64]
00000000: f8e4 c83d c8a5 e1bd 8da9 e53d 2451 f93d
00000010: 0eb4 a5bd f4ef 28bd aa6b dfbb 9b34 14bd
00000020: 309e e23c 3067 cb3c 6e54 d8bb b288 78bd
00000030: 8ad6 803d e0e8 a03b 9a96 aebd 7c07 fb3d
00000040: 8abf f4bd 0b0b a43d af66 aabd 70d7 203c
00000050: 1844 b93c 3876 acbd 17c5 e63d c513 783d
00000060: 482a 98bd 8b6b 1e3d 1b17 34bd 34af d83d
00000070: 614d 963c c5f8 273d 923c a93d 4ccc 88bd
00000080: 09dc 07bb 4a01 99bd 3205 b03d f25e a9bd
00000090: 0677 e93d b0f0 673c 6d4f eebd e6f1 d13d
000000a0: 88b1 1abd b867 87bd 10fb d83d b798 a33d
000000b0: e883 c6bd c0b9 6bbb 5af8 983d c411 313d
000000c0: 0813 efbd 515c 7a3b e065 41bd 82a5 e03d
000000d0: 273e 013e 00b3 1b3d f84a 9fbc e80d a43d
000000e0: 35cb 1ebd 0c13 d93d 2820 3bbd 967a dcbd
000000f0: 2a18 c23d 8c08 823c 1370 283d 4eff ca3d
00000100: a8ca a83c d938 acbc 08d5 383d bc89 363d
00000110: 0e6c a23d 3b1a f83c 1b4d a43c 6bd9 983b
00000120: 50bd bfbd 8051 35bc 4c48 00bc b983 303d
00000130: d4cd 233d 48bc f13c dccb a6bd 446f 9cbd
00000140: 80a6 9fbd db47 16bd 18c2 37bd 60c9 c23b
00000150: d0f1 33bc f0d8 8a3d 2ff7 e33d bb71 b93d
00000160: 9414 f4bd d652 d93d 9d90 3abd 38c5 ed3d
00000170: ffd0 2abc 24e0 c83d be77 9ebd 11aa 343c
00000180: 03a2 633c 2891 b03d 264b 18bd 842b 7c3d
00000190: 86f1 173c 80ae f23d 0527 c13d eb3a f63d
000001a0: 90a1 823d 9051 9abd 4ce5 213d cd78 e0bd
000001b0: 2029 be3b 4e8d af3d de55 d43d d343 1f3d
000001c0: 4615 f1bd f26c 753d a91a 48bd a079 33bd
000001d0: 7d7e bb3c 34ab a23d 70db c0bc 1232 983d
000001e0: b7f0 96bd 4102 5fbd 7a81 b2bd 2042 f1bd
000001f0: b245 c73d 8fe7 b1bd f341 d43b 40d8 b5bc
0.09809297 -0.110179484 0.1121398 0.121736795 -0.08090983 -0.041244462 -0.0068182545 -0.03618298
0.02766332 0.024829477 -0.0066018617 -0.060677238 0.0629092 0.0049105734 -0.08524819 0.12257287
-0.11950596 0.08009919 -0.083203666 0.009816989 0.022615477 -0.08420986 0.11268061 0.06056573
-0.074299395 0.03867678 -0.043967348 0.10580292 0.018347444 0.04100873 0.08263506 -0.066795915
-0.0020730516 -0.07470949 0.08594741 -0.082700625 0.11399655 0.014156505 -0.11636243 0.102512166
-0.037766963 -0.0661158 0.10594761 0.079881124 -0.09693128 -0.003596887 0.07469244 0.043229833
-0.11673552 0.0038201998 -0.047216296 0.10969068 0.12621365 0.038012505 -0.019444928 0.08010465
-0.038768012 0.10599336 -0.045684963 -0.10765569 0.09477265 0.015873216 0.041122507 0.09911977
0.020604447 -0.0210232 0.045125037 0.044564947 0.07930766 0.030285945 0.020056298 0.00466459
-0.0936228 -0.011066794 -0.007829737 0.04309437 0.039991215 0.029508725 -0.08144352 -0.0763841
-0.07795429 -0.03668962 -0.044862837 0.005944416 -0.010982946 0.06779659 0.11131131 0.090548955
-0.119179875 0.10611503 -0.04554807 0.11609882 -0.010425805 0.098083764 -0.07737683 0.011026875
0.013893607 0.08621436 -0.037181042 0.061564937 0.009273892 0.118496895 0.094312705 0.120229565
0.06378472 -0.07535088 0.039525315 -0.10960541 0.0058032423 0.085718736 0.1036794 0.03888304
-0.11771636 0.05991835 -0.04885355 -0.043817163 0.022887463 0.07942811 -0.023542136 0.07431425
-0.073701315 -0.05444551 -0.08716102 -0.117801905 0.0973009 -0.086867444 0.0064775883 -0.022197843

policy_head.bias f4 [2]
00000000: 4d78 ec3d cbb5 42bd
0.11546383 -0.047536653

value_head.weight f4 [1, 64]
00000000: 365f d8bd 69d1 d2bd be2f 07be ea4b bdbd
00000010: de7c a8bd 6bc2 7c3d b37b 8c3d 2bef 183c
00000020: 5cdb d83d 0036 84bc b278 493d 5810 d03d
00000030: b44c abbd ec4e c43d 5ab7 873c 68ab df3c
00000040: 2e8d c6bd b6cf 70b9 e4d0 b9bd 7053 88bc
00000050: 8408 823d a902 ae3d dfd6 28bc 3b62 a33c
00000060: d8a5 733d d63d 60bd ec5f b73d d056 7f3d
00000070: 5cd2 8abc e962 5d3d 4460 ab3d a4cb 94bc
00000080: daaf 003b 509b dabd 77b1 4bbb 302f 9cbc
00000090: 215c 37bb 78b1 51bd 1b3e 5fbc ba59 e63b
000000a0: d798 fa3a 3456 b7bd 2cb0 cf3d 89fc 2fbb
000000b0: 60ce 283c 7ae5 f13d e4af 9c3d 9799 f0bd
000000c0: 1039 c53d 98b7 8cbc 81b1 7bbd e021 ed3b
000000d0: a0ab b3ba f866 b93d 006e d8bc 6dd1 19bb
000000e0: b661 adba ac73 2bba 462e 9ebd a897 d13c
000000f0: 5822 793d f005 88bb 77ea 00ba 5455 b1bd
-0.10565035 -0.10293848 -0.13201806 -0.09242995 -0.082269415 0.06170885 0.06859531 0.009334366
0.105887145 -0.01613903 0.04918737 0.10159367 -0.08364239 0.09585366 0.016566921 0.027303413
-0.09694897 -0.00022965562 -0.09073046 -0.016641349 0.063492805 0.08496601 -0.0103051355 0.0199443
0.059484333 -0.05474647 0.089538425 0.06233865 -0.01694601 0.054049406 0.083679706 -0.01816351
0.0019636066 -0.10674155 -0.003108112 -0.01906547 -0.0027978497 -0.051194638 -0.013625647 0.007029739
0.0019119036 -0.08951989 0.10141024 -0.0026853404 0.01030311 0.11811347 0.07650736 -0.11748045
0.096300244 -0.017177388 -0.061448578 0.007236704 -0.0013707764 0.09052843 -0.02641964 -0.0023470775
-0.0013227973 -0.0006540369 -0.0772367 0.02558501 0.06082377 -0.0041510984 -0.00049177505 -0.08658853
