checkpoints/live_20251008_201433.pt (torch, 73189 bytes, 10 tensors)

gru.weight_ih_l0 f4 [192, 1]
0	0xbd4a0a38	-0.04932615
1	0x3d9a27b3	0.07527103
2	0x3dc76149	0.097353525
3	0x3d19744d	0.03746443
4	0x3da8fd4c	0.082514375
5	0xbdc2f35f	-0.095190756
6	0x3dd97d09	0.10619552
7	0x3da40c5b	0.08010169
8	0x3c86ce57	0.016455812
9	0xbdc321f4	-0.095279604
10	0xbd439f87	-0.04775956
11	0xbd1f69f2	-0.038919397
12	0x3cd45120	0.02591759
13	0xbd7f523c	-0.062334284
14	0x3be35bb2	0.006938421
15	0xbd80003e	-0.06250046
16	0x3db1ff69	0.08691294
17	0xbdaa5404	-0.08316806
18	0xbcbbf1ac	-0.022942387
19	0x3de44c6c	0.11147389
20	0xbdca0b05	-0.09865383
21	0x3d4bd57d	0.049764145
22	0xbdd20c85	-0.10256294
23	0x3d2c843c	0.042118296
24	0xbddadad4	-0.106862694
25	0x3d5343d0	0.051578343
26	0xbdd4124e	-0.10355054
27	0xba950f9b	-0.0011372449
28	0x3e0af99f	0.13571785
29	0xbc1a7be0	-0.009428948
30	0xbdd6fe78	-0.10497755
31	0x3ce9ea2f	0.02855405
32	0x3de342d6	0.11096732
33	0x3db04216	0.08606355
34	0x3d7a0ad1	0.06104547
35	0x3c9ac16b	0.018891057
36	0x3ce82384	0.028337248
37	0xbdc90ccc	-0.09816894
38	0x3da18c23	0.07888057
39	0x3c9ab892	0.018886838
40	0xbd05c67d	-0.032659996
41	0x3d85965e	0.06522821
42	0x3d905e45	0.070492305
43	0x3d3e43d2	0.046451397
44	0xbe12eb4d	-0.14347573
45	0x3de7c393	0.113166
46	0x3d571a23	0.05251516
47	0xbdcbb1a3	-0.09945991
48	0x3c6a2b4d	0.01429255
49	0xbd32799f	-0.04357302
50	0xbccfc91a	-0.025364447
51	0x3d8e5c1f	0.069511645
52	0xbd2e0bf1	-0.042491857
53	0xbdeef4c0	-0.11667776
54	0xbd98d78a	-0.07462986
55	0xbc5d41f5	-0.013504495
56	0xbe009449	-0.12556566
57	0x3d0bf2fa	0.034167267
58	0xbdd1e05d	-0.10247872
59	0x3d80e4fa	0.06293674
60	0xbdab2905	-0.08357433
61	0x3d66ebdf	0.056377288
62	0xbe0226c6	-0.12710103
63	0xbddaff4f	-0.106932275
64	0x3d621adf	0.055201408
65	0xbbd11f5a	-0.006381911
66	0x3d1265fc	0.03574179
67	0xbd8ca6ba	-0.06867738
68	0x3dac011b	0.08398648
69	0xbd961c6b	-0.07329639
70	0xbda2e63d	-0.07954071
71	0x3d182086	0.03714039
72	0x3b2b7f5a	0.0026168437
73	0xbcc225cb	-0.023699662
74	0xbc29b362	-0.01035771
75	0xbd2bbfaa	-0.041930832
76	0x3d0d126b	0.034441393
77	0x3da66e68	0.08126527
78	0x3da2a7aa	0.07942136
79	0xbdf65426	-0.12027769
80	0xbd70f1d5	-0.05882438
81	0x3d3d7e13	0.046262812
82	0x3da2f016	0.07955949
83	0xbdc2a44f	-0.095039956
84	0xbc13e8c6	-0.0090276655
85	0xbe03610d	-0.1282999
86	0x3daf98b0	0.08574045
87	0x3d0b7f1f	0.03405678
88	0xbd47bb10	-0.04876238
89	0xbc606873	-0.013696778
90	0xbc82f11f	-0.015984116
91	0x3cea4dd5	0.028601566
92	0xbd806b6e	-0.062704906
93	0x3da5f28c	0.08102903
94	0x3d965ef7	0.07342332
95	0xbddfb20e	-0.10922633
96	0xbe05c20d	-0.13062306
97	0xbd7363c3	-0.059421312
98	0xbd83dc09	-0.06438453
99	0xbd2685ba	-0.040654875
100	0xbe17d0e1	-0.14825775
101	0x3d081155	0.033219654
102	0x3d7807e2	0.060554393
103	0xbd8344f6	-0.06409638
104	0xbde557d8	-0.111983955
105	0x3d313378	0.043261975
106	0xbd85b124	-0.065279275
107	0xbb9413bd	-0.0045189545
108	0xbd4314d2	-0.047627278
109	0xbcc9cf94	-0.024635114
110	0x3ce57b3e	0.028012868
111	0xbd304684	-0.043036
112	0x3df259aa	0.11833508
113	0x3dee7576	0.11643498
114	0x3c6c2251	0.014412479
115	0xbc900393	-0.01757983
116	0xbb0b17c2	-0.0021223878
117	0x3d4d5bd8	0.050136417
118	0xbdc855cf	-0.09781992
119	0x3ccaa510	0.024736911
120	0x3c9ef325	0.01940305
121	0xbd66d3f1	-0.056354467
122	0xbdae63f6	-0.0851516
123	0xbd67309b	-0.05644284
124	0x3daca99c	0.08430788
125	0x3dd5d29b	0.104405604
126	0x3e12f5b9	0.14351548
127	0xbdabb8e4	-0.083848745
128	0xbdcb0b5c	-0.09914276
129	0xbdd5eaad	-0.104451515
130	0xbda2addb	-0.079433165
131	0xbd084b8f	-0.033275183
132	0xbd5564ed	-0.052098203
133	0x3ca674f3	0.020319438
134	0xbde9b1d1	-0.11410869
135	0xbd57be69	-0.052671824
136	0x3d4067e2	0.04697407
137	0x3c493065	0.012279605
138	0x3d2b9244	0.041887537
139	0xbdaa2c7e	-0.083092675
140	0x3db9c35e	0.090704665
141	0xbd6d38d9	-0.057915542
142	0xbd3d5c14	-0.04623039
143	0xbd3941e8	-0.04522887
144	0x3dc08748	0.09400803
145	0x3da5bddc	0.080928534
146	0xbd928279	-0.07153792
147	0x3c86b489	0.016443508
148	0xbd8d9c18	-0.06914538
149	0x3d720343	0.059085142
150	0xbdb2e7df	-0.08735632
151	0xbccda9d4	-0.025105394
152	0x3cfdf5da	0.03100102
153	0xbde2c4f1	-0.1107272
154	0xbd812848	-0.06306511
155	0xbc987d8d	-0.018614555
156	0x3c46b145	0.012127225
157	0x3d35a99b	0.0443512
158	0xbe0b743a	-0.13618556
159	0xbdb118b0	-0.08647287
160	0x3c4c3ed8	0.012466155
161	0xbc8cdb16	-0.017194312
162	0x3dac8870	0.08424461
163	0xbd58f66d	-0.052969385
164	0x3d76f55c	0.060292587
165	0x3e0b3063	0.13592677
166	0x3d8e9f4c	0.06963977
167	0xbca9dfa1	-0.020736517
168	0x3b63e8ef	0.003477629
169	0xbd3466a7	-0.04404321
170	0x3dbfe981	0.09370709
171	0x3d2167f6	0.039405786
172	0x3c08f4a8	0.008359112
173	0xbd255078	-0.040359944
174	0x3cd6a47d	0.026201481
175	0x3dd5df9c	0.10443041
176	0x3d584c49	0.052807126
177	0xbae464d0	-0.0017425064
178	0x3dcb4ce3	0.09926774
179	0xbe07be14	-0.13256103
180	0x3c9f8484	0.019472368
181	0x3d982b2e	0.07430111
182	0xbda504f0	-0.080575824
183	0x3d400533	0.04687996
184	0xbda1c23e	-0.07898377
185	0x3d1c48ca	0.038155355
186	0xbde3b88a	-0.111191824
187	0x3dfca492	0.12336077
188	0xbd0b6bb1	-0.03403825
189	0xbe1229a9	-0.14273705
190	0xbd849507	-0.06473737
191	0xbda2748e	-0.07932387

gru.weight_hh_l0 f4 [192, 64]
0	0x3d194075	0.037414987
1	0xbdd2745c	-0.102761
2	0x3d5a5a60	0.053308845
3	0xbd0c1c3c	-0.034206614
4	0x3dea4e1a	0.11440678
5	0x3dd08849	0.10182244
6	0x3c099014	0.008396167
7	0xbd6d3959	-0.05791602
8	0xbd213e73	-0.039366197
9	0xbd5535d5	-0.05205329
10	0x3c4d7138	0.0125392005
11	0xbe0030a4	-0.12518555
12	0xbc62f067	-0.013851262
13	0x3d02b033	0.031906318
14	0xbc95517d	-0.018227333
15	0xbdad99ca	-0.084765986
16	0x3d7f3123	0.06230272
17	0xbd9b23fe	-0.07575224
18	0x3d85ee6f	0.06539618
19	0xbd896b8c	-0.06709966
20	0x3c8a7223	0.016900128
21	0xbddd4c73	-0.10805597
22	0xbcaa8577	-0.020815594
23	0x3ce3070b	0.02771332
24	0xbc2ed7e8	-0.010671593
25	0x3dee4ee2	0.116361395
26	0xbd8fc774	-0.070204645
27	0xbdc6df11	-0.09710515
28	0xbbae4974	-0.005318815
29	0x3d0ed8b1	0.03487462
30	0xbc756a00	-0.014978886
31	0x3dbddbaf	0.09270417
32	0xbd2f3907	-0.042778995
33	0x3ded6990	0.115924
34	0xbd3ad3b9	-0.04561207
35	0x3d5c82be	0.053835623
36	0xbda4a6cf	-0.08039629
37	0xbc9194be	-0.017771121
38	0x3cd298b1	0.025707575
39	0x3c6ff9b3	0.014646935
40	0xbcd8f673	-0.026484704
41	0xbd487d13	-0.048947405
42	0xbd0ab706	-0.03386595
43	0xbdb0866d	-0.0861939
44	0x3dbd612e	0.09247051
45	0x3e00105d	0.12506242
46	0x3d989b46	0.07451491
47	0x3d39a140	0.045319796
48	0x3d61e216	0.055147253
49	0xbd17f720	-0.03710091
50	0x3d9c48d4	0.07631078
51	0x3e05d9e9	0.13071407
52	0x3d4e464f	0.05036002
53	0x3bebcab6	0.007195796
54	0x3e0a80ee	0.13525745
55	0xbba90446	-0.00515798
56	0x3ce9ceaa	0.028540928
57	0xbd14345e	-0.036182754
58	0xbda5317b	-0.08066078
59	0xbe0e96a0	-0.13924646
60	0xbd08265d	-0.03323971
61	0x3a84040e	0.0010072009
62	0xbd2e3075	-0.04252668
63	0x3d0d488b	0.03449301
64	0x3cdd145d	0.026987249
65	0xbdc8191f	-0.097704165
66	0xbde4bbad	-0.11168609
67	0xbe0620e6	-0.13098487
68	0x3b25bff2	0.002529141
69	0xbd440afb	-0.047862034
70	0xbcbfe3f7	-0.023424132
71	0x3cf59085	0.029976139
72	0xbb996667	-0.0046813968
73	0xbd8b9d36	-0.06817095
74	0xbdd838b8	-0.10557693
75	0x3dd08f8c	0.101836294
76	0x3cc24015	0.023712197
77	0xbd40bd59	-0.047055576
78	0x3d6c94e5	0.057759184
79	0x3da72665	0.0816162
80	0x3dffd52e	0.12491833
81	0xbd5b8325	-0.053591866
82	0x3c102b3b	0.008799369
83	0xbdc4b3a4	-0.09604576
84	0xbce4f579	-0.027949082
85	0x3db602ba	0.08887239
86	0x3b86ac71	0.004109912
87	0xbd947a32	-0.072498694
88	0xbdb95c67	-0.090508275
89	0x3df00d21	0.11721254
90	0x3b4448a3	0.0029950521
91	0x3d23a096	0.03994807
92	0xbdefe4ab	-0.11713537
93	0xbdbd2705	-0.09235958
94	0xbda6bbf7	-0.0814132
95	0xbd43cbad	-0.047801662
96	0x3e028d70	0.12749267
97	0x3bd0a33a	0.0063671144
98	0x3d9df229	0.07712204
99	0x3de02e87	0.109463744
100	0xbdd05c93	-0.10173907
101	0xbd91a864	-0.07112196
102	0xbdd57592	-0.104228154
103	0x3dcefbfd	0.10106657
104	0x3d192179	0.037385438
105	0x3dfd0557	0.12354534
106	0xbde6bd09	-0.11266524
107	0xbd0884dd	-0.033329833
108	0xbde0213c	-0.10943839
109	0x3d22e68f	0.03977066
110	0xbd24f802	-0.04027558
111	0x3d377b13	0.044795107
112	0xbdde8980	-0.1086607
113	0x3d3a3995	0.04546507
114	0x3d848ecd	0.064725496
115	0xbd3657c2	-0.044517286
116	0xbd62edf8	-0.055402726
117	0x3db1b720	0.086775064
118	0xbdb38f48	-0.08767563
119	0xbce9ec23	-0.028554982
120	0x3df0dbdd	0.117606856
121	0x3de4685e	0.11152719
122	0x3d9732a6	0.07382707
123	0xbd070f7e	-0.03297376
124	0xbd8d8717	-0.06910532
125	0x3dfb48c5	0.12269739
126	0xbda41655	-0.08012072
127	0x3c85a503	0.016314035
128	0xbd453772	-0.04814858
129	0xbd636c1e	-0.05552303
130	0x3df0e629	0.117626496
131	0x3e1c6316	0.15272173
132	0x3bf515c1	0.0074794
133	0x3d63a2d0	0.055575192
134	0xbe0f1364	-0.1397224
135	0x3d81258b	0.06305989
136	0x3df5494f	0.11976873
137	0x3e24ad62	0.16081765
138	0x3e0dd863	0.13852076
139	0x3d6c310e	0.05766397
140	0x3cc80a73	0.024419045
141	0x3d8cfe84	0.068844825
142	0xbc33984f	-0.010961606
143	0xbca53e81	-0.020171406
144	0xbdd02a4d	-0.10164318
145	0x3d10b13d	0.035325278
146	0xbd65df05	-0.05612089
147	0xbd6cc174	-0.05780168
148	0x3d872fc1	0.06600905
149	0xbe16ed0c	-0.14738864
150	0x3c9873c4	0.018609889
151	0xbc1fd555	-0.009755452
152	0xbd45865d	-0.048223842
153	0x3d947663	0.07249143
154	0xbe01d573	-0.1267908
155	0x3d055445	0.03255107
156	0x3d869637	0.0657162
157	0xbd3cb0c2	-0.046067007
158	0x3bd98ed3	0.0066393404
159	0x3dddd5de	0.108318076
160	0xbd076c47	-0.033062246
161	0x3d693aa1	0.05694068
162	0x3d61e396	0.055148683
163	0x3da1d794	0.079024464
164	0xbdecd6f1	-0.11564434
165	0xbce8758f	-0.028376369
166	0xbd9eaeec	-0.077482074
167	0x3c41cd1c	0.011828687
168	0xbd0a90ec	-0.033829615
169	0x3b1c4f09	0.002385082
170	0x3d5254f5	0.051350553
171	0xbdee258c	-0.11628255
172	0xbd0d0ee4	-0.03443803
173	0xbd96c41c	-0.07361624
174	0x3dd04c16	0.10170762
175	0x3de52e84	0.11190513
176	0x3a8f485f	0.0010931602
177	0xbe189c5e	-0.149034
178	0xbc6736ef	-0.014112218
179	0x3d944a51	0.07240737
180	0x3cad1d1c	0.021132044
181	0xbe014829	-0.12625183
182	0x3dc2e4ee	0.09516321
183	0xbde3a1ad	-0.111148216
184	0x3e154a04	0.14579016
185	0xbd0efeef	-0.034911092
186	0x3d994c08	0.07485205
187	0xbde002e7	-0.109380536
188	0xbde38067	-0.11108475
189	0xbbe6da0b	-0.0070450357
190	0x3de1a73c	0.110182256
191	0x3a72c4c2	0.00092608866
192	0x3da5d120	0.08096528
193	0x3ced3d48	0.028959885
194	0x3d0f4f04	0.034987465
195	0xbb7319e2	-0.0037094285
196	0xbd60b5d5	-0.05486091
197	0xbdd3483b	-0.10316511
198	0xbd9827b3	-0.07429447
199	0x3da5d344	0.08096936
200	0x3df942d8	0.121709526
201	0xbd0371ca	-0.03209094
202	0xbd97a612	-0.07404722
203	0xbd9c9b74	-0.07646838
204	0xbcd8342f	-0.02639207
205	0x3d3b41cf	0.045717057
206	0xbcc9f96d	-0.024655068
207	0x3abcc91f	0.00144032
208	0xbde7dee7	-0.11321812
209	0x3df54969	0.119768925
210	0x3dd9f310	0.106420636
211	0x3c7bfdd0	0.015380338
212	0x3c93bb64	0.01803369
213	0xbd59a2e4	-0.05313386
214	0x3c6c50db	0.014423574
215	0x3dde7cca	0.108636454
216	0x3c59d63a	0.0132957045
217	0xbc5cac01	-0.013468743
218	0x3cfee621	0.031115593
219	0xbe027819	-0.12741126
220	0xbd601667	-0.054708865
221	0xbcac77e0	-0.021053255
222	0xbd985d30	-0.07439649
223	0xbd305cfd	-0.04305743
224	0xbdcf2f41	-0.10116435
225	0xbdc44288	-0.09583002
226	0xbd34686e	-0.044044904
227	0x3d1c7f27	0.0382072
228	0xbdf51132	-0.1196617
229	0x3d917820	0.0710299
230	0xbd87cef4	-0.0663127
231	0xbd930462	-0.0717857
232	0x3dccb365	0.09995154
233	0xbdb72084	-0.08941749
234	0xbd86df7e	-0.065855965
235	0xbb357cdd	-0.0027692833
236	0xbd920cd5	-0.07131354
237	0x3dbf01ab	0.0932649
238	0x3dedf03a	0.11618085
239	0xb92d0c62	-0.00016503179
240	0x3d3988f2	0.045296617
241	0x3cc6037c	0.024171583
242	0xbdbb6e57	-0.09151905
243	0x3dd45640	0.103680134
244	0x3c642e51	0.013927058
245	0xbdc6fb4f	-0.09715902
246	0xbc38e0ee	-0.011284096
247	0xbdefc0b3	-0.11706676
248	0xbd40e412	-0.047092505
249	0xbbe29a04	-0.0069153327
250	0x3dc19a74	0.09453288
251	0x3da17801	0.07884217
252	0x3d326dad	0.043561626
253	0xbd06b5a8	-0.032888085
254	0x3d8f4b39	0.069967695
255	0xbd52da99	-0.051478002

gru.bias_ih_l0 f4 [192]
0	0x3d49936d	0.04921286
1	0x3df519e8	0.11967832
2	0x3db3524b	0.087559305
3	0xbd3fb3d8	-0.04680237
4	0x3cddca88	0.027074113
5	0xbd02e6d4	-0.031958416
6	0x3dacd670	0.08439338
7	0x3d984b02	0.074361816
8	0xbd964884	-0.0733805
9	0x3e0250e1	0.12726165
10	0x3df4cfff	0.119537346
11	0x3c40ec92	0.011775153
12	0xbd90ff46	-0.070799395
13	0x3b67edd5	0.0035389562
14	0x3d84e402	0.064888015
15	0x3d99484c	0.07484493
16	0xbcfc85e6	-0.030825567
17	0xbc9fb496	-0.01949529
18	0xbc710722	-0.014711173
19	0xbdd45276	-0.10367291
20	0xbdf92ac7	-0.12166362
21	0xbd1f8f17	-0.03895482
22	0xbd18dc21	-0.037319306
23	0x3df8abf3	0.12142172
24	0xbce6050d	-0.02807858
25	0xbdc69266	-0.09695892
26	0xbd38ce3a	-0.045118548
27	0xbc3228dc	-0.010873999
28	0x3d8f9790	0.0701133
29	0x3da12367	0.078680806
30	0x3d534352	0.051577874
31	0x3d1e3162	0.038621314
32	0xbc122749	-0.008920499
33	0xbda3bb5e	-0.07994722
34	0xbdde3d77	-0.10851567
35	0xbc829dbb	-0.015944352
36	0x3dd280b2	0.10278453
37	0xbdc6318f	-0.09677421
38	0xbdebc26e	-0.11511694
39	0x3dbd91bc	0.09256312
40	0x3da0091c	0.078142375
41	0xbd3fce1c	-0.04682742
42	0xbdc284f0	-0.09498012
43	0x3be5d5a3	0.007013993
44	0x3da0be42	0.07848789
45	0xbd5173ad	-0.051135708
46	0xbd114c37	-0.035473075
47	0xbd2134b2	-0.039356895
48	0x3d6cc86c	0.057808325
49	0x3deba248	0.11505562
50	0xbdbb5f82	-0.09149076
51	0x3ced5dc6	0.028975379
52	0xbba3369b	-0.0049808747
53	0xbd167ebc	-0.036741957
54	0xbc878010	-0.016540557
55	0xbdb808b2	-0.089860335
56	0x3dd2515a	0.10269423
57	0xbdb62189	-0.08893115
58	0xbd770827	-0.06031051
59	0xbc0e2579	-0.008675926
60	0xbdb3c763	-0.087782644
61	0x3e092214	0.13391906
62	0x3ad0ccfc	0.0015930231
63	0xbcff1b87	-0.031141056
64	0x3d10db1b	0.035365205
65	0x3de388aa	0.11110051
66	0x3d89e679	0.06733412
67	0xbde55f81	-0.111998565
68	0x3d29ffe4	0.041503802
69	0x3dbd1511	0.09232534
70	0x3de01119	0.10940761
71	0xbd2c4504	-0.042058006
72	0x3abc6eb8	0.0014376258
73	0xbd914864	-0.070938855
74	0xbd87f0d5	-0.06637732
75	0xbd259410	-0.040424407
76	0xbdaf86ac	-0.085706085
77	0xbd330e41	-0.043714765
78	0xbdd03da2	-0.101680055
79	0xbc59a925	-0.013284956
80	0xbc267dd7	-0.0101618385
81	0xbd8fc44e	-0.07019864
82	0x3dc99bc2	0.098441616
83	0xbd962e95	-0.073331036
84	0xbdf9d327	-0.12198477
85	0x3d6487bf	0.05579352
86	0xbe01ea2f	-0.1268699
87	0x3d5bbba2	0.053645737
88	0x3e0825fe	0.13295743
89	0x3d84f9d2	0.06492962
90	0x3d5c1e98	0.053740114
91	0xbd6b778d	-0.05748706
92	0x3da2eb83	0.079550765
93	0x3ca37ff4	0.019958474
94	0x3c91713d	0.017754192
95	0x3d85760f	0.065166585
96	0x3e06d3f2	0.13166788
97	0x3d99af3d	0.07504127
98	0x3d8cb1b3	0.06869831
99	0x3d0cfabd	0.03441881
100	0xbb9fc6b5	-0.0048759826
101	0x3d1964d3	0.03744967
102	0xbd6d1134	-0.057877734
103	0x3dbed9ef	0.09318911
104	0x3dc916cd	0.09818802
105	0x3dd7ac5e	0.10530923
106	0x3d99887f	0.07496738
107	0xbcd64feb	-0.026161155
108	0xbcc23fe2	-0.023712102
109	0xbd6c5a4a	-0.057703294
110	0x3d18aa1c	0.037271604
111	0x3cb23123	0.021751946
112	0x3dac06b3	0.08399715
113	0xbd45e189	-0.04831079
114	0x3b3052b5	0.0026904766
115	0x3d8a700c	0.067596525
116	0x3dbaf46e	0.091286525
117	0xbc14a2f1	-0.009072051
118	0xbb8fd7dd	-0.0043897466
119	0xbc5736dd	-0.013135639
120	0x3dcd20c3	0.100160144
121	0xbaec542f	-0.001803046
122	0x3d874ec5	0.06606821
123	0xbc88334b	-0.01662602
124	0xbdc6b09b	-0.097016536
125	0xbd01b992	-0.031671114
126	0x3ddcd576	0.10782902
127	0x3da866e9	0.082227536
128	0x3d0bfb3f	0.034175154
129	0xbafdc3d7	-0.0019360733
130	0xbdab77a5	-0.0837243
131	0xbe01cc78	-0.12675655
132	0x3d3ad2f1	0.045611326
133	0x396110f4	0.00021463988
134	0x3d8e73a4	0.069556504
135	0xbd86c2ff	-0.06580161
136	0xbd01dc86	-0.03170445
137	0xbd8771bb	-0.06613489
138	0xbdb65a64	-0.089039594
139	0xbc80288f	-0.01564434
140	0x3da4789c	0.08030817
141	0x3db01abe	0.08598851
142	0xbc30e397	-0.010796449
143	0x3c11d35a	0.008900488
144	0x3d053178	0.03251788
145	0xbde8dec8	-0.11370617
146	0xbdd1c7cb	-0.102431856
147	0xbdc69847	-0.09697013
148	0x3c3c9c25	0.011511837
149	0xbc961d7a	-0.018324602
150	0x3e0ec8cb	0.13943784
151	0xbd14c6a5	-0.036322255
152	0x3d9baf9c	0.07601854
153	0xbdb43a41	-0.088001736
154	0x3dec72c8	0.1154533
155	0x3d9cf759	0.07664365
156	0xbc2843b0	-0.010270044
157	0x3de2e29e	0.1107838
158	0xbcfd0536	-0.030886274
159	0xbdda8537	-0.1066994
160	0x3d9c6685	0.076367415
161	0x3cfbae34	0.030722715
162	0x3d01e8df	0.031716224
163	0xbd7f5c1e	-0.06234371
164	0x3d438915	0.047738153
165	0xbdf5d1e8	-0.12002927
166	0x3cd0c7d5	0.025485912
167	0x3dc1ec7f	0.09468936
168	0x3a8a29ce	0.0010541023
169	0x3c20ba1e	0.009809999
170	0xbd4d4aef	-0.05012029
171	0x3dec85ec	0.11548981
172	0x3dd25401	0.10269929
173	0x3d219e07	0.039457347
174	0xbd819fbe	-0.063292965
175	0xbd866a5e	-0.06563257
176	0xbd6e3c8e	-0.05816322
177	0x3df750be	0.12075947
178	0xbe0d2651	-0.13784148
179	0x3de68035	0.11254922
180	0xbdfabe20	-0.12243295
181	0x3d785879	0.06063125
182	0x3d13656c	0.035985395
183	0x3dc3c9ef	0.0956
184	0xbd6d4e6e	-0.057936125
185	0x3d14dc70	0.036343038
186	0x3dede445	0.116158046
187	0x3d824200	0.06360245
188	0xbd156add	-0.036478866
189	0xbd8dc6c7	-0.069226794
190	0xbdb670f1	-0.089082606
191	0xbe020080	-0.12695503

gru.bias_hh_l0 f4 [192]
0	0x3ca20f06	0.019782554
1	0xbdbf21f9	-0.09332652
2	0xbd791878	-0.06081435
3	0xbd50bae3	-0.05095948
4	0xbc84adf1	-0.016196223
5	0xbdc126b4	-0.0943121
6	0xbdf31ad6	-0.11870353
7	0x3dd40dc9	0.10354192
8	0xbd767a2d	-0.06017511
9	0xbcc921df	-0.024552284
10	0xbd7c42c1	-0.0615871
11	0xbdac3b20	-0.08409715
12	0xbd0315a8	-0.032003075
13	0xbd665d3c	-0.05624126
14	0xbdce9a45	-0.10088018
15	0xbad2ce99	-0.0016083299
16	0xbe11825a	-0.14209881
17	0x3db87340	0.09006357
18	0x3c4c5e3e	0.012473641
19	0xbcf43012	-0.029808078
20	0xbd7ea2d8	-0.06216702
21	0x3d168b7d	0.03675412
22	0xbd86e808	-0.06587225
23	0xbde4aab4	-0.111653715
24	0xbd859ecd	-0.065244295
25	0x3dbbfefc	0.09179494
26	0xbd9d2b04	-0.0767422
27	0xbe0026e5	-0.12514837
28	0xbce6afca	-0.028159995
29	0x3d5c7875	0.053825814
30	0xbd95a93a	-0.07307668
31	0x3c1bcab1	0.009508775
32	0x3dc48bab	0.09596952
33	0xb9087cb8	-0.00013016432
34	0x3d993959	0.07481641
35	0xbd6c9e08	-0.057767898
36	0x3da85c04	0.082206756
37	0xbd8b343e	-0.06797074
38	0x3d352223	0.04422201
39	0xbd6c19f6	-0.057641946
40	0x3d6b0dfe	0.05738639
41	0xbcf6ba1f	-0.030118046
42	0x3d9424de	0.07233594
43	0xbcc0ebe9	-0.02354999
44	0x3d2f9ee0	0.042876124
45	0xbe06864f	-0.13137172
46	0xbdbc133d	-0.09183357
47	0xbe0a3e28	-0.13500273
48	0x3e080f4b	0.13287084
49	0xbca1712b	-0.019707283
50	0x3db69942	0.0891595
51	0xbcb5ac4e	-0.022176888
52	0x3c595fe5	0.013267492
53	0x3d9a8dfc	0.075466126
54	0x3d77d974	0.060510114
55	0xbd97da35	-0.074146666
56	0xbcef6a03	-0.029225355
57	0x3dca3a93	0.098744534
58	0xbd80a5d4	-0.06281629
59	0xbd17f48b	-0.03709845
60	0x3dcdd5f1	0.10050572
61	0x3dc376bb	0.095441304
62	0x3d420759	0.04737029
63	0x3d98a894	0.07454029
64	0xbc5d992a	-0.013525287
65	0x3d6ff2df	0.05858123
66	0x3d46950f	0.048481997
67	0xbd8f56fd	-0.069990136
68	0x3d76bac0	0.060236692
69	0xbd13afc5	-0.0360563
70	0x3d6b97fc	0.05751799
71	0x3dceee98	0.10104102
72	0xbcdf3817	-0.027248425
73	0xbcb89d6d	-0.022536004
74	0xbb865fed	-0.0041007907
75	0xbd9a53fc	-0.0753555
76	0x3dda0cf0	0.10646999
77	0x3db99ecc	0.09063491
78	0xbdd5cd1e	-0.104395136
79	0x3d045667	0.032308962
80	0xbd3b4499	-0.045719717
81	0x3de2a06d	0.11065755
82	0x3d3d62a4	0.04623665
83	0x3c545156	0.012958845
84	0x3d0cf227	0.034410622
85	0xbc96f55a	-0.01842754
86	0xbc7743e0	-0.015091866
87	0xbdbb351f	-0.091409914
88	0x3df73f3f	0.1207261
89	0xbdb8e31c	-0.09027693
90	0xbd406c66	-0.046978377
91	0x3d2dd293	0.042437147
92	0xbdc1d335	-0.09464113
93	0x3d3b7177	0.045762505
94	0x3deee781	0.116652496
95	0xbbe909a2	-0.007111744
96	0x3dd7ef05	0.10543636
97	0x3d7a89b6	0.061166488
98	0x3dd0c500	0.10193825
99	0x3d2142ae	0.03937023
100	0xbdab6139	-0.08368153
101	0x3dc9ca2b	0.098530136
102	0x3d48dd94	0.04903944
103	0xbddff715	-0.10935799
104	0x3bb42586	0.005497637
105	0x3dd4767c	0.103741616
106	0x3db39b59	0.087698646
107	0xbd2ee666	-0.042700194
108	0x3d75827d	0.059938896
109	0x3dea3d56	0.1143748
110	0xbd9a10f9	-0.075227685
111	0xbdc00688	-0.09376246
112	0xba2a530f	-0.0006497362
113	0x3dd7daba	0.10539766
114	0xbd8d6e35	-0.06905786
115	0xbd3b5bc3	-0.045741808
116	0x3d3dc2fe	0.046328537
117	0xbd094342	-0.033511408
118	0x3d1ab3ca	0.037769116
119	0xbc6601c8	-0.014038511
120	0xbe0a630e	-0.13514349
121	0x3cc4adde	0.024008688
122	0xbde9a905	-0.11409191
123	0x3d82bbba	0.06383462
124	0xbd9afe35	-0.075680174
125	0x3db58037	0.08862346
126	0x3d989bf2	0.07451619
127	0xbd495cb5	-0.049160678
128	0xbd00f2cc	-0.03148155
129	0x3e0b4ac9	0.13602747
130	0xbd9468f7	-0.07246583
131	0x3d80d299	0.06290168
132	0xbda55d5c	-0.080744475
133	0xbd9eed1a	-0.07760067
134	0xbd0ed39f	-0.034869786
135	0x3d5c66ed	0.053809095
136	0x3ca3aca9	0.019979792
137	0xbd856b83	-0.06514647
138	0x3cbf0df1	0.023322077
139	0xbd82a889	-0.06379802
140	0xbde3c40d	-0.11121378
141	0xbc8036a0	-0.015651047
142	0x3dc9da29	0.09856064
143	0xbd88001c	-0.06640646
144	0x3da5ed0d	0.081018545
145	0x3ca54bda	0.02017777
146	0x3d4ff780	0.050773144
147	0xbc1063e6	-0.00881288
148	0x3d5b31df	0.053514358
149	0x3db3ec65	0.08785323
150	0xbd4848e1	-0.048897628
151	0xbdcdaab5	-0.100423254
152	0x3d61354d	0.054982472
153	0x3cbc4402	0.022981647
154	0x3dbdafe7	0.09262066
155	0x3da2f416	0.07956712
156	0xbd93fc90	-0.07225907
157	0xbd9b70ed	-0.07589898
158	0x3d41098e	0.047128253
159	0x3dc0b71d	0.09409926
160	0x3d84916d	0.0647305
161	0xbdc46e72	-0.09591378
162	0x3cb1a48b	0.021684906
163	0xbdab9080	-0.083771706
164	0xbd3ef02c	-0.046615764
165	0xbdc54ec5	-0.09634165
166	0xbdd4a502	-0.10383035
167	0x3b1ba16c	0.0023747338
168	0xbc6eac0f	-0.014567389
169	0x3d949f6d	0.072569706
170	0x3da391b7	0.07986777
171	0x3d806796	0.062697574
172	0xbd8143c8	-0.06311756
173	0xbd6c795e	-0.057732932
174	0xbdaaaaf4	-0.08333388
175	0xbb7a1a28	-0.0038162563
176	0xbdbef28e	-0.093236074
177	0xbcd8ef84	-0.026481397
178	0xbd8a3846	-0.067490146
179	0xbd9db81c	-0.07701132
180	0xbc414d97	-0.011798284
181	0xbc7bbebd	-0.0153653
182	0x3d3368d7	0.043801155
183	0x3c69648f	0.014245166
184	0xbd5e6ed0	-0.054304898
185	0x3d89dd45	0.06731657
186	0xbd269bc4	-0.040675893
187	0xbbcd2436	-0.00626042
188	0x3e0cc2de	0.13746211
189	0x3e0d44af	0.13795732
190	0x3adc7008	0.0016818056
191	0xbc0b3aab	-0.008497874

attn.query.weight f4 [1, 64]
0	0x3d40ab25	0.047038216
1	0xbcd43947	-0.025906218
2	0xbc7e2cae	-0.015513582
3	0x3dc732dd	0.09726498
4	0xbd0b1d38	-0.033963412
5	0x3d71303c	0.05888389
6	0xbd3dd8db	-0.046349388
7	0xbca27060	-0.019828975
8	0xbd2b30ea	-0.041794695
9	0x3ddb90c0	0.10720968
10	0xbb87e2b3	-0.0041468977
11	0xbd954d44	-0.07290128
12	0xbd62553d	-0.05525707
13	0xbd9ce254	-0.07660356
14	0x3bd1df0d	0.0064047636
15	0x3d9a536a	0.07535441
16	0x3d299949	0.04140595
17	0xbddcc259	-0.107792564
18	0xbdc0446a	-0.09388049
19	0xbd126a43	-0.03574587
20	0x3d5690ea	0.052384295
21	0x3d602a08	0.054727584
22	0xbdd45128	-0.10367042
23	0xbdaab39d	-0.0833504
24	0xbba5a25d	-0.0050547556
25	0x3cd4407f	0.02590966
26	0xbd979e8b	-0.074032865
27	0xbdc3bf28	-0.095579445
28	0x3d7c5b9d	0.061610807
29	0xbe01e289	-0.12684073
30	0x3dc5a4d0	0.09650576
31	0x3ded547a	0.11588378
32	0xbdf40356	-0.11914699
33	0xbd9cf94d	-0.07664738
34	0xbe026899	-0.12735213
35	0x3e042487	0.12904559
36	0x3c1f8904	0.009737257
37	0x3da54fb6	0.08071844
38	0x3d3cb60b	0.046072047
39	0x3dce72ee	0.10080515
40	0xbc95c3ba	-0.018281806
41	0xbd4fe757	-0.050757732
42	0xbe0ef1f1	-0.13959481
43	0xbd15eca8	-0.036602646
44	0x3d0d8a72	0.03455586
45	0x3c9009f7	0.017582877
46	0x3b1e850c	0.002418819
47	0xbdc3b6b2	-0.09556331
48	0xbe097eba	-0.13427249
49	0xbb90a03f	-0.004413634
50	0xbd6407b1	-0.055671398
51	0x3dadeb2e	0.084921226
52	0x3dd99183	0.10623457
53	0xbd8b9320	-0.06815171
54	0xbcb6a4ff	-0.022295473
55	0x3ca2be72	0.019866202
56	0xbc24bee2	-0.010055276
57	0xbdbb6c19	-0.09151477
58	0x3d8b7240	0.06808901
59	0x3da11cf2	0.07866849
60	0x3de2e89f	0.11079525
61	0x3e0936d6	0.13399825
62	0x3d7efee0	0.062254786
63	0x3c1fbb45	0.009749238

fc.0.weight f4 [64, 64]
0	0xbd9b659a	-0.07587738
1	0xbceac4f8	-0.028658375
2	0x3d7febf4	0.06248088
3	0xbdb9c2d2	-0.09070362
4	0xbd81dc0c	-0.06340799
5	0x3ce58ca0	0.028021157
6	0xbdef6f16	-0.1169111
7	0x3dd1cca8	0.10244113
8	0xbd3a3b30	-0.0454666
9	0xbdbbb538	-0.09165424
10	0xbc08b210	-0.008343235
11	0x3ba55220	0.0050451905
12	0xbdcdf9ba	-0.10057397
13	0xbd958e3e	-0.07302521
14	0x3d8c2678	0.06843275
15	0x3d8868e8	0.06660634
16	0x3bc77680	0.0060871243
17	0x3d39fad8	0.04540524
18	0x3d495fe8	0.04916373
19	0xbbd2b9e0	-0.0064308494
20	0x3d9cda9a	0.076588824
21	0xbdfae9fc	-0.1225166
22	0x3bfe4440	0.007759601
23	0xbd7801d8	-0.060548633
24	0x3de0b416	0.10971849
25	0x3d1c9204	0.03822519
26	0xbcabb0a0	-0.020958245
27	0xbdcfb4c0	-0.10141897
28	0x3ae5e680	0.0017540008
29	0xbdda581c	-0.10661337
30	0xbd448a54	-0.047983482
31	0x3da56378	0.08075613
32	0xbda3f8fe	-0.08006476
33	0xbd7edff8	-0.062225312
34	0x3dfddaf4	0.123952776
35	0x3d7ad074	0.061233953
36	0xbc561e50	-0.0130687505
37	0xbddf29f2	-0.10896672
38	0xbd588710	-0.05286318
39	0x3b66f880	0.0035243332
40	0xbdf6c402	-0.12049104
41	0xbc5f2ec0	-0.013621986
42	0xbdaa31e0	-0.08310294
43	0xbdfed4fc	-0.12442967
44	0xbc8a8388	-0.016908422
45	0x3ce1f200	0.027581215
46	0x3b878740	0.004135996
47	0x3dc800a2	0.09765746
48	0x3d34c358	0.044131607
49	0x3c3b63d0	0.011437371
50	0x3d5683c4	0.052371755
51	0xbceb7468	-0.02874203
52	0xbdef465a	-0.1168334
53	0xbd83aa8a	-0.06429012
54	0x3cee2650	0.029071003
55	0x3d3b57dc	0.045738086
56	0xbdba7f50	-0.09106314
57	0xbd81c4c4	-0.06336358
58	0xbdd7ba0a	-0.10533531
59	0xbd01f5a8	-0.031728417
60	0x3c9a2200	0.01881504
61	0xbde3f22a	-0.111301735
62	0x3b908760	0.004410669
63	0x3d0ad9e0	0.033899188
64	0xbdb53d5e	-0.088495955
65	0x3c25341e	0.0100832265
66	0xbbdb836d	-0.006699017
67	0x3a84a5b0	0.001012018
68	0xbd814fdd	-0.06314061
69	0xbd884459	-0.06653661
70	0xbd8cdb9d	-0.068778254
71	0xbd9131be	-0.07089566
72	0x3d3272ef	0.04356664
73	0x3ddbb909	0.10728652
74	0x3cb523fb	0.022111883
75	0xbd9f1a11	-0.07768644
76	0x3c510987	0.012758619
77	0xbdfe12e4	-0.12405947
78	0xbdae7c51	-0.08519805
79	0xbd413f30	-0.0471794
80	0xbcfe3ab6	-0.031033855
81	0xbd1f9398	-0.038959116
82	0xbdc88b0a	-0.097921446
83	0xbdafa476	-0.0857629
84	0xbc36ef5e	-0.011165468
85	0x3bb332ad	0.0054686875
86	0xbd3a7677	-0.045523133
87	0xbdc9229f	-0.098210566
88	0xbdbf612f	-0.09344708
89	0xbdf4355d	-0.11924241
90	0xbd08de13	-0.03341491
91	0xbd27f239	-0.041002486
92	0xb9356e70	-0.00017302646
93	0x3c7c3102	0.015392544
94	0xbd9237c5	-0.071395434
95	0x3dd58eed	0.104276516
96	0xbd9052f9	-0.07047076
97	0xbc831380	-0.01600051
98	0xbd174d6a	-0.036939062
99	0xbc708730	-0.014680669
100	0xbdb3ec16	-0.08785264
101	0x3bea0937	0.007142212
102	0x3d5120cb	0.051056664
103	0x3ce85904	0.028362758
104	0xbda64601	-0.08118821
105	0xbccf9c40	-0.02534306
106	0xbdf6a657	-0.120434456
107	0xbc95410a	-0.01821949
108	0xbdbe2cad	-0.09285865
109	0xbd8fa16b	-0.0701321
110	0x3d1a6227	0.03769126
111	0xbdc5c1ec	-0.09656128
112	0x3df8364e	0.12119733
113	0xbdd91f12	-0.10601629
114	0xbda566b6	-0.08076231
115	0x3be6168d	0.007021731
116	0x3d4164a1	0.047215108
117	0xbdb46960	-0.08809161
118	0x3c036d4e	0.008021666
119	0xbd80e202	-0.062931076
120	0x3a17e3c0	0.000579413
121	0x3d49cc6b	0.049267214
122	0xbbfbd87b	-0.0076857186
123	0xbde146eb	-0.10999855
124	0x3d82b499	0.063821025
125	0xbc96be8c	-0.018401407
126	0x3ddc3706	0.107526824
127	0xbde994d8	-0.11405343
128	0x3d28d4c7	0.041218545
129	0xbd64a42d	-0.055820633
130	0xbde9ef83	-0.11422636
131	0xbd5cbe84	-0.053892627
132	0x3ca1dc22	0.019758288
133	0x3db8a329	0.09015495
134	0x3d17b4a0	0.03703749
135	0x3d42dcee	0.047573976
136	0xbc2d797f	-0.010588049
137	0x3db955e9	0.09049589
138	0x3e016eae	0.12639877
139	0x3c83fc6e	0.016111579
140	0xbd2ead27	-0.0426456
141	0xbdb38b70	-0.0876683
142	0x3d77b8e3	0.060479056
143	0xbd837297	-0.06418341
144	0x3d93f723	0.07224872
145	0x3d50b2dc	0.050951824
146	0x3dba3115	0.09091393
147	0xbd70e763	-0.058814418
148	0xbdcfe4df	-0.101510756
149	0x3dc36699	0.09541053
150	0xbdd87d89	-0.10570819
151	0xbd537c4b	-0.051632207
152	0x3df279de	0.118396506
153	0x3d113db5	0.03545924
154	0x3da8eb02	0.08247949
155	0x3d1e30ad	0.03862064
156	0xbd94c24b	-0.07263621
157	0xbd9c2890	-0.07624924
158	0x3d24f543	0.040272962
159	0xbd714e99	-0.058912847
160	0x3d9cc8d3	0.07655492
161	0xbd86c0f6	-0.06579773
162	0xbdd5115e	-0.10403703
163	0x3d902bf2	0.07039632
164	0x3dc96c0e	0.09835063
165	0x39a79817	0.00031966038
166	0xbd8ea1e5	-0.06964473
167	0xbc1363d3	-0.008995968
168	0x3d3647a5	0.04450192
169	0x3dae44ec	0.085092396
170	0xbd39bc60	-0.045345664
171	0x3ddc8d9b	0.107691966
172	0xbde1ad42	-0.110193744
173	0x3d585ddb	0.052823883
174	0x3d73a9ef	0.059488233
175	0x3c0d7c57	0.008635602
176	0xbc58e5fc	-0.013238426
177	0x3bc4bc65	0.0060039037
178	0x3c9dfeb9	0.0192865
179	0x3d0a20d1	0.033722702
180	0xbde00353	-0.10938134
181	0x3d4bf11c	0.049790487
182	0x3daa8ca5	0.08327607
183	0x3d3639cf	0.044488724
184	0x3de3bbc2	0.11119796
185	0xbc150af4	-0.00909685
186	0xbd23c4a8	-0.039982468
187	0xbe001579	-0.12508191
188	0xbdad6aa6	-0.08467607
189	0xbddaf441	-0.10691119
190	0xbcb33e01	-0.021880152
191	0x3d8c87df	0.06861853
192	0xbcf3ee80	-0.029776812
193	0x3dd9fc5c	0.10643837
194	0xbd0f595c	-0.03499733
195	0xbd6ea6dc	-0.0582646
196	0xbd97d16a	-0.074129894
197	0xbcafcf10	-0.02146104
198	0x3dccd064	0.10000685
199	0x3c4aac60	0.012370199
200	0xbdfbb7f4	-0.12290946
201	0x3deb9eb8	0.115048826
202	0x3dd791fc	0.10525891
203	0x3d08fecc	0.03344612
204	0x3d2c0e38	0.042005748
205	0x3b7c2540	0.0038474351
206	0xbbc4d4c0	-0.006006807
207	0x3c91e450	0.017809063
208	0x3de0b7aa	0.10972531
209	0x3cbc5618	0.022990271
210	0xbd52e770	-0.051490247
211	0xbda7ceb0	-0.081937194
212	0x3cd77718	0.026301906
213	0x3d94a28e	0.07257567
214	0xbd030534	-0.031987384
215	0xbd70526c	-0.058672354
216	0x3d3d01d4	0.04614432
217	0x3d8de234	0.069279104
218	0xbc937f40	-0.018005013
219	0x3a53c800	0.00080788136
220	0x3dd237de	0.10264562
221	0x3da57446	0.08078818
222	0x3c088d80	0.0083345175
223	0xbc2ca520	-0.010537416
224	0x3d1db594	0.038503245
225	0x3c111210	0.008854404
226	0xbdf54d60	-0.11977649
227	0xbc90ac80	-0.01766038
228	0xbda8b2fc	-0.082372636
229	0x3cfc5720	0.030803263
230	0xbdf58e5e	-0.11990045
231	0x3da2a7a2	0.0794213
232	0x3d9428e4	0.07234362
233	0x3da76534	0.081736
234	0xbca34c20	-0.01993376
235	0xbd9ea504	-0.07746318
236	0xbddacc54	-0.10683504
237	0x3db43c8e	0.088006124
238	0xbde0a9a0	-0.109698534
239	0x3df74f22	0.1207564
240	0x3b474c40	0.0030410439
241	0x3d72651c	0.059178457
242	0xbd13c6b4	-0.03607817
243	0xbd8441a2	-0.06457831
244	0xbdc64e3a	-0.09682889
245	0x3da9a178	0.08282751
246	0x3dba380e	0.09092723
247	0x3bc842c0	0.006111473
248	0xbdb831d8	-0.08993882
249	0x3bad6ac0	0.0052922666
250	0xbcb9a048	-0.022659436
251	0xbcbd7900	-0.023128986
252	0xbc396f90	-0.0113181025
253	0x3dae70dc	0.0851762
254	0x3dce5122	0.100740686
255	0xbb585700	-0.003301084

fc.0.bias f4 [64]
0	0xbb0e70c0	-0.0021734685
1	0x3d48542d	0.0489084
2	0xbd086a65	-0.03330459
3	0xbdc767ee	-0.0973662
4	0xbad36957	-0.0016129416
5	0x3d31871d	0.043341745
6	0xbccc78fa	-0.02496003
7	0x3dcc63aa	0.09979947
8	0xbdb751a4	-0.089511186
9	0xbd989004	-0.07449344
10	0xbc89a4c2	-0.016802195
11	0xbd90bc58	-0.07067174
12	0xbd975422	-0.07389094
13	0xbddcb830	-0.107773185
14	0x3dc74eb2	0.09731807
15	0xbdde07d8	-0.1084134
16	0xbd9470fe	-0.07248114
17	0x3d8b2f35	0.067961134
18	0x3da56cd2	0.080773965
19	0x3c039d70	0.0080331415
20	0xbdf6d596	-0.12052457
21	0x3d14a6a5	0.036291737
22	0x3d6fd047	0.058548238
23	0x3bc4e9c4	0.0060093123
24	0x3cc3ae90	0.023886949
25	0x3db38fed	0.08767686
26	0xbcc9d23a	-0.024636377
27	0x3cae1a28	0.021252707
28	0x3dbfbfdc	0.09362766
29	0xbd2a0321	-0.04150689
30	0x3c9c8548	0.019106522
31	0x3d91d7f3	0.07121267
32	0x3dbb650a	0.09150131
33	0xbdd29a76	-0.10283367
34	0xbc8d995f	-0.017285047
35	0xbcf64a38	-0.030064687
36	0x3dced6d0	0.10099566
37	0xbdc6aba4	-0.097007066
38	0xbdf34657	-0.11878651
39	0x3d153fac	0.036437675
40	0x3da92e5a	0.08260794
41	0x3d96e7b2	0.07368411
42	0xbdcabb26	-0.09898977
43	0x3d9c1db9	0.07622857
44	0xbdc8ff44	-0.09814313
45	0xbda94fb8	-0.08267158
46	0xbdc1b844	-0.09458974
47	0xbd1231a3	-0.03569187
48	0x3d00368a	0.031302013
49	0x3c893546	0.016749036
50	0x3d274fed	0.040847708
51	0xbdfbb4ae	-0.12290321
52	0x3db81ac4	0.0898948
53	0xbd801382	-0.06253721
54	0x3c97c438	0.018526182
55	0x3e051ee7	0.1300007
56	0x3df8fe21	0.12157846
57	0x3e0b2dec	0.13591737
58	0xbd67f030	-0.056625545
59	0xbd840a20	-0.06447244
60	0xbd078fc0	-0.033096075
61	0x3d5f0159	0.054444645
62	0x3e1125aa	0.14174524
63	0xbdae090a	-0.08497818

policy_head.weight f4 [2, 64]
0	0x3dc8e4f8	0.09809297
1	0xbde1a5c8	-0.110179484
2	0x3de5a98d	0.1121398
3	0x3df95124	0.121736795
4	0xbda5da24	-0.08098248
5	0xbd28eff4	-0.041244462
6	0xbbdf6baa	-0.0068182545
7	0xbd05dad8	-0.03267941
8	0x3ce29e30	0.02766332
9	0x3ccb6730	0.024829477
10	0xbbaccdd4	-0.00527356
11	0xbd7888b2	-0.060677238
12	0x3d80d68a	0.0629092
13	0x3ba0e8e0	0.0049105734
14	0xbda82848	-0.08210808
15	0x3dfb077c	0.12257287
16	0xbdf4bf8a	-0.11950596
17	0x3dbf6623	0.09345653
18	0xbdaa8e77	-0.08327954
19	0x3c20d770	0.009816989
20	0x3cb94418	0.022615477
21	0xbdac7638	-0.08420986
22	0x3df24425	0.11829404
23	0x3d7806d0	0.060553372
24	0xbd982a48	-0.074299395
25	0x3d1dfbb0	0.038570106
26	0xbd28a0e3	-0.04116906
27	0x3dd8af34	0.10580292
28	0x3cddd652	0.027079735
29	0x3d27f8c5	0.04100873
30	0x3da93c92	0.08263506
31	0xbd67475f	-0.05646455
32	0x3bd870b8	0.006605234
33	0xbd99014a	-0.07470949
34	0x3dc83a3d	0.09776733
35	0xbda95ef2	-0.082700625
36	0x3e023ca9	0.12718453
37	0x3c67f0b0	0.014156505
38	0xbdee4f6d	-0.11636243
39	0x3dd1f1e6	0.102512166
40	0xbcde1fb1	-0.027114721
41	0xbd81477a	-0.06312461
42	0x3dd8fb10	0.10594761
43	0x3dc27753	0.094954155
44	0xbdc683e8	-0.09693128
45	0xbb6bb9c0	-0.003596887
46	0x3d98f85a	0.07469244
47	0x3d2bb323	0.041918885
48	0xbde8fecd	-0.113767244
49	0x3b7a5c51	0.0038201998
50	0xbd42ed3e	-0.047589533
51	0x3de0a582	0.10969068
52	0x3e0e625c	0.13904709
53	0x3d1bb300	0.038012505
54	0xbc9f4af8	-0.019444928
55	0x3dbc9590	0.09208214
56	0xbcf163c4	-0.029466517
57	0x3df4c34f	0.11951315
58	0xbd3b2028	-0.045684963
59	0xbddc7a96	-0.10765569
60	0x3dc2182a	0.09477265
61	0x3cfabb79	0.030606972
62	0x3d597104	0.053086296
63	0x3dcaff4e	0.09911977
64	0x3ca8caa8	0.020604447
65	0xbcac38d9	-0.0210232
66	0x3d38d508	0.045125037
67	0x3d3689bc	0.044564947
68	0x3da29224	0.0793803
69	0x3cf81a3b	0.030285945
70	0x3ca44d1b	0.020056298
71	0x3a982bfc	0.0011609788
72	0xbdbfbd50	-0.0936228
73	0xbc355180	-0.011066794
74	0xbc160b9a	-0.009158039
75	0x3d3083b9	0.04309437
76	0x3d23cdd4	0.039991215
77	0x3cf1bc48	0.029508725
78	0xbdad3a2e	-0.084583625
79	0xbd9c6f44	-0.0763841
80	0xbd9fa680	-0.07795429
81	0xbd4cfdec	-0.050046846
82	0xbd37727c	-0.044786915
83	0x3bc2c960	0.005944416
84	0xbc33f1d0	-0.010982946
85	0x3d8ad8f0	0.06779659
86	0x3dd87820	0.10569787
87	0x3db97831	0.09056128
88	0xbdf41494	-0.119179875
89	0x3dd98abd	0.10622165
90	0xbd4606d5	-0.04834636
91	0x3dedc538	0.11609882
92	0xbc9cf16f	-0.019158093
93	0x3dc8e024	0.098083764
94	0xbd9e77be	-0.07737683
95	0x3a3650b1	0.0006954773
96	0x3baae53f	0.0052153165
97	0x3db09128	0.08621436
98	0xbd48b52d	-0.049000908
99	0x3d7c2b84	0.061564937
100	0xbb80420d	-0.003914124
101	0x3df2ae80	0.118496895
102	0x3dc12705	0.094312705
103	0x3df63aeb	0.120229565
104	0x3d59a196	0.053132616
105	0xbda071ce	-0.078342065
106	0x3d21e54c	0.039525315
107	0xbdff5769	-0.12467844
108	0x3bbe2920	0.0058032423
109	0x3daf8d4e	0.085718736
110	0x3dd455de	0.1036794
111	0x3d24a273	0.040193986
112	0xbdf72981	-0.12068463
113	0x3d756cf2	0.05991835
114	0xbd46934b	-0.048480313
115	0xbd3379a0	-0.043817163
116	0x3c24bab7	0.010054282
117	0x3da2ab34	0.07942811
118	0xbcc0db70	-0.023542136
119	0x3d7f54d0	0.062336743
120	0xbda9fd57	-0.08300274
121	0xbd8b315b	-0.06796523
122	0xbdb2817a	-0.08716102
123	0xbdf14220	-0.117801905
124	0x3dc745b2	0.0973009
125	0xbdd01455	-0.10160128
126	0xbbb3c5a5	-0.0054862075
127	0xbcb5d840	-0.022197843

policy_head.bias f4 [2]
0	0x3e035aab	0.12827556
1	0xbd772fe4	-0.060348406

value_head.weight f4 [1, 64]
0	0xbdd85f36	-0.10565035
1	0xbdd2d169	-0.10293848
2	0xbe072fbe	-0.13201806
3	0xbdbd4bea	-0.09242995
4	0xbda87cc2	-0.08226921
5	0x3d7cc26b	0.06170885
6	0x3d8c7bb3	0.06859531
7	0x3ca56bf3	0.020193076
8	0x3dd8db5c	0.105887145
9	0xbc843600	-0.01613903
10	0x3d498a2b	0.049204033
11	0x3dd01058	0.10159367
12	0xbdab4cb4	-0.08364239
13	0x3dc44eec	0.09585366
14	0x3cb07310	0.021539241
15	0x3cdfab68	0.027303413
16	0xbdc68d2e	-0.09694897
17	0x3bee2a86	0.007268253
18	0xbdb9cd6e	-0.09072386
19	0xbc885370	-0.016641349
20	0x3d820884	0.063492805
21	0x3dae02a9	0.08496601
22	0xbc9dd10f	-0.019264726
23	0x3ca36344	0.019944794
24	0x3d73a5d8	0.059484333
25	0xbd604056	-0.054748856
26	0x3db761e2	0.089542165
27	0x3d7f56d0	0.06233865
28	0xbce71739	-0.028209316
29	0x3d5d62e9	0.054049406
30	0x3dab6044	0.083679706
31	0xbd9c166e	-0.076214656
32	0x3bc860f1	0.006115072
33	0xbdda9b50	-0.10674155
34	0xbb55c16d	-0.0032616511
35	0xbc9c2f30	-0.01906547
36	0xbb3f59b3	-0.0029197752
37	0xbd51b178	-0.051194638
38	0xbc5f3e1b	-0.013625647
39	0x3be659ba	0.007029739
40	0x3cd59e88	0.02607657
41	0xbdb8de80	-0.090268135
42	0x3dcfb02c	0.10141024
43	0xbabb174a	-0.0014273908
44	0x3c28ce60	0.01030311
45	0x3df1e57a	0.11811347
46	0x3d9cafe4	0.07650736
47	0xbdf37fe7	-0.1188963
48	0x3dc5ecd7	0.09664314
49	0xbc8cb798	-0.017177388
50	0xbd7ba54a	-0.06143693
51	0x3bed21e0	0.007236704
52	0xb9c9a54a	-0.00038460857
53	0x3db966f8	0.09052843
54	0xbcd86e00	-0.02641964
55	0xbb568275	-0.0032731567
56	0xbb13850a	-0.0022509717
57	0xbaa73be1	-0.0012758934
58	0xbd9e2e46	-0.0772367
59	0x3cd197a8	0.02558501
60	0x3d792258	0.06082377
61	0xbbdddcde	-0.006770714
62	0xba904aa0	-0.0011008568
63	0xbdb15554	-0.08658853
