checkpoints/live_20251008_201356.pt (torch, 73189 bytes, 10 tensors)

gru.weight_ih_l0 f4 [192, 1]
0	0xbd4c230a	-0.049838103
1	0x3da63a80	0.08116627
2	0x3dca2a09	0.09871299
3	0x3d09e093	0.033661436
4	0x3dafd2aa	0.08585103
5	0xbdd55f59	-0.10418577
6	0x3dd237db	0.1026456
7	0x3da84ef9	0.08218188
8	0x3bd88a9f	0.006608322
9	0xbdbc73da	-0.092017844
10	0xbd58e484	-0.052952304
11	0xbd326310	-0.043551505
12	0x3cf10509	0.029421346
13	0xbd3ea5b6	-0.046544753
14	0x3c181da7	0.009284413
15	0xbd8c2f6b	-0.06844982
16	0x3dabe85f	0.08393931
17	0xbdb717b5	-0.08940069
18	0xbce88699	-0.028384494
19	0x3ddfe25f	0.10931849
20	0xbdc0bfd3	-0.094115876
21	0x3d5a260a	0.053258933
22	0xbddc3ca7	-0.10753756
23	0x3d3ec62c	0.04657571
24	0xbdde4039	-0.10852093
25	0x3d438b23	0.047740113
26	0xbdc66fad	-0.09689269
27	0xbbc458bc	-0.0059920233
28	0x3e0ade28	0.13561308
29	0xbc45f7cd	-0.012083006
30	0xbdcc9332	-0.09989013
31	0x3ccab4ae	0.024744358
32	0x3dda1b74	0.106497675
33	0x3db512c5	0.08841471
34	0x3d550468	0.052006155
35	0x3c958f30	0.018256754
36	0x3cc4c487	0.024019493
37	0xbdc789c9	-0.09743077
38	0x3da8cba5	0.08241967
39	0x3c774404	0.0150919
40	0xbd14e8ad	-0.03635471
41	0x3d8e0f64	0.06936529
42	0x3d8a43f7	0.067512445
43	0x3d599f8f	0.053130683
44	0xbe09f7a5	-0.13473375
45	0x3de18378	0.11011404
46	0x3d7686df	0.060187217
47	0xbdda0731	-0.10645903
48	0x3c991f69	0.018691735
49	0xbd2c3f9f	-0.04205286
50	0xbc8a5338	-0.016885385
51	0x3d867bcd	0.06566582
52	0xbd121059	-0.03566012
53	0xbdf63c27	-0.12023192
54	0xbd9161bd	-0.0709872
55	0xbc337d4e	-0.010955168
56	0xbdf2f512	-0.1186315
57	0x3d136a48	0.03599003
58	0xbddc8fe5	-0.10769633
59	0x3d77199e	0.060327165
60	0xbda11d94	-0.0786697
61	0x3d788807	0.0606766
62	0xbe01aae0	-0.1266284
63	0xbdd39790	-0.10331643
64	0x3d600318	0.05469045
65	0xbc51e811	-0.012811677
66	0x3d23b846	0.03997066
67	0xbd90e231	-0.070743926
68	0x3daf13a4	0.08548668
69	0xbd8f15a8	-0.069865525
70	0xbdad2218	-0.084537685
71	0x3d0975d4	0.033559635
72	0xbad64ef4	-0.0016350434
73	0xbcf87178	-0.030327544
74	0xbc80130a	-0.015634079
75	0xbd411e12	-0.047147818
76	0x3d0471b4	0.032335
77	0x3db7943e	0.08963822
78	0x3d9dcc41	0.07704974
79	0xbdec13c4	-0.115272075
80	0xbd8442a7	-0.064580254
81	0x3d230e56	0.039808594
82	0x3db9bcb4	0.090691954
83	0xbdba1091	-0.09085191
84	0xbc51ea9b	-0.012812282
85	0xbe00248d	-0.12513943
86	0x3da2e9cb	0.07954749
87	0x3d0191f7	0.031633344
88	0xbd5296fe	-0.05141353
89	0xbc19f0bb	-0.0093957735
90	0xbcba7c96	-0.022764485
91	0x3cdbb5be	0.02682006
92	0xbd73317b	-0.05937336
93	0x3dc8fa76	0.09813397
94	0x3d8cfd38	0.06884235
95	0xbdd2604a	-0.10272272
96	0xbe0226d9	-0.12710132
97	0xbd709c8e	-0.058743052
98	0xbd81188d	-0.06303511
99	0xbcdd6ffb	-0.027030936
100	0xbe0fc131	-0.1403854
101	0x3d0bb4bf	0.03410792
102	0x3d6524df	0.055943366
103	0xbd8f0bff	-0.0698471
104	0xbdd8c980	-0.10585308
105	0x3d21124f	0.0393241
106	0xbd81f415	-0.06345383
107	0xbbe7a663	-0.0070693954
108	0xbd2a46d8	-0.041571468
109	0xbce27d00	-0.027647495
110	0x3cae6b72	0.021291468
111	0xbd4be48f	-0.049778517
112	0x3de9e611	0.11420835
113	0x3de338b7	0.11094802
114	0x3bcdd3c5	0.0062813484
115	0xbcb0b5da	-0.021571089
116	0xbc0a9ce9	-0.008460262
117	0x3d58aa77	0.052896943
118	0xbdd0c035	-0.101929106
119	0x3d1f4379	0.038882706
120	0x3cd9757d	0.02654528
121	0xbd6434e6	-0.05571451
122	0xbdbaab93	-0.091147564
123	0xbd5491bd	-0.0518968
124	0x3da3a383	0.07990172
125	0x3dcd065c	0.100109786
126	0x3e0b49b3	0.13602333
127	0xbd97a9f0	-0.0740546
128	0xbdc5d03e	-0.0965886
129	0xbdc97db6	-0.098384306
130	0xbda92310	-0.08258641
131	0xbd15c3fe	-0.036563866
132	0xbd5ecf26	-0.05439677
133	0x3cf0fb2c	0.029416643
134	0xbde0a511	-0.10968984
135	0xbd563082	-0.052292354
136	0x3d2f8934	0.042855456
137	0x3bb51837	0.0055265683
138	0x3d171220	0.03688252
139	0xbdaa1f7d	-0.08306787
140	0x3db25465	0.08707503
141	0xbd91b1d6	-0.07113998
142	0xbd33f625	-0.043935914
143	0xbd3dfdc2	-0.04638458
144	0x3dba4395	0.090949215
145	0x3d98ec21	0.07466913
146	0xbda04456	-0.07825534
147	0x3ca7b149	0.020470278
148	0xbd80e18e	-0.06293021
149	0x3d7e1716	0.062033735
150	0xbda7ae43	-0.08187535
151	0xbcf258e3	-0.0295834
152	0x3d1756ba	0.036947943
153	0xbdeb5078	-0.114899576
154	0xbd68be57	-0.056822147
155	0xbcb5ed7d	-0.02220797
156	0x3c697a0a	0.014250288
157	0x3d47a51e	0.048741452
158	0xbe05de72	-0.13073137
159	0xbdb167cc	-0.08662376
160	0x3bcd636e	0.0062679565
161	0xbc9340a2	-0.017975155
162	0x3da468f8	0.08027834
163	0xbd56212e	-0.052277736
164	0x3d84a1b1	0.06476153
165	0x3e0a442e	0.13502571
166	0x3d8847ca	0.06654318
167	0xbc76e10d	-0.015068305
168	0x3c086f11	0.008327262
169	0xbd2126e6	-0.039343737
170	0x3db9e1be	0.0907626
171	0x3d39121a	0.04518328
172	0x3aa0e216	0.001227441
173	0xbd1a376c	-0.03765051
174	0x3c9c8b0e	0.019109275
175	0x3dc95272	0.09830178
176	0x3d4567b9	0.04819462
177	0x3b993c09	0.004676346
178	0x3dbd0553	0.09229531
179	0xbe037a03	-0.12839513
180	0x3c544396	0.012955567
181	0x3d995add	0.07488034
182	0xbd9dc72f	-0.07704007
183	0x3d2b5b85	0.041835327
184	0xbdacca04	-0.08436969
185	0x3d21640e	0.03940206
186	0xbdd7f942	-0.10545589
187	0x3df3e275	0.119084276
188	0xbcefb387	-0.02926041
189	0xbe0dc2f9	-0.13843907
190	0xbd87d9e9	-0.0663336
191	0xbda85adb	-0.08220454

gru.weight_hh_l0 f4 [192, 64]
0	0x3d216b68	0.03940907
1	0xbdcde73a	-0.100538686
2	0x3d46821c	0.048463926
3	0xbd15522e	-0.036455326
4	0x3de02f48	0.10946518
5	0x3dccd08c	0.10000715
6	0x3c277c8c	0.010222565
7	0xbd6cb8e9	-0.05779353
8	0xbd2d0e32	-0.042249866
9	0xbd60d3a8	-0.05488935
10	0x3c283aeb	0.010267953
11	0xbdfdb1d7	-0.12387436
12	0xbc70a16f	-0.014686926
13	0x3d0474e9	0.032338057
14	0xbc832399	-0.016008185
15	0xbdb943af	-0.09046113
16	0x3d78dc08	0.060756713
17	0xbd9ead8c	-0.07747945
18	0x3d6c3419	0.05766687
19	0xbd8c7219	-0.068577
20	0x3ca5301f	0.020164547
21	0xbdd44220	-0.10364175
22	0xbc9d0262	-0.019166175
23	0x3ccbbc7b	0.024870148
24	0xbc135049	-0.008991309
25	0x3deae606	0.11469655
26	0xbd8c3294	-0.068455845
27	0xbdc39985	-0.09550766
28	0xbbf4c88b	-0.0074701956
29	0x3d22dcd8	0.039761394
30	0xbc569f9e	-0.013099579
31	0x3db03c4d	0.086052515
32	0xbd2c80df	-0.04211509
33	0x3de8686e	0.113480434
34	0xbd25aa1a	-0.040445425
35	0x3d51eb51	0.051249806
36	0xbd991bbf	-0.07475995
37	0xbc9d57c6	-0.019206893
38	0x3cc77069	0.024345594
39	0x3c8a8acf	0.016911892
40	0xbc6b7930	-0.014372155
41	0xbd3d25e7	-0.046178725
42	0xbd0eb98f	-0.03484493
43	0xbdabcc30	-0.08388555
44	0x3db73abd	0.0894675
45	0x3e028947	0.1274768
46	0x3d937f05	0.072019614
47	0x3d32716d	0.043565203
48	0x3d59db68	0.053187758
49	0xbd0cee59	-0.034406994
50	0x3d988de7	0.07448941
51	0x3e07687d	0.13223453
52	0x3d45ca8f	0.048288878
53	0x3c858240	0.01629746
54	0x3e0cb888	0.13742268
55	0xbb4e8ed0	-0.0031518228
56	0x3cc86b46	0.024465214
57	0xbd0cb533	-0.034352493
58	0xbda1b301	-0.078954704
59	0xbdf3260a	-0.1187249
60	0xbcf860de	-0.030319627
61	0x3b386bac	0.002814035
62	0xbd363998	-0.04448852
63	0x3d001f1c	0.03127967
64	0x3cb2b3a6	0.021814179
65	0xbdd2444c	-0.10266933
66	0xbde059af	-0.10954606
67	0xbe00adee	-0.12566349
68	0xbb9abfca	-0.00472257
69	0xbd3077cf	-0.04308301
70	0xbceb5dba	-0.028731216
71	0x3ccb122d	0.02478894
72	0xb939df16	-0.00017726081
73	0xbd81a2aa	-0.06329854
74	0xbdcdabcc	-0.10042533
75	0x3dc7dd49	0.09759004
76	0x3ce3be21	0.027800621
77	0xbd59a570	-0.05313629
78	0x3d57ba5a	0.052667953
79	0x3daf6840	0.08564806
80	0x3def515f	0.11685442
81	0xbd453d7a	-0.04815433
82	0x3c0fad35	0.008769323
83	0xbdb97782	-0.090559974
84	0xbcec7fb6	-0.028869491
85	0x3dae2495	0.08503071
86	0xbabbf7f0	-0.0014340859
87	0xbd8a2657	-0.06745594
88	0xbdc7fc72	-0.09764947
89	0x3de39b39	0.11113591
90	0xbb23560f	-0.002492312
91	0x3d0d64e2	0.034520037
92	0xbde378fc	-0.1110706
93	0xbdc23f66	-0.094847485
94	0xbdb0c7a5	-0.08631829
95	0xbd322705	-0.043494243
96	0x3df8e88d	0.121537305
97	0x3c34104c	0.010990214
98	0x3d968663	0.07349851
99	0x3de9572a	0.11393578
100	0xbdd7c7e5	-0.10536174
101	0xbd865349	-0.06558854
102	0xbdcf47e0	-0.10121131
103	0x3dc49a5c	0.09599754
104	0x3d47d6e6	0.048788927
105	0x3df49bb3	0.1194376
106	0xbdda7000	-0.106658936
107	0xbd1e0b44	-0.038584962
108	0xbdf1e504	-0.118112594
109	0x3d0d89e0	0.034555316
110	0xbd111aaa	-0.03542582
111	0x3d4c622d	0.049898315
112	0xbdd3c664	-0.103405744
113	0x3d27ed5a	0.04099784
114	0x3d8fa51c	0.07013914
115	0xbd4c6e54	-0.049909905
116	0xbd4dbd0a	-0.05022911
117	0x3db10f5d	0.086455084
118	0xbdbae395	-0.09125439
119	0xbd09c7f7	-0.033637967
120	0x3dfa7f0c	0.122312635
121	0x3ddb8946	0.10719542
122	0x3d8c56e9	0.06852514
123	0xbcf6be74	-0.030120112
124	0xbd9602fd	-0.07324789
125	0x3df0c09e	0.11755489
126	0xbd9bf121	-0.07614351
127	0x3caac655	0.020846525
128	0xbcda2123	-0.026627129
129	0xbd05301e	-0.03251659
130	0x3de3579b	0.11100694
131	0x3e0ac53a	0.13551798
132	0x3c16a4e6	0.009194588
133	0x3d1358ce	0.035973363
134	0xbdf2f9af	-0.118640296
135	0x3d8ff36b	0.0702885
136	0x3dc2ab52	0.09505333
137	0x3e0e39b7	0.13889204
138	0x3df12d6c	0.11776242
139	0x3d88329a	0.066502765
140	0x3c41e7e0	0.011835068
141	0x3daa0a9f	0.08302807
142	0x3c47e3d0	0.012200311
143	0xbd016ac8	-0.031595975
144	0xbdcec29f	-0.10095715
145	0x3c614f85	0.013751869
146	0xbd7b7798	-0.06139335
147	0xbd93801d	-0.0720217
148	0x3d987f3f	0.07446145
149	0xbe0c39f1	-0.13693978
150	0x3d1fe5d7	0.03903755
151	0xbcd9da00	-0.026593208
152	0xbd2c799a	-0.042108156
153	0x3da0714d	0.078341104
154	0xbddba1f7	-0.10724252
155	0x3d474f42	0.04865957
156	0x3d2198a9	0.03945223
157	0xbd10aba1	-0.035319928
158	0x3cd9349e	0.026514348
159	0x3dd0e54d	0.10199986
160	0xbcb240b7	-0.021759374
161	0x3d32bb2e	0.04363554
162	0x3d62a9f5	0.055337865
163	0x3d87df85	0.0663443
164	0xbdd0ede4	-0.10201624
165	0xbd442932	-0.04789085
166	0xbdb34682	-0.08753683
167	0x3d018ec6	0.0316303
168	0xbcf8fe32	-0.030394647
169	0x3cb35260	0.021889865
170	0x3d0f5e3d	0.035001982
171	0xbdcc3676	-0.09971325
172	0xbce3a8a6	-0.027790379
173	0xbd47da80	-0.048792362
174	0x3da7b577	0.081889085
175	0x3dbca19a	0.092105106
176	0xbc99293c	-0.01869642
177	0xbe082375	-0.13294776
178	0xbd0b85d8	-0.03406319
179	0x3dbca691	0.092114575
180	0x3abe149b	0.001450199
181	0xbdfc5c36	-0.12322275
182	0x3ddde02f	0.10833775
183	0xbdc419b6	-0.095752165
184	0x3e07f4a4	0.13276917
185	0xbcd8774e	-0.026424076
186	0x3dc24259	0.09485311
187	0xbddf7f0c	-0.10912904
188	0xbdb4c08e	-0.088257894
189	0x3c739410	0.014866844
190	0x3ddb7891	0.107163556
191	0xbc463baf	-0.012099191
192	0x3dbb568f	0.09147369
193	0x3d232e35	0.03983899
194	0x3cdea18f	0.027176647
195	0xbc7736e8	-0.015088774
196	0xbd5d57f7	-0.054038968
197	0xbde90aa2	-0.11378981
198	0xbd82c93b	-0.06386038
199	0x3dbb0203	0.09131243
200	0x3de111d7	0.10989731
201	0xbd337e88	-0.04382184
202	0xbdae51d3	-0.085117005
203	0xbd82dde0	-0.063899755
204	0xbd0c0497	-0.034184065
205	0x3d5c28c3	0.05374981
206	0xbc5335a3	-0.012891206
207	0xbc8caa7d	-0.017171139
208	0xbddd6731	-0.10810698
209	0x3ddfad8b	0.109217726
210	0x3dc7c8e8	0.09755117
211	0x3bd3fe18	0.0064694993
212	0x3cb585a1	0.022158446
213	0xbd21267f	-0.039343353
214	0x3cca5695	0.024699489
215	0x3dc65752	0.09684624
216	0x3ca5fee9	0.020263152
217	0xbbf7feed	-0.0075682313
218	0x3d29638a	0.041354693
219	0xbdf283db	-0.11841556
220	0xbd8e99e9	-0.0696295
221	0xbc416dec	-0.011805993
222	0xbd8231b0	-0.063571334
223	0xbd7e5d57	-0.062100735
224	0xbdbfb25b	-0.093601905
225	0xbde03915	-0.109483875
226	0xbd1dea59	-0.03855357
227	0x3cec37c0	0.028835177
228	0xbdcfbf7f	-0.10143947
229	0x3d7ae422	0.06125272
230	0xbd91f03e	-0.07125901
231	0xbd7ab7b5	-0.061210353
232	0x3dce6512	0.100778714
233	0xbda2ffab	-0.07958921
234	0xbd9bdc0e	-0.076103315
235	0x3bffe4c8	0.0078092553
236	0xbd86d39d	-0.06583331
237	0x3dd8be0e	0.10583125
238	0x3dd7cb0c	0.10536775
239	0xbc203b10	-0.009779707
240	0x3d0f936f	0.035052713
241	0x3d0b1342	0.033953913
242	0xbdd075ed	-0.101787426
243	0x3de83221	0.11337686
244	0x3b6aba92	0.003581677
245	0xbdb4d7c8	-0.088302195
246	0xbba65f46	-0.0050772754
247	0xbddbe427	-0.10736876
248	0xbd820934	-0.063494116
249	0xb9037b47	-0.00012539058
250	0x3dd5fef9	0.10449023
251	0x3dac013f	0.08398675
252	0x3d60d1e4	0.054887667
253	0xbcb73849	-0.022365706
254	0x3d850aae	0.064961776
255	0xbd803dff	-0.06261825

gru.bias_ih_l0 f4 [192]
0	0x3d4f83a1	0.05066264
1	0x3de8d38b	0.113684736
2	0x3dc52ea4	0.096280366
3	0xbd209f68	-0.03921452
4	0x3cd0db22	0.025495116
5	0xbcecc45d	-0.028902227
6	0x3da62de9	0.081142254
7	0x3d928add	0.07155392
8	0xbd9d806e	-0.07690512
9	0x3df79141	0.12088252
10	0x3debcfb2	0.11514224
11	0x3c92cfc3	0.017921334
12	0xbd960241	-0.07324649
13	0xbba433ce	-0.0050110584
14	0x3d8072c5	0.062718906
15	0x3d922fef	0.07138049
16	0xbcd5b470	-0.026087016
17	0xbc4121ef	-0.011787876
18	0xbb858fcf	-0.004075981
19	0xbdcd3e9c	-0.100217074
20	0xbde4c9ae	-0.1117128
21	0xbd244f45	-0.04011466
22	0xbcfabb96	-0.030607026
23	0x3df176f7	0.11790269
24	0xbceab0ab	-0.028648695
25	0xbdbbf83b	-0.091782056
26	0xbd52c76e	-0.051459722
27	0xbc618359	-0.013764226
28	0x3d955276	0.07291119
29	0x3db52447	0.0884481
30	0x3d4140e7	0.047181036
31	0x3d3edaaa	0.046595253
32	0xbbc7a507	-0.006092671
33	0xbd9fdd5f	-0.07805895
34	0xbddc0dc2	-0.107448116
35	0xbc7d7009	-0.015468606
36	0x3dcb6461	0.09931255
37	0xbdc1e70b	-0.09467896
38	0xbdec6304	-0.11542323
39	0x3dc0be9e	0.09411357
40	0x3da41aac	0.080129
41	0xbd4ba413	-0.04971702
42	0xbdc11ba9	-0.09429104
43	0x3b842f7e	0.004033982
44	0x3d9298cf	0.07158052
45	0xbd4a9e30	-0.049467266
46	0xbd29e2aa	-0.04147593
47	0xbcd9ed57	-0.02660243
48	0x3d5d1f36	0.053984843
49	0x3dffffb9	0.12499947
50	0xbdca3d18	-0.09874934
51	0x3d24beac	0.0402209
52	0x3c116657	0.008874497
53	0xbcb9c316	-0.022676032
54	0xbbd8643f	-0.006603747
55	0xbdaa809e	-0.08325313
56	0x3dc8f27a	0.09811874
57	0xbdaf2684	-0.08552268
58	0xbd7ef564	-0.06224574
59	0xbc18c715	-0.009324809
60	0xbdbce5ce	-0.09223519
61	0x3e04fd08	0.12987149
62	0xbbe1a6a5	-0.0068863207
63	0xbcedd223	-0.029030865
64	0x3d1a2bc4	0.037639394
65	0x3ded1683	0.115765594
66	0x3d8b81fc	0.06811902
67	0xbddd3e7f	-0.10802936
68	0x3d2f3751	0.042777363
69	0x3dad38cf	0.08458101
70	0x3de71580	0.11283398
71	0xbd3a1b59	-0.045436237
72	0x3b960289	0.004577939
73	0xbd842977	-0.06453221
74	0xbd7c58e8	-0.061608225
75	0xbd3de02b	-0.04635636
76	0xbdb539b5	-0.08848897
77	0xbd5cbc66	-0.05389061
78	0xbdd2ddbb	-0.10296198
79	0xbc1d8008	-0.009613045
80	0xbc784153	-0.015152293
81	0xbd8383de	-0.06421636
82	0x3dd6886a	0.10475238
83	0xbd9eb62c	-0.0774959
84	0xbe05c541	-0.13063528
85	0x3d671bb8	0.05642292
86	0xbdf975fd	-0.121807076
87	0x3d6af1e3	0.057359587
88	0x3e06c30a	0.13160339
89	0x3d8b69d7	0.06807297
90	0x3d7596ad	0.05995815
91	0xbd6a187e	-0.057152264
92	0x3d9b7a5a	0.07591696
93	0x3cd54492	0.026033673
94	0x3c8a6a6c	0.016896449
95	0x3d8fddb0	0.070247054
96	0x3e02d772	0.12777498
97	0x3d93a048	0.072083056
98	0x3d8e449c	0.0694668
99	0x3d0e9c15	0.03481682
100	0xb9a2c3f5	-0.00031045047
101	0x3d1be073	0.03805585
102	0xbd8c41b5	-0.0684847
103	0x3dc9d472	0.09854974
104	0x3dc83483	0.09775641
105	0x3ddbaa6b	0.10725864
106	0x3d99e4de	0.07514356
107	0xbca3f1e1	-0.020012798
108	0xbd002cfd	-0.031292904
109	0xbd620ffd	-0.05519103
110	0x3d322838	0.043495387
111	0x3ccb7ec5	0.024840722
112	0x3db3f549	0.08787019
113	0xbd2e6423	-0.042575967
114	0x3c1dce14	0.009631652
115	0x3d90b24a	0.07065256
116	0x3dc7c391	0.09754098
117	0xbc17a2bf	-0.00925511
118	0xbc2715c2	-0.010198059
119	0xbc5a2a38	-0.01331573
120	0x3dd8c303	0.105840705
121	0xbbba3e99	-0.0056837318
122	0x3d916a7d	0.07100389
123	0xbc4513a0	-0.012028605
124	0xbdcd9412	-0.10038008
125	0xbd1fdaea	-0.039027132
126	0x3dce240a	0.10065468
127	0x3daeab9b	0.08528825
128	0x3d073dff	0.03301811
129	0xbc0e8a2a	-0.008699933
130	0xbda5fdea	-0.08105071
131	0xbdfa6006	-0.12225346
132	0x3d42444b	0.04742841
133	0xbb08a174	-0.0020848187
134	0x3d84387f	0.06456088
135	0xbd8c4671	-0.06849373
136	0xbcdc7239	-0.026909934
137	0xbd71eb85	-0.0590625
138	0xbdaafc65	-0.08348922
139	0xbcaab2ab	-0.020837149
140	0x3dab2c25	0.08358029
141	0x3dc12014	0.094299465
142	0xbc5e0c04	-0.013552669
143	0x3c556ea5	0.013026868
144	0x3d195b51	0.0374406
145	0xbddb6e65	-0.107144155
146	0xbdc1642d	-0.09442935
147	0xbdcdc385	-0.10047058
148	0x3bb30b50	0.005463995
149	0xbca604f9	-0.020266043
150	0x3e087427	0.13325559
151	0xbd026ed8	-0.03184399
152	0x3d9c5ed4	0.076352745
153	0xbdac32c9	-0.08408124
154	0x3dde16ed	0.108442165
155	0x3d952741	0.07282878
156	0xbc3e7246	-0.011623925
157	0x3dd395db	0.10331317
158	0xbd12be5c	-0.035826072
159	0xbdd12d09	-0.10213668
160	0x3da55d4f	0.08074438
161	0x3cf2a8fc	0.029621594
162	0x3d0308b1	0.03199071
163	0xbd7b39e3	-0.061334502
164	0x3d2d08fd	0.0422449
165	0xbdf8162d	-0.12113605
166	0x3d0095fe	0.031393044
167	0x3db4cf3a	0.08828588
168	0xbb7f36bc	-0.0038942536
169	0x3b9cec36	0.0047889007
170	0xbd4e8f0f	-0.0504294
171	0x3ddf475b	0.10902282
172	0x3de0cae7	0.109762006
173	0x3d15f8b1	0.036614124
174	0xbd6508be	-0.05591654
175	0xbd6fbce3	-0.058529746
176	0xbd5c25a2	-0.053746827
177	0x3de7e0b8	0.113221586
178	0xbe04a29a	-0.12952653
179	0x3dddb7e9	0.10826094
180	0xbdebe1a0	-0.11517644
181	0x3d75246e	0.059849195
182	0x3cf7295a	0.030171085
183	0x3dc346cc	0.09534988
184	0xbd54715a	-0.051865913
185	0x3d24dfd4	0.04025252
186	0x3de0c97a	0.109759286
187	0x3d75afcf	0.059982117
188	0xbd2bacdd	-0.041912902
189	0xbd96d288	-0.073643744
190	0xbdc4f349	-0.096167155
191	0xbdfcb6c1	-0.12339545

gru.bias_hh_l0 f4 [192]
0	0x3cadef75	0.021232346
1	0xbdcb6855	-0.09932009
2	0xbd555fd5	-0.052093346
3	0xbd31a673	-0.04337163
4	0xbc919d59	-0.017775225
5	0xbdbae458	-0.09125584
6	0xbdf9c35d	-0.12195466
7	0x3dce4da4	0.100734025
8	0xbd827504	-0.06369975
9	0xbcfd63eb	-0.030931434
10	0xbd8721af	-0.065982215
11	0xbd9fa4c0	-0.077950954
12	0xbd0d1ba6	-0.034450196
13	0xbd84b144	-0.06479123
14	0xbdd30b83	-0.1030493
15	0xbba639de	-0.0050728163
16	0xbe0ca831	-0.13736035
17	0x3dc83c1f	0.09777092
18	0x3cbd4eb9	0.023108827
19	0xbcd7e0ce	-0.026352312
20	0xbd55e09e	-0.052216165
21	0x3d11cb4f	0.03559428
22	0xbd7251bc	-0.05915998
23	0xbdebdfad	-0.11517272
24	0xbd86c9b0	-0.065814376
25	0x3dc69927	0.0969718
26	0xbdaa279c	-0.08308336
27	0xbe031c89	-0.12803854
28	0xbccfc425	-0.025362084
29	0x3d823d21	0.06359316
30	0xbd9eaa6e	-0.07747351
31	0x3c8f37e4	0.017482705
32	0x3dca564f	0.09879743
33	0x3ae66f72	0.0017580821
34	0x3d9b690e	0.07588397
35	0xbd6aab39	-0.057292197
36	0x3da13fb3	0.07873478
37	0xbd86e9bd	-0.06587551
38	0x3d33e100	0.04391575
39	0xbd65c02c	-0.056091473
40	0x3d73311e	0.059373014
41	0xbd073305	-0.03300764
42	0x3d958e25	0.073025025
43	0xbcd95571	-0.02653
44	0x3d135401	0.035968784
45	0xbe04d0f1	-0.1297033
46	0xbdc85e77	-0.09783643
47	0xbdfa5d39	-0.12224812
48	0x3e04250a	0.12904754
49	0xbc1ff6ac	-0.009763401
50	0x3da7bbac	0.081900924
51	0xbc331979	-0.010931366
52	0x3cde30c0	0.027122855
53	0x3db75c8d	0.089531995
54	0x3d904675	0.070446886
55	0xbd8a5221	-0.06753946
56	0xbd0a72c6	-0.033800863
57	0x3dd13598	0.102153
58	0xbd849c6d	-0.06475148
59	0xbd1a9cfc	-0.03774737
60	0x3dc4b786	0.09605317
61	0x3dbb2cba	0.0913939
62	0x3d1f4c19	0.03889093
63	0x3d9cfae6	0.076650426
64	0xbc38569a	-0.011251116
65	0x3d818737	0.06324618
66	0x3d49cc14	0.04926689
67	0xbd8735fb	-0.06602093
68	0x3d7bf22d	0.061510254
69	0xbd336835	-0.04380055
70	0x3d79a0b9	0.060944293
71	0x3dc8036a	0.09766276
72	0xbcc57e60	-0.024108112
73	0xbc8421a7	-0.016129328
74	0x3a2f314e	0.0006683067
75	0xbda67a12	-0.08128752
76	0x3dd459e7	0.1036871
77	0x3da4c7c3	0.08045914
78	0xbdd86d37	-0.10567706
79	0x3d1360b7	0.035980906
80	0xbd4fb582	-0.05071021
81	0x3deee0dd	0.11663983
82	0x3d573bf4	0.05254741
83	0x3c1014c1	0.008794011
84	0x3cd306fa	0.025760163
85	0xbc91cd6a	-0.017798144
86	0xbc2450c9	-0.010029026
87	0xbdb399e9	-0.087695904
88	0x3df4794f	0.119372
89	0xbdb27317	-0.08713358
90	0xbd26f451	-0.040760342
91	0x3d2f31a2	0.042771943
92	0xbdc9445e	-0.09827493
93	0x3d5453ba	0.05183766
94	0x3ded25d8	0.11579484
95	0xbb051e0b	-0.0020312096
96	0x3dcff5f2	0.10154332
97	0x3d6e6bc9	0.05820826
98	0x3dd257e9	0.10270674
99	0x3d22e408	0.03976825
100	0xbda20785	-0.079115905
101	0x3dcb07fa	0.09913631
102	0x3d1d6b4f	0.038432416
103	0xbdd4fc92	-0.103997365
104	0x3ba600c4	0.0050660092
105	0x3dd87489	0.10569102
106	0x3db3f7b8	0.08787483
107	0xbd15b75d	-0.036551822
108	0x3d56757d	0.05235814
109	0x3def6270	0.11688697
110	0xbd8d51e3	-0.06900384
111	0xbdb9b31e	-0.09067367
112	0x3b533d87	0.0032232718
113	0x3de3995f	0.111132376
114	0xbd7e6e1c	-0.062116727
115	0xbd2ed749	-0.04268578
116	0x3d576140	0.05258298
117	0xbd0a033d	-0.033694495
118	0x3d02e955	0.031960804
119	0xbc68f527	-0.014218605
120	0xbe0491f7	-0.12946306
121	0x3ca4e372	0.020127986
122	0xbddf8d4d	-0.10915623
123	0x3d8c260b	0.068431936
124	0xbda1e1ac	-0.079043716
125	0x3da66f83	0.08126738
126	0x3d89ea86	0.06734185
127	0xbd3cd35f	-0.046100017
128	0xbd05ab63	-0.03263415
129	0x3e047807	0.12936412
130	0xbd8eeb1e	-0.06978439
131	0x3d8a1ad2	0.06743397
132	0xbda1aa41	-0.078938015
133	0xbda3e33a	-0.080023244
134	0xbd22f68e	-0.039785914
135	0x3d5139cf	0.05108052
136	0x3cca348a	0.024683256
137	0xbd6e32d7	-0.058153953
138	0x3cebcf47	0.028785361
139	0xbd8d31cc	-0.068942636
140	0xbddd45aa	-0.10804303
141	0xbbf06de7	-0.00733732
142	0x3dc450da	0.09585734
143	0xbd7f536a	-0.06233541
144	0x3daff262	0.08591153
145	0x3cdac05f	0.026703058
146	0x3d713a45	0.05889346
147	0xbc48fc07	-0.012267119
148	0x3d41a8c0	0.047280073
149	0x3db01e29	0.085995026
150	0xbd60f0c9	-0.05491713
151	0xbdc4b096	-0.096039936
152	0x3d62361a	0.055227377
153	0x3cdd0d61	0.026983919
154	0x3daf853d	0.08570335
155	0x3d9b5eae	0.07586418
156	0xbd96e918	-0.07368678
157	0xbdaaf88a	-0.08348186
158	0x3d2cf149	0.042222295
159	0x3dca11d0	0.09866679
160	0x3d8d4edf	0.06899809
161	0xbdc6d171	-0.097079165
162	0x3cb3e550	0.02195993
163	0xbda9a69e	-0.08283733
164	0xbd55087d	-0.05201005
165	0xbdc7aab0	-0.09749353
166	0xbdc89cff	-0.0979557
167	0xbb75ea67	-0.0037523748
168	0xbc9e58a9	-0.019329386
169	0x3d8a958b	0.06766804
170	0x3da304e8	0.0795992
171	0x3d66d39c	0.05635415
172	0xbd659e86	-0.056059383
173	0xbd77c647	-0.060491826
174	0xbd9bca18	-0.07606906
175	0x3b577e85	0.0032881808
176	0xbdb60f0f	-0.08889591
177	0xbd0bb811	-0.034111086
178	0xbd72e175	-0.059297044
179	0xbda64d7c	-0.08120248
180	0xbb95480c	-0.004555708
181	0xbc842990	-0.0161331
182	0x3d1adf6e	0.037810735
183	0x3c6589f6	0.014009943
184	0xbd45e740	-0.04831624
185	0x3d91b4d4	0.07114568
186	0xbd401730	-0.046897113
187	0xbc202999	-0.009775543
188	0x3e0755a6	0.13216266
189	0x3e08cc63	0.13359217
190	0xbbb0f5ad	-0.0054003806
191	0xbba5c021	-0.005058304

attn.query.weight f4 [1, 64]
0	0x3d29118e	0.041276507
1	0xbcfe9a37	-0.031079395
2	0xbcbead16	-0.023275893
3	0x3db571ca	0.08859594
4	0xbd2e210c	-0.042511985
5	0x3d7b4d2f	0.061352905
6	0xbd551f7e	-0.052031986
7	0xbcdbfe75	-0.026854733
8	0xbd1b0f1a	-0.0378562
9	0x3dda6408	0.10663611
10	0xb9e91039	-0.0004445331
11	0xbda267da	-0.07929964
12	0xbd44f108	-0.048081428
13	0xbdab516e	-0.08365141
14	0x3a44e759	0.000751128
15	0x3d86e7d7	0.06587189
16	0x3d48283b	0.04886649
17	0xbdd0da6a	-0.10197909
18	0xbdcffc5f	-0.10155558
19	0xbd013279	-0.031542275
20	0x3d382b6e	0.044963293
21	0x3d82785a	0.063706115
22	0xbde0070c	-0.10938844
23	0xbdbdae35	-0.09261743
24	0x39ec5cca	0.0004508256
25	0x3c99ec80	0.01878953
26	0xbda19a45	-0.07890753
27	0xbdc9a358	-0.098456085
28	0x3d808452	0.06275238
29	0xbdede39f	-0.11615681
30	0x3db89625	0.09013013
31	0x3ddbd65c	0.10734245
32	0xbdf0f55f	-0.11765551
33	0xbdae8226	-0.085209176
34	0xbdf4d23b	-0.11954161
35	0x3df67775	0.12034503
36	0x3ca5a400	0.020219803
37	0x3db186ba	0.08668275
38	0x3d5d03f4	0.053958848
39	0x3dc6e06d	0.097107746
40	0xbc1180da	-0.008880818
41	0xbd63c0b7	-0.05560371
42	0xbe079d6a	-0.13243642
43	0xbce6f64b	-0.028193614
44	0x3d1f3bdb	0.038875442
45	0x3c5c8d44	0.013461415
46	0x3bb0b7de	0.0053930124
47	0xbdb5f630	-0.08884847
48	0xbe0487d4	-0.1294244
49	0xbbafc2dd	-0.0053638057
50	0xbd4f63cd	-0.050632287
51	0x3da13956	0.07872264
52	0x3de0ef6f	0.10983168
53	0xbd757760	-0.059928298
54	0xbcedd6f7	-0.029033167
55	0x3cf33a42	0.029690865
56	0xbc998a1c	-0.018742613
57	0xbda81887	-0.08207803
58	0x3d7f1850	0.062279046
59	0x3db1f423	0.086891435
60	0x3dd83a72	0.105580226
61	0x3e02f71e	0.1278958
62	0x3d62df41	0.055388693
63	0x3ab4ad45	0.0013784549

fc.0.weight f4 [64, 64]
0	0xbd9b659a	-0.07587738
1	0xbceac4f8	-0.028658375
2	0x3d7febf4	0.06248088
3	0xbdb9c2d2	-0.09070362
4	0xbd81dc0c	-0.06340799
5	0x3ce58ca0	0.028021157
6	0xbdef6f16	-0.1169111
7	0x3dd1cca8	0.10244113
8	0xbd3a3b30	-0.0454666
9	0xbdbbb538	-0.09165424
10	0xbc08b210	-0.008343235
11	0x3ba55220	0.0050451905
12	0xbdcdf9ba	-0.10057397
13	0xbd958e3e	-0.07302521
14	0x3d8c2678	0.06843275
15	0x3d8868e8	0.06660634
16	0x3bc77680	0.0060871243
17	0x3d39fad8	0.04540524
18	0x3d495fe8	0.04916373
19	0xbbd2b9e0	-0.0064308494
20	0x3d9cda9a	0.076588824
21	0xbdfae9fc	-0.1225166
22	0x3bfe4440	0.007759601
23	0xbd7801d8	-0.060548633
24	0x3de0b416	0.10971849
25	0x3d1c9204	0.03822519
26	0xbcabb0a0	-0.020958245
27	0xbdcfb4c0	-0.10141897
28	0x3ae5e680	0.0017540008
29	0xbdda581c	-0.10661337
30	0xbd448a54	-0.047983482
31	0x3da56378	0.08075613
32	0xbda3f8fe	-0.08006476
33	0xbd7edff8	-0.062225312
34	0x3dfddaf4	0.123952776
35	0x3d7ad074	0.061233953
36	0xbc561e50	-0.0130687505
37	0xbddf29f2	-0.10896672
38	0xbd588710	-0.05286318
39	0x3b66f880	0.0035243332
40	0xbdf6c402	-0.12049104
41	0xbc5f2ec0	-0.013621986
42	0xbdaa31e0	-0.08310294
43	0xbdfed4fc	-0.12442967
44	0xbc8a8388	-0.016908422
45	0x3ce1f200	0.027581215
46	0x3b878740	0.004135996
47	0x3dc800a2	0.09765746
48	0x3d34c358	0.044131607
49	0x3c3b63d0	0.011437371
50	0x3d5683c4	0.052371755
51	0xbceb7468	-0.02874203
52	0xbdef465a	-0.1168334
53	0xbd83aa8a	-0.06429012
54	0x3cee2650	0.029071003
55	0x3d3b57dc	0.045738086
56	0xbdba7f50	-0.09106314
57	0xbd81c4c4	-0.06336358
58	0xbdd7ba0a	-0.10533531
59	0xbd01f5a8	-0.031728417
60	0x3c9a2200	0.01881504
61	0xbde3f22a	-0.111301735
62	0x3b908760	0.004410669
63	0x3d0ad9e0	0.033899188
64	0xbdb53d5e	-0.088495955
65	0x3c25341e	0.0100832265
66	0xbbdb836d	-0.006699017
67	0x3a84a5b0	0.001012018
68	0xbd814fdd	-0.06314061
69	0xbd884459	-0.06653661
70	0xbd8cdb9d	-0.068778254
71	0xbd9131be	-0.07089566
72	0x3d3272ef	0.04356664
73	0x3ddbb909	0.10728652
74	0x3cb523fb	0.022111883
75	0xbd9f1a11	-0.07768644
76	0x3c510987	0.012758619
77	0xbdfe12e4	-0.12405947
78	0xbdae7c51	-0.08519805
79	0xbd413f30	-0.0471794
80	0xbcfe3ab6	-0.031033855
81	0xbd1f9398	-0.038959116
82	0xbdc88b0a	-0.097921446
83	0xbdafa476	-0.0857629
84	0xbc36ef5e	-0.011165468
85	0x3bb332ad	0.0054686875
86	0xbd3a7677	-0.045523133
87	0xbdc9229f	-0.098210566
88	0xbdbf612f	-0.09344708
89	0xbdf4355d	-0.11924241
90	0xbd08de13	-0.03341491
91	0xbd27f239	-0.041002486
92	0xb9356e70	-0.00017302646
93	0x3c7c3102	0.015392544
94	0xbd9237c5	-0.071395434
95	0x3dd58eed	0.104276516
96	0xbd9052f9	-0.07047076
97	0xbc831380	-0.01600051
98	0xbd174d6a	-0.036939062
99	0xbc708730	-0.014680669
100	0xbdb3ec16	-0.08785264
101	0x3bea0937	0.007142212
102	0x3d5120cb	0.051056664
103	0x3ce85904	0.028362758
104	0xbda64601	-0.08118821
105	0xbccf9c40	-0.02534306
106	0xbdf6a657	-0.120434456
107	0xbc95410a	-0.01821949
108	0xbdbe2cad	-0.09285865
109	0xbd8fa16b	-0.0701321
110	0x3d1a6227	0.03769126
111	0xbdc5c1ec	-0.09656128
112	0x3df8364e	0.12119733
113	0xbdd91f12	-0.10601629
114	0xbda566b6	-0.08076231
115	0x3be6168d	0.007021731
116	0x3d4164a1	0.047215108
117	0xbdb46960	-0.08809161
118	0x3c036d4e	0.008021666
119	0xbd80e202	-0.062931076
120	0x3a17e3c0	0.000579413
121	0x3d49cc6b	0.049267214
122	0xbbfbd87b	-0.0076857186
123	0xbde146eb	-0.10999855
124	0x3d82b499	0.063821025
125	0xbc96be8c	-0.018401407
126	0x3ddc3706	0.107526824
127	0xbde994d8	-0.11405343
128	0x3d3d5acc	0.04622917
129	0xbd4e2a20	-0.050333142
130	0xbdf10ace	-0.11769639
131	0xbd6f2c8c	-0.058392093
132	0x3c5f2eae	0.013621969
133	0x3dabfba9	0.0839761
134	0x3d2bb68f	0.04192215
135	0x3d3f2a9a	0.046671487
136	0xbc8743e3	-0.016511863
137	0x3dae77a1	0.08518911
138	0x3df95042	0.12173511
139	0x3c8fb8ac	0.017544113
140	0xbd326e13	-0.043562006
141	0xbdae32d1	-0.08505786
142	0x3d88d477	0.066811495
143	0xbd919376	-0.07108204
144	0x3d97b657	0.074078254
145	0x3d3c95ee	0.04604142
146	0x3db10a45	0.08644537
147	0xbd7e560d	-0.062093783
148	0xbdcda9b5	-0.10042135
149	0x3dcd3c4b	0.100212656
150	0xbdcf628d	-0.10126219
151	0xbd6677e8	-0.056266695
152	0x3df6f9bb	0.12059351
153	0x3d00054f	0.031255063
154	0x3db17ae4	0.08666018
155	0x3d2cca7b	0.042185288
156	0xbda4caff	-0.08046531
157	0xbd937414	-0.071998745
158	0x3d45afaf	0.048263248
159	0xbd83985b	-0.06425544
160	0x3da1b10d	0.07895098
161	0xbd91f512	-0.071268216
162	0xbdcee6da	-0.10102625
163	0x3d890bc2	0.06691696
164	0x3dd7990a	0.10527237
165	0xbb733e4c	-0.003711599
166	0xbd906315	-0.070501484
167	0xbb944f4f	-0.004526056
168	0x3d56fde9	0.05248824
169	0x3db7a31b	0.08966657
170	0xbd59ca81	-0.05317164
171	0x3de4d9df	0.11174368
172	0xbde05cd8	-0.109552085
173	0x3d7239e4	0.05913724
174	0x3d60660f	0.05478483
175	0x3b823ad5	0.0039742985
176	0xbc8f682a	-0.017505724
177	0x3c29c093	0.010360855
178	0x3c74cc46	0.014941281
179	0x3d1b2cb3	0.037884425
180	0xbde90244	-0.11377385
181	0x3d59cf32	0.053176112
182	0x3db03177	0.08603185
183	0x3d46708e	0.048447184
184	0x3dd7c896	0.105363056
185	0xbbdaa2b5	-0.006672228
186	0xbd121273	-0.035662126
187	0xbdf625b5	-0.12018911
188	0xbda0d015	-0.078521885
189	0xbdcede21	-0.101009615
190	0xbcc1439d	-0.02359181
191	0x3d843e3e	0.06457184
192	0xbcf3ee80	-0.029776812
193	0x3dd9fc5c	0.10643837
194	0xbd0f595c	-0.03499733
195	0xbd6ea6dc	-0.0582646
196	0xbd97d16a	-0.074129894
197	0xbcafcf10	-0.02146104
198	0x3dccd064	0.10000685
199	0x3c4aac60	0.012370199
200	0xbdfbb7f4	-0.12290946
201	0x3deb9eb8	0.115048826
202	0x3dd791fc	0.10525891
203	0x3d08fecc	0.03344612
204	0x3d2c0e38	0.042005748
205	0x3b7c2540	0.0038474351
206	0xbbc4d4c0	-0.006006807
207	0x3c91e450	0.017809063
208	0x3de0b7aa	0.10972531
209	0x3cbc5618	0.022990271
210	0xbd52e770	-0.051490247
211	0xbda7ceb0	-0.081937194
212	0x3cd77718	0.026301906
213	0x3d94a28e	0.07257567
214	0xbd030534	-0.031987384
215	0xbd70526c	-0.058672354
216	0x3d3d01d4	0.04614432
217	0x3d8de234	0.069279104
218	0xbc937f40	-0.018005013
219	0x3a53c800	0.00080788136
220	0x3dd237de	0.10264562
221	0x3da57446	0.08078818
222	0x3c088d80	0.0083345175
223	0xbc2ca520	-0.010537416
224	0x3d1db594	0.038503245
225	0x3c111210	0.008854404
226	0xbdf54d60	-0.11977649
227	0xbc90ac80	-0.01766038
228	0xbda8b2fc	-0.082372636
229	0x3cfc5720	0.030803263
230	0xbdf58e5e	-0.11990045
231	0x3da2a7a2	0.0794213
232	0x3d9428e4	0.07234362
233	0x3da76534	0.081736
234	0xbca34c20	-0.01993376
235	0xbd9ea504	-0.07746318
236	0xbddacc54	-0.10683504
237	0x3db43c8e	0.088006124
238	0xbde0a9a0	-0.109698534
239	0x3df74f22	0.1207564
240	0x3b474c40	0.0030410439
241	0x3d72651c	0.059178457
242	0xbd13c6b4	-0.03607817
243	0xbd8441a2	-0.06457831
244	0xbdc64e3a	-0.09682889
245	0x3da9a178	0.08282751
246	0x3dba380e	0.09092723
247	0x3bc842c0	0.006111473
248	0xbdb831d8	-0.08993882
249	0x3bad6ac0	0.0052922666
250	0xbcb9a048	-0.022659436
251	0xbcbd7900	-0.023128986
252	0xbc396f90	-0.0113181025
253	0x3dae70dc	0.0851762
254	0x3dce5122	0.100740686
255	0xbb585700	-0.003301084

fc.0.bias f4 [64]
0	0xbb0e70c0	-0.0021734685
1	0x3d48542d	0.0489084
2	0xbcf5405e	-0.02993792
3	0xbdc767ee	-0.0973662
4	0xbad36957	-0.0016129416
5	0x3d31871d	0.043341745
6	0xbccc78fa	-0.02496003
7	0x3dd296c0	0.102826595
8	0xbdb751a4	-0.089511186
9	0xbd989004	-0.07449344
10	0xbc89a4c2	-0.016802195
11	0xbd80a37e	-0.06281184
12	0xbd975422	-0.07389094
13	0xbddcb830	-0.107773185
14	0x3dc5a157	0.09649914
15	0xbdde07d8	-0.1084134
16	0xbd9470fe	-0.07248114
17	0x3d808e96	0.06277196
18	0x3db3aab7	0.08772796
19	0x3c039d70	0.0080331415
20	0xbdf6d596	-0.12052457
21	0x3d14bfbe	0.036315672
22	0x3d645186	0.05574181
23	0x3bc4e9c4	0.0060093123
24	0x3cc3ae90	0.023886949
25	0x3db5ebe7	0.088828854
26	0xbcc9d23a	-0.024636377
27	0x3cae1a28	0.021252707
28	0x3db2998f	0.08720695
29	0xbd0936d2	-0.033499546
30	0x3c9c8548	0.019106522
31	0x3d9fef75	0.07809345
32	0x3dc0323a	0.0938458
33	0xbdd29a76	-0.10283367
34	0xbccc8cfe	-0.024969574
35	0xbcf64a38	-0.030064687
36	0x3dc1cf95	0.09463421
37	0xbdc6aba4	-0.097007066
38	0xbde2b09a	-0.1106884
39	0x3d153fac	0.036437675
40	0x3db39b03	0.087698005
41	0x3d9613d7	0.07328003
42	0xbdcabb26	-0.09898977
43	0x3d915f29	0.070982285
44	0xbdc8ff44	-0.09814313
45	0xbda94fb8	-0.08267158
46	0xbdc1b844	-0.09458974
47	0xbd1231a3	-0.03569187
48	0x3d00368a	0.031302013
49	0x3c893546	0.016749036
50	0x3d2698d3	0.04067309
51	0xbdfbb4ae	-0.12290321
52	0x3da8e839	0.08247418
53	0xbd801382	-0.06253721
54	0x3c97c438	0.018526182
55	0x3e0334c4	0.12813097
56	0x3df33ae6	0.11876468
57	0x3e024513	0.12721662
58	0xbd67f030	-0.056625545
59	0xbd840a20	-0.06447244
60	0xbd078fc0	-0.033096075
61	0x3d450c42	0.048107393
62	0x3e079155	0.13239034
63	0xbdae090a	-0.08497818

policy_head.weight f4 [2, 64]
0	0x3dc8e4f8	0.09809297
1	0xbde1a5c8	-0.110179484
2	0x3de81753	0.11332574
3	0x3df95124	0.121736795
4	0xbda5da24	-0.08098248
5	0xbd28eff4	-0.041244462
6	0xbbdf6baa	-0.0068182545
7	0xbd1456a3	-0.036215436
8	0x3ce29e30	0.02766332
9	0x3ccb6730	0.024829477
10	0xbbaccdd4	-0.00527356
11	0xbd825808	-0.06364447
12	0x3d80d68a	0.0629092
13	0x3ba0e8e0	0.0049105734
14	0xbda8d7ab	-0.082442604
15	0x3dfb077c	0.12257287
16	0xbdf4bf8a	-0.11950596
17	0x3db6b5c2	0.08921386
18	0xbdb22d0b	-0.086999975
19	0x3c20d770	0.009816989
20	0x3cb94418	0.022615477
21	0xbdac773c	-0.0842118
22	0x3dede2a5	0.11615495
23	0x3d7806d0	0.060553372
24	0xbd982a48	-0.074299395
25	0x3d1aab3f	0.03776097
26	0xbd28a0e3	-0.04116906
27	0x3dd8af34	0.10580292
28	0x3cb1694c	0.021656655
29	0x3d080c0f	0.033214625
30	0x3da93c92	0.08263506
31	0xbd7bf997	-0.061517324
32	0x3b57c321	0.0032922702
33	0xbd99014a	-0.07470949
34	0x3db98249	0.09058053
35	0xbda95ef2	-0.082700625
36	0x3df7870c	0.12086305
37	0x3c67f0b0	0.014156505
38	0xbdfeb746	-0.124373004
39	0x3dd1f1e6	0.102512166
40	0xbd088f2f	-0.033339676
41	0xbd8191f0	-0.063266635
42	0x3dd8fb10	0.10594761
43	0x3db99411	0.090614446
44	0xbdc683e8	-0.09693128
45	0xbb6bb9c0	-0.003596887
46	0x3d98f85a	0.07469244
47	0x3d2bb323	0.041918885
48	0xbde8fecd	-0.113767244
49	0x3b7a5c51	0.0038201998
50	0xbd44b770	-0.048026502
51	0x3de0a582	0.10969068
52	0x3e06ced5	0.13164838
53	0x3d1bb300	0.038012505
54	0xbc9f4af8	-0.019444928
55	0x3db81192	0.08987726
56	0xbd025ab7	-0.031824794
57	0x3de2a7d9	0.11067171
58	0xbd3b2028	-0.045684963
59	0xbddc7a96	-0.10765569
60	0x3dc2182a	0.09477265
61	0x3ccacffc	0.024757378
62	0x3d368c35	0.044567306
63	0x3dcaff4e	0.09911977
64	0x3ca8caa8	0.020604447
65	0xbcac38d9	-0.0210232
66	0x3d33f97c	0.0439391
67	0x3d3689bc	0.044564947
68	0x3da29224	0.0793803
69	0x3cf81a3b	0.030285945
70	0x3ca44d1b	0.020056298
71	0x3b99e91b	0.004696978
72	0xbdbfbd50	-0.0936228
73	0xbc355180	-0.011066794
74	0xbc160b9a	-0.009158039
75	0x3d3cab18	0.046061605
76	0x3d23cdd4	0.039991215
77	0x3cf1bc48	0.029508725
78	0xbdac8acb	-0.0842491
79	0xbd9c6f44	-0.0763841
80	0xbd9fa680	-0.07795429
81	0xbd3b9d1b	-0.045804124
82	0xbd283547	-0.041066434
83	0x3bc2c960	0.005944416
84	0xbc33f1d0	-0.010982946
85	0x3d8ad9f4	0.067798525
86	0x3ddcd9a0	0.10783696
87	0x3db97831	0.09056128
88	0xbdf41494	-0.119179875
89	0x3ddb32f6	0.107030794
90	0xbd4606d5	-0.04834636
91	0x3dedc538	0.11609882
92	0xbc6108dc	-0.013735022
93	0x3dd8d67e	0.10587786
94	0xbd9e77be	-0.07737683
95	0x3bbc5be3	0.0057482584
96	0x3c0bba33	0.00852828
97	0x3db09128	0.08621436
98	0xbd2b4553	-0.04181416
99	0x3d7c2b84	0.061564937
100	0x3b1dc6b9	0.0024074747
101	0x3df2ae80	0.118496895
102	0x3dd18ede	0.10232328
103	0x3df63aeb	0.120229565
104	0x3d7320e4	0.05935754
105	0xbda02755	-0.07820002
106	0x3d21e54c	0.039525315
107	0xbdf67424	-0.12033871
108	0x3bbe2920	0.0058032423
109	0x3daf8d4e	0.085718736
110	0x3dd455de	0.1036794
111	0x3d24a273	0.040193986
112	0xbdf72981	-0.12068463
113	0x3d756cf2	0.05991835
114	0xbd44c91a	-0.048043348
115	0xbd3379a0	-0.043817163
116	0x3c8ef98c	0.017452978
117	0x3da2ab34	0.07942811
118	0xbcc0db70	-0.023542136
119	0x3d842e64	0.06454161
120	0xbda528ec	-0.08064446
121	0xbd722bce	-0.059123807
122	0xbdb2817a	-0.08716102
123	0xbdf14220	-0.117801905
124	0x3dc745b2	0.0973009
125	0xbdc4196f	-0.095751636
126	0x3b46c1f7	0.0030328014
127	0xbcb5d840	-0.022197843

policy_head.bias f4 [2]
0	0x3dfafa8f	0.122548215
1	0xbd5fba4b	-0.054621022

value_head.weight f4 [1, 64]
0	0xbdd85f36	-0.10565035
1	0xbdd2d169	-0.10293848
2	0xbe06dd38	-0.13170326
3	0xbdbd4bea	-0.09242995
4	0xbda87cc2	-0.08226921
5	0x3d7cc26b	0.06170885
6	0x3d8c7bb3	0.06859531
7	0x3cadfdc5	0.02123917
8	0x3dd8db5c	0.105887145
9	0xbc843600	-0.01613903
10	0x3d498a2b	0.049204033
11	0x3dd05a80	0.101735115
12	0xbdab4cb4	-0.08364239
13	0x3dc44eec	0.09585366
14	0x3cb1ad85	0.021689186
15	0x3cdfab68	0.027303413
16	0xbdc68d2e	-0.09694897
17	0x3d29684e	0.04135924
18	0xbdbee28b	-0.093205534
19	0xbc885370	-0.016641349
20	0x3d820884	0.063492805
21	0x3dae02a2	0.08496596
22	0xbcc4eec1	-0.024039628
23	0x3ca36344	0.019944794
24	0x3d73a5d8	0.059484333
25	0xbd607bb0	-0.054805458
26	0x3db761e2	0.089542165
27	0x3d7f56d0	0.06233865
28	0xbd64426f	-0.05572742
29	0x3d5671e5	0.052354712
30	0x3dab6044	0.083679706
31	0xbdae7295	-0.085179485
32	0x3bddb467	0.0067658904
33	0xbdda9b50	-0.10674155
34	0xbc6b3f6a	-0.014358381
35	0xbc9c2f30	-0.01906547
36	0xbb2cc59a	-0.0026362897
37	0xbd51b178	-0.051194638
38	0xbc86c008	-0.01644899
39	0x3be659ba	0.007029739
40	0x3cf402cd	0.029786492
41	0xbdbd5ce5	-0.09246234
42	0x3dcfb02c	0.10141024
43	0x3ac7becf	0.001523936
44	0x3c28ce60	0.01030311
45	0x3df1e57a	0.11811347
46	0x3d9cafe4	0.07650736
47	0xbdf37fe7	-0.1188963
48	0x3dc5ecd7	0.09664314
49	0xbc8cb798	-0.017177388
50	0xbd7becfe	-0.06150531
51	0x3bed21e0	0.007236704
52	0x3caeceb1	0.021338793
53	0x3db966f8	0.09052843
54	0xbcd86e00	-0.02641964
55	0xbb38cc5c	-0.002819798
56	0xbb382270	-0.0028096698
57	0xbb391155	-0.002823909
58	0xbd9e2e46	-0.0772367
59	0x3cd197a8	0.02558501
60	0x3d792258	0.06082377
61	0xbcec9e40	-0.028884053
62	0xbb020840	-0.0019841343
63	0xbdb15554	-0.08658853
