checkpoints/live_20251008_201319.pt (torch, 73189 bytes, 10 tensors)

gru.weight_ih_l0 f4 [192, 1]
000000 ba b0 6d bd 10 f8 ac 3d dc b0 c3 3d 74 bd fd 3c
       -0.058029868 0.08445752 0.095552176 0.030974127
000010 42 0c b9 3d 99 15 dc bd 1e 7e cb 3d ba 85 b0 3d
       0.09035541 -0.10746307 0.09936164 0.08619256
000020 7c ad 6b b8 15 a0 cc bd 06 1c 66 bd a7 45 3a bd
       -5.6189936e-05 -0.09991471 -0.05617907 -0.045476582
000030 b8 a7 f2 3c ca 7c 37 bd 54 1b 7d 3c bf 6d 96 bd
       0.02962099 -0.044796742 0.01544841 -0.07345151
000040 4b 2a a5 3d 5b b6 bd bd 76 e8 0a bd 0e 99 db 3d
       0.08064707 -0.09263297 -0.0339131 0.10722552
000050 d2 cd d5 bd 5e 1e 64 3d a0 db e4 bd 95 30 4d 3d
       -0.10439648 0.055693023 -0.11174703 0.05009516
000060 c4 1d e1 bd 6a 43 4c 3d 40 8d bf bd fe c7 24 bc
       -0.109920055 0.04986898 -0.09353113 -0.0100574475
000070 62 56 04 3e 90 cf 86 bb 68 89 c5 bd 89 fb b9 3c
       0.12923577 -0.004114099 -0.09645349 0.02270295
000080 ec 09 cd 3d 09 82 b8 3d 46 b5 45 3d f9 f3 86 3c
       0.10011658 0.09009177 0.04826858 0.016473757
000090 f1 c5 91 3c 0c 4a bf bd b1 c1 a2 3d 4b e2 62 3c
       0.017794581 -0.09340295 0.079471 0.013847898
0000a0 23 5d 1d bd fd 86 8e 3d 65 9d 7b 3d c6 4f 5a 3d
       -0.0384189 0.06959341 0.0614294 0.053298734
0000b0 00 31 04 be 6f 5e d8 3d bf 9d 81 3d db 11 dd bd
       -0.12909317 0.10564887 0.06328916 -0.10794421
0000c0 54 1d ae 3c 4a 32 1a bd 93 5b 45 bc a0 9c 81 3d
       0.02125422 -0.037645616 -0.012045759 0.06328702
0000d0 39 02 14 bd df 8b f7 bd e8 0d a2 bd 12 1c 23 bc
       -0.036134932 -0.12087225 -0.07912809 -0.009955423
0000e0 ce f9 ed bd 95 99 17 3d f4 8c e0 bd 6b f6 79 3d
       -0.11619912 0.0370117 -0.10964385 0.061026018
0000f0 81 6a 9b bd de a9 85 3d 72 5f f5 bd 44 a6 ca bd
       -0.075886734 0.0652654 -0.119810954 -0.09894994
000100 0c 0d 46 3d 8d 45 81 bc da 0e 0f 3d 39 55 91 bd
       0.048352286 -0.015780235 0.034926273 -0.07096333
000110 58 64 b8 3d d2 ab 9a bd a7 ca b4 bd c8 e8 f0 3c
       0.09003514 -0.075523034 -0.08827715 0.029407874
000120 c1 a2 bb bb 12 e3 0a bd 1c 6a 9b bc b9 b1 4c bd
       -0.005726189 -0.033907957 -0.018971495 -0.049974177
000130 72 75 16 3d d3 1a bc 3d ed 03 90 3d 71 b2 df bd
       0.0367331 0.09184804 0.07031999 -0.10922707
000140 fd df 8b bd 08 3f 12 3d 4e 4b ad 3d a9 9d b7 bd
       -0.06829832 0.035704643 0.08461629 -0.08965618
000150 83 82 99 bb 11 f0 fa bd e4 e7 98 3d 31 de 18 3d
       -0.0046847477 -0.1225282 0.074661046 0.037321273
000160 14 fc 5f bd b8 75 4d bc 73 a6 d0 bc 94 dc 0b 3d
       -0.05468376 -0.012540273 -0.025469994 0.034145907
000170 7e d5 90 bd 44 fb ca 3d f7 bb 85 3d 66 6f cb bd
       -0.070719704 0.09911206 0.06529992 -0.09933357
000180 0f bf f8 bd 04 d9 5d bd 48 21 7b bd d8 d4 7c bc
       -0.121458165 -0.05416204 -0.061311036 -0.015431605
000190 ce 0b 07 be 3f fe e8 3c 55 35 7e 3d ff a8 90 bd
       -0.13188097 0.028441546 0.06206258 -0.070634834
0001a0 7d 7f d0 bd c0 5b 27 3d 60 95 85 bd 97 a8 be 3a
       -0.101805665 0.040858984 -0.06522632 0.0014546093
0001b0 7b e3 13 bd ad 2d 04 bd f0 b0 9d 3c ce ec 4d bd
       -0.036105614 -0.032270122 0.01924941 -0.050274663
0001c0 57 5a e4 3d b2 1a e8 3d 5d 47 79 3b 87 73 c0 bc
       0.111500435 0.11333217 0.003803692 -0.023492588
0001d0 b1 bb 20 bc 32 b7 59 3d 12 b1 bb bd d3 0c 52 3d
       -0.009810374 0.053153224 -0.09164633 0.05128176
0001e0 74 03 f2 3c 46 4c 52 bd 58 07 bc bd 5b ed 47 bd
       0.029542662 -0.05134227 -0.09181088 -0.048810344
0001f0 69 c1 a1 3d 03 76 c2 3d c2 ac 07 3e b1 50 86 bd
       0.07898218 0.09495165 0.13249496 -0.065583594
000200 fa a1 bb bd d7 9c c2 bd 23 93 a3 bd 11 e0 1f bd
       -0.09161754 -0.09502571 -0.079870485 -0.039032046
000210 67 b0 70 bd 83 dc ec 3c 99 9f d9 bd fe ab 45 bd
       -0.05876198 0.028913742 -0.10626144 -0.048259728
000220 1a fc 1f 3d 7b 4f 3e 3b c1 a9 06 3d eb 75 b0 bd
       0.039058782 0.0029039073 0.032876734 -0.08616241
000230 e7 28 b2 3d d7 1e 90 bd 82 a2 1b bd a9 7e 4d bd
       0.08699208 -0.07037132 -0.037996776 -0.05016962
000240 88 20 b2 3d b7 3d 91 3d bf 79 a0 bd 6f 82 bd 3c
       0.08697611 0.07091849 -0.07835721 0.023133485
000250 d0 6f 8c bd b3 63 83 3d 77 d0 9d bd cf 2a 08 bd
       -0.06857264 0.064155005 -0.07705777 -0.03324395
000260 d1 43 12 3d 09 db e5 bd 66 01 5c bd 95 17 e9 bc
       0.035709206 -0.11223418 -0.05371227 -0.028453628
000270 79 f6 19 3c c1 f2 2a 3d 30 36 02 be e3 36 b4 bd
       0.009397143 0.041735414 -0.12715983 -0.08799531
000280 29 f7 47 ba 8e 40 a7 bc 42 dd a1 3d 7f 34 4f bd
       -0.00076280773 -0.020416524 0.0790353 -0.050587174
000290 06 f0 84 3d 8e be 05 3e dd f5 8d 3d 9b 30 51 bc
       0.06491093 0.13060972 0.0693166 -0.012767936
0002a0 15 8e 37 3c da 44 1f bd ef 5b ad 3d c1 9f 3d 3d
       0.011203309 -0.03888402 0.084648006 0.04629493
0002b0 20 ae 6b bb 70 cb 07 bd ea ff 83 3c b5 64 c5 3d
       -0.003596194 -0.033152997 0.01611324 0.09638349
0002c0 94 7d 3a 3d 8b 74 f6 3a c6 80 b6 3d da 2b 01 be
       0.045529917 0.0018803043 0.0891128 -0.12614384
0002d0 5b b2 37 3c 4a 33 99 3d 1a 94 ab bd 73 8e 1a 3d
       0.011211957 0.07480486 -0.083778575 0.037733506
0002e0 02 38 b0 bd 95 56 e7 3c 16 78 d4 bd 14 34 f9 3d
       -0.08604433 0.028239528 -0.10374467 0.12168136
0002f0 32 67 d7 bc 73 e7 08 be 76 ed 7f bd 6e 8a b2 bd
       -0.026294325 -0.13369541 -0.06248232 -0.087178096

gru.weight_hh_l0 f4 [192, 64]
000000 2e 31 11 3d 11 07 d6 bd b1 fd 58 3d ad 38 03 bd
       0.035447292 -0.104505666 0.052976314 -0.032036472
000010 d5 f6 d4 3d a0 9c d4 3d 92 cc c0 3b f5 ec 78 bd
       0.10398642 0.10381436 0.0058837617 -0.060772855
000020 93 fd 1b bd d6 bf 4f bd d9 81 6d 3c cf 28 fc bd
       -0.038083624 -0.05072006 0.01449629 -0.12312471
000030 e1 39 21 bc c1 95 e0 3c c6 57 a0 bc a0 cd b6 bd
       -0.00984046 0.027415158 -0.019573104 -0.089259386
000040 c1 77 60 3d ea e7 95 bd de 10 71 3d 23 41 83 bd
       0.054801706 -0.07319625 0.058853976 -0.06408908
000050 41 c2 8d 3c 96 02 dc bd a3 42 c2 bc 46 f4 e7 3c
       0.017304542 -0.10742681 -0.023713415 0.02831472
000060 ae b8 64 bc 2a 0c e6 3d c8 9c 95 bd 66 9a cd bd
       -0.013960047 0.11232789 -0.07305294 -0.10039215
000070 5e 50 0c bb 90 09 16 3d 25 a7 8e bc bd e9 af 3d
       -0.0021410207 0.036630213 -0.017413685 0.08589504
000080 d6 4d 41 bd 3e 7d f0 3d c9 69 30 bd da fa 61 3d
       -0.04719337 0.11742638 -0.043069635 0.05517087
000090 21 d5 9f bd 4d 2d 6d bc 92 8d de 3c d1 79 51 3c
       -0.07804323 -0.014476133 0.027167115 0.012785391
0000a0 9d da 9a bb af 65 4b bd 13 3b fe bc 68 72 b4 bd
       -0.0047257678 -0.04965752 -0.031034028 -0.08810884
0000b0 45 a2 ab 3d 83 4e fc 3d f6 f7 9b 3d 9d 32 43 3d
       0.0838056 0.123196624 0.07615654 0.04765569
0000c0 80 ca 6b 3d 23 bb 1e bd 88 a7 a1 3d 34 e4 02 3e
       0.057566166 -0.038752686 0.07893282 0.12782365
0000d0 fc 5e 57 3d cb f3 80 3c 7a 55 08 3e aa c2 fc bb
       0.05258082 0.01574125 0.13313857 -0.0077136355
0000e0 65 e9 e6 3c e5 80 1f bd e5 c3 aa bd d5 03 dc bd
       0.028187463 -0.038941283 -0.08338145 -0.107429184
0000f0 68 86 07 bd 43 90 a0 ba 07 5e 22 bd ae 71 0f 3d
       -0.033087164 -0.0012250025 -0.039640453 0.035020523
000100 3a 60 a9 3c e2 24 d4 bd 06 ae dd bd e5 11 ff bd
       0.020675767 -0.10358597 -0.10824208 -0.12454585
000110 64 07 2d bc ef 48 2d bd 24 1e f7 bc 70 97 d3 3c
       -0.010560844 -0.042305883 -0.03016574 0.025829047
000120 8d bc 2c 3a f2 b2 7e bd 66 59 cb bd 14 f4 d0 3d
       0.00065893756 -0.062182374 -0.09929161 0.10202804
000130 8e f0 f4 3c bd 1a 64 bd b7 b9 56 3d ae 5e a3 3d
       0.029899862 -0.055689562 0.052423205 0.07977043
000140 5a 3c e8 3d 91 e0 3f bd ad d5 da 3b 68 96 b5 bd
       0.11339636 -0.046845023 0.006678304 -0.08866578
000150 b5 ad fd bc 13 f0 ae 3d 13 f8 4b bb a3 4f 89 bd
       -0.030966619 0.08541884 -0.0031123206 -0.067046426
000160 f6 d8 d0 bd ef 92 e4 3d 36 6b 88 bb c2 ff 03 3d
       -0.10197632 0.11160838 -0.004163171 0.03222633
000170 a2 21 e0 bd f6 0a c3 bd 15 d5 b3 bd ed 17 4c bd
       -0.10943915 -0.09523575 -0.087808765 -0.049827505
000180 9c 65 f3 3d 2f 4a 2d 3c ba 00 93 3d fc 3e eb 3d
       0.11884615 0.010576769 0.07177873 0.11486623
000190 44 a5 d1 bd 4f 6f 82 bd ab 0d cc bd f2 51 c2 3d
       -0.102366 -0.06368887 -0.099635445 0.09488286
0001a0 97 f5 6f 3d 26 74 f3 3d d0 14 d7 bd e1 d6 22 bd
       0.058583822 0.11887388 -0.105020165 -0.039755706
0001b0 df 93 f9 bd be b5 09 3d fe fb 0c bd 5d c2 51 3d
       -0.12186407 0.03362059 -0.034420006 0.05121075
0001c0 3c b8 d0 bd c2 e6 20 3d a2 d9 92 3d 87 0d 53 bd
       -0.1019139 0.039282568 0.071704164 -0.051526573
0001d0 65 5b 48 bd 88 1d b9 3d c8 f3 bf bd aa 22 10 bd
       -0.048915286 0.09038836 -0.093726695 -0.03518931
0001e0 6d e2 f7 3d f5 ff d6 3d be 11 89 3d 0c 2d ae bb
       0.12103734 0.10498039 0.06692837 -0.0053154286
0001f0 16 7e 95 bd c9 72 ee 3d f5 f4 95 bd 3d 71 ae 3c
       -0.072994396 0.11642987 -0.073221125 0.02129423
000200 1b 67 9e bc 56 a7 c8 bc 9d bc d9 3d 3b fd 02 3e
       -0.019336274 -0.024493854 0.10631678 0.12791912
000210 c2 d2 e2 3b 95 51 e3 3c 68 c4 e4 bd 69 b9 8c 3d
       0.006922097 0.027748862 -0.11170274 0.06871302
000220 a3 24 aa 3d bc d2 05 3e 4d dd e0 3d 1f 43 82 3d
       0.08307769 0.1306867 0.1097971 0.063604586
000230 6b 1e 53 3c ca 9d b3 3d 78 f6 a7 3c 2f 9d 25 bd
       0.01288567 0.0877033 0.020503268 -0.040433105
000240 0c 88 c5 bd e3 ef cf 3b 9e 37 87 bd 70 03 9e bd
       -0.096450895 0.0063457354 -0.06602405 -0.077154994
000250 35 c4 97 3d 0b 96 03 be ee d0 3c 3d 56 c4 07 bd
       0.074104704 -0.12850206 0.04609769 -0.033146225
000260 a5 29 24 bd 44 74 9c 3d a3 25 cd bd e3 23 60 3d
       -0.040078778 0.076393634 -0.10016944 0.054721724
000270 68 34 d4 3c c2 c7 f6 bc 3d de e5 3c 0a d9 c3 3d
       0.025903895 -0.030124549 0.028060073 0.09562881
000280 2b e6 88 bc e2 34 08 3d 4a 4a 73 3d f0 89 74 3d
       -0.016711315 0.033253558 0.05939702 0.05970186
000290 99 62 ba bd 40 d6 5f bd 24 2a b1 bd 87 f7 1f 3d
       -0.09100837 -0.054647684 -0.08650616 0.03905442
0002a0 83 97 fa bc 58 62 e9 3c df 15 0d 3d fa 85 bd bd
       -0.030589825 0.028489277 0.034444686 -0.092540696
0002b0 09 f7 c4 bc 0a 22 1b bd 6d 65 98 3d 7e a2 b1 3d
       -0.024043577 -0.03787426 0.074412204 0.08673571
0002c0 a3 ef d4 bc 27 1c 03 be 23 9b 27 bd 2d bd c9 3d
       -0.025993174 -0.12803708 -0.040919434 0.098505355
0002d0 9f 34 c2 bb 73 08 f1 bd 4a 92 e3 3d b0 11 b5 bd
       -0.005926683 -0.1176919 0.11111887 -0.08841264
0002e0 ed 1a fe 3d 64 6c b0 bc 80 ce cf 3d 9d 20 d4 bd
       0.124074794 -0.02153606 0.101468086 -0.10357783
0002f0 cd dc a5 bd 6f 0d a9 3c a3 9e d3 3d 8b 1f 99 bc
       -0.08098755 0.020636288 0.10332992 -0.018691799
000300 68 66 c5 3d 35 e7 36 3d 69 4d bb 3c 23 b4 a3 bc
       0.09638673 0.04465409 0.02286406 -0.019983357
000310 e4 fe 4b bd 60 79 f2 bd 31 00 71 bd 67 91 bd 3d
       -0.04980363 -0.11839557 -0.058838073 0.09256249
000320 61 3c d6 3d 2a 0e 48 bd d1 7b b8 bd 48 31 80 bd
       0.10460735 -0.048841633 -0.09007991 -0.062594
000330 d4 93 1e bd 03 1d 71 3d 48 0f 09 bc ac ad 8b bc
       -0.0387152 0.05886556 -0.00836546 -0.017050587
000340 a0 80 d2 bd b4 9e d5 3d d5 ce c3 3d 4e f8 ce 3a
       -0.102784395 0.10430661 0.095609345 0.0015790553
000350 fc 45 d6 3c b7 0d 0e bd a4 2b f4 3c 19 81 bd 3d
       0.026156418 -0.03468105 0.029805966 0.09253139
000360 92 e5 c7 3c 52 df 70 bb db 57 3e 3d 44 cf e7 bd
       0.02440146 -0.0036754203 0.046470504 -0.1131883
000370 47 83 9a bd 75 28 06 bc 8b 19 70 bd d4 6b 79 bd
       -0.075445704 -0.008188357 -0.05861811 -0.06089385
000380 53 ed b4 bd 6e 63 e5 bd 04 6b 11 bd 6e be c6 3c
       -0.088343285 -0.11200605 -0.03550245 0.024260726
000390 85 8a cb bd 27 a6 65 3d 10 32 99 bd a3 d6 66 bd
       -0.0993853 0.05606666 -0.07480252 -0.056357037
0003a0 4c 86 c1 3d 3d 14 9a bd bb 24 a5 bd eb e4 4e 3c
       0.09449443 -0.075233914 -0.080636464 0.0126278205
0003b0 56 47 78 bd d6 44 e3 3d e8 de cd 3d bb e2 6d bc
       -0.060614906 0.11097114 0.100522816 -0.014519389
0003c0 2e 99 f5 3c 1f 9c 1d 3d 2d c6 da bd 43 70 f2 3d
       0.029980268 0.038478967 -0.1068233 0.118378185
0003d0 5d c5 a8 ba d4 f0 af bd bf 59 a0 b9 27 76 d1 bd
       -0.0012876202 -0.08590856 -0.00030584444 -0.10227614
0003e0 2c 47 8a bd a0 a9 97 3b 90 41 e0 3d 7d aa a0 3d
       -0.06751856 0.004628375 0.10950005 0.07845018
0003f0 39 b1 70 3d 0c 21 8f bc d3 10 78 3d f7 cb 89 bd
       0.058762763 -0.017471813 0.06056292 -0.06728356

gru.bias_ih_l0 f4 [192]
000000 76 d4 3c 3d 10 08 e4 3d ff 9b d3 3d 29 68 0e bd
       0.046101056 0.1113435 0.10332488 -0.034767304
000010 64 37 a4 3c 9a 33 11 bd 0d 9d a3 3d e5 d7 89 3d
       0.020045944 -0.0354496 0.079889394 0.06730632
000020 2e 95 a4 bd 55 10 f0 3d fa 2f e8 3d 03 49 af 3c
       -0.08036266 0.11721865 0.11337276 0.02139712
000030 53 be 8e bd 47 f4 6c bb fd f4 66 3d 6a c4 88 3d
       -0.06969895 -0.0036156343 0.056385983 0.06678088
000040 0f c2 b7 bc 28 ca b5 bb 42 3e fb bb 4c 2d cb bd
       -0.022431402 -0.0055477805 -0.007667334 -0.09920749
000050 97 91 fd bd ff da 28 bd e6 77 b8 bc ea b1 ec 3d
       -0.12381285 -0.041224476 -0.02251811 0.11557372
000060 48 ff f9 bc 4f 81 c2 bd 95 e8 5b bd 49 10 bc bb
       -0.030517235 -0.0949732 -0.053688604 -0.005739246
000070 f1 8f 71 3d af 5b ad 3d 72 73 33 3d cd 6a 4f 3d
       0.058975164 0.08464753 0.04381127 0.050638963
000080 50 8d 81 ba ef aa a5 bd 8a 4a db bd be bd 58 bc
       -0.0009884033 -0.080892436 -0.107075766 -0.013228832
000090 9b 39 c1 3d 70 03 d0 bd 45 ac e3 bd 67 7b e0 3d
       0.094348155 -0.10156906 -0.11116842 0.10961037
0000a0 81 51 c0 3d 63 93 42 bd 35 40 bb bd d1 6e df 3b
       0.09390546 -0.04750384 -0.09143106 0.0068186303
0000b0 7e 2c 8a 3d 9c c7 37 bd 41 ba 30 bd fe 11 b3 bc
       0.067467675 -0.044868097 -0.043146376 -0.021859165
0000c0 91 65 53 3d a3 97 ff 3d 53 61 cc bd f0 a8 3f 3d
       0.051610533 0.12480094 -0.099795006 0.04679197
0000d0 6e 07 80 3c 55 5e 4e bc 93 28 a6 bc 5c fb a6 bd
       0.015628543 -0.012595733 -0.02028302 -0.08153412
0000e0 b6 39 c9 3d ac e3 9c bd 04 df 69 bd 92 18 a0 bb
       0.098254606 -0.076606125 -0.05709745 -0.0048857415
0000f0 d5 29 c0 bd 87 d9 ff 3d 34 b9 1a bc 08 87 d7 bc
       -0.09382979 0.12492662 -0.00944357 -0.026309505
000100 63 22 1e 3d 01 86 ef 3d 10 9e 7d 3d d0 ec d8 bd
       0.038607012 0.11695481 0.06191832 -0.105920434
000110 f6 1e 4b 3d 56 1d b3 3d db b4 eb 3d c6 4c 49 bd
       0.049590074 0.0874583 0.11509105 -0.049145482
000120 70 00 fb 3b ef 76 78 bd 80 85 6f bd a2 1d 4c bd
       0.0076599643 -0.0606603 -0.058476925 -0.049832948
000130 01 35 ab bd cf c4 5e bd 3d cc e6 bd 75 31 9e bb
       -0.08359719 -0.05438691 -0.11269424 -0.004827673
000140 1b 51 99 bc c7 8e 7c bd fb 98 c8 3d 2d a3 a1 bd
       -0.018715432 -0.0616596 0.09794804 -0.078924514
000150 84 65 f2 bd d3 2a 6a 3d f8 e0 f0 bd f5 f5 75 3d
       -0.11835769 0.057169747 -0.117616594 0.060049016
000160 08 d3 04 3e b0 bb 84 3d 41 29 80 3d 7b dd 84 bd
       0.12971127 0.06481111 0.062578686 -0.064875565
000170 e5 ce b6 3d b8 5d b3 3c 9c 50 52 3c 10 ee 94 3d
       0.08926181 0.021895275 0.012836602 0.07271969
000180 85 cc f9 3d d3 4b 98 3d 3f ff 8f 3d cc 33 08 3d
       0.12197212 0.07436337 0.07031106 0.033252522
000190 5c cb cd 3b 24 92 2e 3d 5b 12 72 bd 9d 86 cb 3d
       0.006280346 0.04261984 -0.059099536 0.09937785
0001a0 af b7 ab 3d 28 91 d8 3d 09 55 97 3d e0 62 97 bc
       0.08384644 0.10574561 0.07389266 -0.018479764
0001b0 a9 f0 15 bd ee ff 4f bd 5c 86 3a 3d e4 e4 d3 3c
       -0.036606465 -0.050781183 0.04553829 0.02586598
0001c0 02 48 b8 3d cc fc 38 bd 60 ff 3f 3c 37 7b 93 3d
       0.089981094 -0.04516296 0.011718601 0.07201236
0001d0 f1 da ca 3d a3 3c 31 bc 3c e1 00 bc 73 40 46 bc
       0.09905041 -0.01081768 -0.0078662 -0.012100327
0001e0 7c 42 dc 3d 0c c0 80 bc ec 20 93 3d 8a 0b 25 bc
       0.107548684 -0.015716575 0.07184014 -0.010073552
0001f0 b4 a6 e1 bd 9f cd 42 bd f3 75 c6 3d ff 49 b7 3d
       -0.11018124 -0.047559377 0.09690466 0.089496605
000200 7a a5 da 3c 85 c4 47 bc 17 8e b1 bd ea 04 f5 bd
       0.026690233 -0.01219285 -0.086696796 -0.11963828
000210 12 a3 56 3d 3b ed 90 3b 49 6a 78 3d a6 58 94 bd
       0.05240161 0.0044228113 0.060648236 -0.07243471
000220 60 f8 b6 bc 3a 8f 5e bd 99 1a a3 bd a9 83 c0 bc
       -0.022335231 -0.05433581 -0.079640575 -0.02350028
000230 a9 13 a5 3d d0 15 c5 3d be 93 a7 bc dc 55 95 3c
       0.080603905 0.09623301 -0.020456191 0.018229418
000240 cf f5 27 3d f7 47 d2 bd 32 09 c9 bd bc f1 cf bd
       0.041005906 -0.102676325 -0.09816207 -0.10153529
000250 ba 66 6d 3c d1 58 b3 bc a7 3f 03 3e fc 61 e7 bc
       0.014489824 -0.021892937 0.1281725 -0.028244965
000260 4f 1b a0 3d 3d 7d b2 bd c3 0a d8 3d ef ba a5 3d
       0.07817709 -0.087152936 0.10548928 0.080922954
000270 d3 37 61 ba 00 6d dc 3d 73 76 21 bd 43 c4 cb bd
       -0.00085913873 0.107629776 -0.039419603 -0.09949543
000280 40 79 b1 3d a1 20 07 3d 42 52 00 3d 26 b2 7f bd
       0.08665705 0.0329901 0.031328447 -0.062425755
000290 58 80 0f 3d d8 67 ec bd 4a 86 cd 3c f5 86 b1 3d
       0.035034508 -0.11543244 0.025088448 0.08668319
0002a0 7c 61 c8 bb 6d 34 b4 3b cd 6f 45 bd df 7a db 3d
       -0.0061151367 0.0054994137 -0.048202325 0.10716795
0002b0 2d 2d ea 3d 31 fb 03 3d f0 bc 58 bd a7 a6 6b bd
       0.11434398 0.032221977 -0.05291456 -0.05753198
0002c0 93 e4 4f bd f7 78 ea 3d dd bc 01 be 2c 45 d9 3d
       -0.050755095 0.114488535 -0.12669702 0.106088966
0002d0 13 f6 e6 bd 8e f5 78 3d fc fe 2b 3d 84 71 c0 3d
       -0.11277404 0.060781054 0.04199122 0.093966514
0002e0 bf 10 4c bd 88 dd 51 3d b0 ae de 3d df 1b 6c 3d
       -0.049820658 0.05123666 0.10873163 0.057643767
0002f0 d8 c7 35 bd 28 a3 a1 bd 27 78 cc bd 16 f0 f2 bd
       -0.04438004 -0.07892448 -0.09983855 -0.11862199

gru.bias_hh_l0 f4 [192]
000000 29 91 88 3c d0 33 d0 bd 2d 85 38 bd 34 6f 1f bd
       0.01667078 -0.101661325 -0.04504888 -0.03892441
000010 17 41 be bc 14 4d c8 bd 39 54 fc bd ac 9a c5 3d
       -0.023224397 -0.097803265 -0.12320752 0.09648642
000020 c4 89 89 bd de b3 0d bd 66 c1 8a bd 66 86 98 bd
       -0.0671573 -0.034595363 -0.06775169 -0.074475095
000030 8c 27 fd bc a8 d5 81 bd c8 03 e0 bd da 78 1e bc
       -0.030902646 -0.0633958 -0.10938221 -0.009672368
000040 e3 e9 08 be c1 03 d5 3d 1d e3 9f 3c 8e 9b cf bc
       -0.1337047 0.104011066 0.019517476 -0.025342729
000050 3c b8 83 bd 95 3f 0d 3d e0 2f 51 bd ba a4 f0 bd
       -0.06431624 0.034484465 -0.051071048 -0.11750169
000060 6b 9d 8a bd 13 10 c0 3d 37 b8 ae bd aa c9 f5 bd
       -0.06768306 0.09378066 -0.0853123 -0.12001355
000070 13 f7 20 bd 09 e9 74 3d 26 91 a5 bd 31 58 b0 3c
       -0.03929813 0.059792552 -0.080843255 0.021526428
000080 6f ca d4 3d e9 f3 8c ba 46 2c 9c 3d b5 7e 61 bd
       0.10390174 -0.0010753843 0.07625632 -0.055052478
000090 ed 14 97 3d 22 06 95 bd 7b 4e 45 3d 99 46 26 bd
       0.07377038 -0.0727656 0.048170548 -0.04059467
0000a0 63 cf 95 3d a3 44 fc bc 99 69 9b 3d 96 85 c2 bc
       0.073149465 -0.030794447 0.075885005 -0.02374534
0000b0 74 7b 02 3d 4d 1b 00 be 2e ca cb bd 5f a6 f0 bd
       0.031856015 -0.12510414 -0.09950672 -0.11750483
0000c0 9c b6 01 3e 01 37 23 bc 71 97 a5 3d 4a e1 8e bb
       0.12667316 -0.009961844 0.08085526 -0.0043603526
0000d0 85 c2 0a 3d 7e 01 cc 3d 2a 85 68 3d de cc 86 bd
       0.033876915 0.09961222 0.05676762 -0.06582044
0000e0 47 e4 09 bd 70 78 e3 3d 7c 22 74 bd 50 6e 08 bd
       -0.033664968 0.11106956 -0.0596032 -0.033308327
0000f0 7f 73 c1 3d 2c 0c b1 3d 9e d2 14 3d ac 8d a2 3d
       0.09445857 0.086449 0.036333673 0.07937178
000100 de 7b 28 bc bd f6 83 3d 3c 66 30 3d 4c e4 82 bd
       -0.0102834385 0.06443546 0.04306625 -0.063912004
000110 eb ec 8b 3d 3b 9f 27 bd bf 6f 81 3d b5 6a c0 3d
       0.06832298 -0.04092334 0.06320142 0.09395353
000120 ed 3e ac bc 1e d3 48 bc b5 02 79 3b df 98 ad bd
       -0.0210261 -0.0122573655 0.0037995998 -0.084764235
000130 9b 5e de 3d 8f c3 a3 3d b9 5b ec bd 8b fa 26 3d
       0.10857888 0.07996284 -0.11540932 0.04076628
000140 b9 4d 5e bd 55 1d f4 3d f4 5c 3b 3d 48 59 f1 3b
       -0.05427334 0.11919657 0.045742944 0.0073653795
000150 76 cd 1b 3d 1f af 8b bc 09 52 bf bb f0 17 ae bd
       0.03803774 -0.017051278 -0.005838637 -0.085006595
000160 53 99 f0 3d 3e 21 b9 bd 7c 38 1c bd 38 8f 0f 3d
       0.11747994 -0.090395436 -0.038139805 0.035048693
000170 d3 ef ad bd 45 60 43 3d 4b d5 e4 3d c0 74 e7 39
       -0.084930085 0.04769923 0.11173495 0.0004414674
000180 8f 13 c4 3d 00 c3 77 3d 8c 12 d4 3d c2 7b 1c 3d
       0.09574043 0.0604887 0.103551 0.038203962
000190 02 88 94 bd d7 60 d4 3d 59 dc 43 3d 67 4a d3 bd
       -0.07252504 0.10370033 0.04781756 -0.103169255
0001a0 2f e6 10 bc 46 5b d5 3d e3 67 b1 3d da 6f 0f bd
       -0.008843943 0.104178 0.08662393 -0.03501878
0001b0 cf b1 40 3d 89 6a f8 3d d0 22 89 bd 9b 99 b7 bd
       0.04704457 0.12129695 -0.06696093 -0.08964845
0001c0 cf ca ae 3b 0e 4d de 3d c7 e1 75 bd 5d 45 29 bd
       0.0053342353 0.10854541 -0.06002977 -0.041325916
0001d0 04 90 5d 3d aa 69 10 bd 7d 76 0c 3d 62 0b 55 bc
       0.054092422 -0.03525702 0.034292687 -0.013003202
0001e0 2f d2 02 be 1d 66 25 3c de d6 dd bd 0b 27 90 3d
       -0.12775491 0.0100951465 -0.10831998 0.07038697
0001f0 4e f4 b5 bd 2a f6 94 3d 6f 3c 82 3d 76 96 2b bd
       -0.08884488 0.072735146 0.06359183 -0.041891538
000200 81 5c 1f bd 0c 00 01 3e 2d 4e 9a bd 90 83 8f 3d
       -0.038906578 0.12597674 -0.07534442 0.070075154
000210 1e 69 97 bd 32 c1 96 bd bc ba 32 bd 90 09 41 3d
       -0.073930964 -0.07361068 -0.043635115 0.04712826
000220 6b 2d ef 3c 64 05 5b bd 21 63 05 3d be a7 92 bd
       0.029196462 -0.053471938 0.03256524 -0.071609005
000230 27 7e e3 bd f4 35 b3 bb 0e 42 b6 3d 03 31 6a bd
       -0.11108046 -0.005469078 0.08899318 -0.057175647
000240 9a 3f b7 3d 13 96 ff 3c ee 4c 62 3d 2e 06 5a bc
       0.08947678 0.03119949 0.055249147 -0.013307137
000250 22 a6 66 3d a3 e5 ac 3d 72 b3 75 bd 5a 82 bd bd
       0.05631078 0.08442237 -0.059985586 -0.09253378
000260 36 ad 69 3d 07 d9 c3 3c 73 95 a9 3d e7 c6 ab 3d
       0.057049952 0.023907198 0.08280458 0.08387547
000270 0f 71 80 bd b5 3a a2 bd 33 4c 1e 3d d6 90 cf 3d
       -0.06271564 -0.07921354 0.038646888 0.10135047
000280 b5 4c 99 3d c1 fc bf bd 67 a3 ae 3c 3c 06 ac bd
       0.07485334 -0.09374381 0.02131815 -0.083996266
000290 c7 38 72 bd 81 e7 bb bd 15 74 d5 bd 1f e8 ad bb
       -0.05913618 -0.09175015 -0.104225315 -0.005307212
0002a0 4f 6e b0 bc c4 2e 8c 3d 30 a3 a7 3d e9 66 5f 3d
       -0.021536974 0.06844857 0.081854224 0.054541502
0002b0 45 07 53 bd 20 bb 84 bd bf d8 95 bd 10 78 90 3b
       -0.051520605 -0.06481004 -0.07316732 0.004408844
0002c0 2f 09 b0 bd 25 bf 06 bd 8d bc 67 bd 39 cb aa bd
       -0.08595502 -0.032897133 -0.0565763 -0.08339543
0002d0 d5 90 09 bb 81 ff 78 bc e0 88 4b 3d 2d ed 4f 3c
       -0.0020990868 -0.015197636 0.04969108 0.012690824
0002e0 c9 d2 3d bd f1 d3 a7 3d 1f 09 44 bd 9f e4 44 bc
       -0.0463436 0.081947215 -0.04786026 -0.012017398
0002f0 8d eb 04 3e 4d 6f 03 3e 34 02 14 bc 7b 73 bf b9
       0.1298048 0.12835427 -0.009033728 -0.00036516399

attn.query.weight f4 [1, 64]
000000 62 77 1a 3d 2a db 0d bd 77 d7 e4 bc ef 12 a9 3d
       0.03771151 -0.03463284 -0.027934773 0.082555644
000010 a9 70 44 bd 30 e2 81 3d 07 e7 63 bd 07 73 fe bc
       -0.047959004 0.0634197 -0.055640247 -0.031060709
000020 2c 61 13 bd d2 c7 c7 3d 89 3d cd 39 7b 81 ab bd
       -0.035981342 0.097549096 0.00039146494 -0.08374306
000030 16 12 33 bd 0b b1 b3 bd 46 56 3e bb 18 33 77 3d
       -0.04371842 -0.08774003 -0.0029043122 0.06035146
000040 86 1c 5c 3d 3c a1 c9 bd ed 61 d9 bd 5c 75 f1 bc
       0.05373814 -0.09845206 -0.10614381 -0.029474907
000050 0b 53 24 3d 13 1f 8e 3d f8 5f e7 bd 44 6c cb bd
       0.04011826 0.06939521 -0.112976015 -0.099327594
000060 42 cd 84 3b 32 be 6e 3c ac ef a6 bd 0e 2e cd bd
       0.004052789 0.014571713 -0.081511825 -0.1001855
000070 e8 8d 5c 3d 39 64 e2 bd 08 16 b0 3d 4b d0 d1 3d
       0.05384627 -0.11054272 0.08597952 0.10244807
000080 4e fc e4 bd 88 01 ba bd 7d 09 eb bd 37 55 eb 3d
       -0.11180936 -0.09082323 -0.11476419 0.11490863
000090 ae 5a da 3c cd f7 b8 3d 67 d5 70 3d a4 68 c6 3d
       0.026654568 0.09031639 0.058797266 0.09687927
0000a0 88 42 6d bb 1b 57 71 bd 9e 05 03 be 73 b5 bb bc
       -0.0036202986 -0.05892096 -0.12795112 -0.02291367
0000b0 b2 4b 2a 3d cd c4 38 3c 53 a0 5f 3b e6 67 ad bd
       0.041576095 0.01127739 0.003412266 -0.08467083
0000c0 db da 01 be da b7 bd bb 96 69 42 bd 60 68 99 3d
       -0.12681143 -0.005789739 -0.047463976 0.07490611
0000d0 59 57 e0 3d 1c 0c 60 bd 3b 7a 08 bd db 99 11 3d
       0.1095416 -0.05469905 -0.033319693 0.03554712
0000e0 93 89 c4 bc 23 72 9b bd 60 87 70 3d 61 bb bb 3d
       -0.023991382 -0.07590129 0.058722854 0.09166599
0000f0 9c 0e d1 3d f5 e8 fd 3d 4d 24 50 3d 10 ad 81 bb
       0.10207865 0.12397949 0.05081587 -0.0039573982

fc.0.weight f4 [64, 64]
000000 9a 65 9b bd f8 c4 ea bc f4 eb 7f 3d d2 c2 b9 bd
       -0.07587738 -0.028658375 0.06248088 -0.09070362
000010 0c dc 81 bd a0 8c e5 3c 16 6f ef bd a8 cc d1 3d
       -0.06340799 0.028021157 -0.1169111 0.10244113
000020 30 3b 3a bd 38 b5 bb bd 10 b2 08 bc 20 52 a5 3b
       -0.0454666 -0.09165424 -0.008343235 0.0050451905
000030 ba f9 cd bd 3e 8e 95 bd 78 26 8c 3d e8 68 88 3d
       -0.10057397 -0.07302521 0.06843275 0.06660634
000040 80 76 c7 3b d8 fa 39 3d e8 5f 49 3d e0 b9 d2 bb
       0.0060871243 0.04540524 0.04916373 -0.0064308494
000050 9a da 9c 3d fc e9 fa bd 40 44 fe 3b d8 01 78 bd
       0.076588824 -0.1225166 0.007759601 -0.060548633
000060 16 b4 e0 3d 04 92 1c 3d a0 b0 ab bc c0 b4 cf bd
       0.10971849 0.03822519 -0.020958245 -0.10141897
000070 80 e6 e5 3a 1c 58 da bd 54 8a 44 bd 78 63 a5 3d
       0.0017540008 -0.10661337 -0.047983482 0.08075613
000080 fe f8 a3 bd f8 df 7e bd f4 da fd 3d 74 d0 7a 3d
       -0.08006476 -0.062225312 0.123952776 0.061233953
000090 50 1e 56 bc f2 29 df bd 10 87 58 bd 80 f8 66 3b
       -0.0130687505 -0.10896672 -0.05286318 0.0035243332
0000a0 02 c4 f6 bd c0 2e 5f bc e0 31 aa bd fc d4 fe bd
       -0.12049104 -0.013621986 -0.08310294 -0.12442967
0000b0 88 83 8a bc 00 f2 e1 3c 40 87 87 3b a2 00 c8 3d
       -0.016908422 0.027581215 0.004135996 0.09765746
0000c0 58 c3 34 3d d0 63 3b 3c c4 83 56 3d 68 74 eb bc
       0.044131607 0.011437371 0.052371755 -0.02874203
0000d0 5a 46 ef bd 8a aa 83 bd 50 26 ee 3c dc 57 3b 3d
       -0.1168334 -0.06429012 0.029071003 0.045738086
0000e0 50 7f ba bd c4 c4 81 bd 0a ba d7 bd a8 f5 01 bd
       -0.09106314 -0.06336358 -0.10533531 -0.031728417
0000f0 00 22 9a 3c 2a f2 e3 bd 60 87 90 3b e0 d9 0a 3d
       0.01881504 -0.111301735 0.004410669 0.033899188
000100 5e 3d b5 bd 1e 34 25 3c 6d 83 db bb b0 a5 84 3a
       -0.088495955 0.0100832265 -0.006699017 0.001012018
000110 dd 4f 81 bd 59 44 88 bd 9d db 8c bd be 31 91 bd
       -0.06314061 -0.06653661 -0.068778254 -0.07089566
000120 ef 72 32 3d 09 b9 db 3d fb 23 b5 3c 11 1a 9f bd
       0.04356664 0.10728652 0.022111883 -0.07768644
000130 87 09 51 3c e4 12 fe bd 51 7c ae bd 30 3f 41 bd
       0.012758619 -0.12405947 -0.08519805 -0.0471794
000140 b6 3a fe bc 98 93 1f bd 0a 8b c8 bd 76 a4 af bd
       -0.031033855 -0.038959116 -0.097921446 -0.0857629
000150 5e ef 36 bc ad 32 b3 3b 77 76 3a bd 9f 22 c9 bd
       -0.011165468 0.0054686875 -0.045523133 -0.098210566
000160 2f 61 bf bd 5d 35 f4 bd 13 de 08 bd 39 f2 27 bd
       -0.09344708 -0.11924241 -0.03341491 -0.041002486
000170 70 6e 35 b9 02 31 7c 3c c5 37 92 bd ed 8e d5 3d
       -0.00017302646 0.015392544 -0.071395434 0.104276516
000180 f9 52 90 bd 80 13 83 bc 6a 4d 17 bd 30 87 70 bc
       -0.07047076 -0.01600051 -0.036939062 -0.014680669
000190 16 ec b3 bd 37 09 ea 3b cb 20 51 3d 04 59 e8 3c
       -0.08785264 0.007142212 0.051056664 0.028362758
0001a0 01 46 a6 bd 40 9c cf bc 57 a6 f6 bd 0a 41 95 bc
       -0.08118821 -0.02534306 -0.120434456 -0.01821949
0001b0 ad 2c be bd 6b a1 8f bd 27 62 1a 3d ec c1 c5 bd
       -0.09285865 -0.0701321 0.03769126 -0.09656128
0001c0 4e 36 f8 3d 12 1f d9 bd b6 66 a5 bd 8d 16 e6 3b
       0.12119733 -0.10601629 -0.08076231 0.007021731
0001d0 a1 64 41 3d 60 69 b4 bd 4e 6d 03 3c 02 e2 80 bd
       0.047215108 -0.08809161 0.008021666 -0.062931076
0001e0 c0 e3 17 3a 6b cc 49 3d 7b d8 fb bb eb 46 e1 bd
       0.000579413 0.049267214 -0.0076857186 -0.10999855
0001f0 99 b4 82 3d 8c be 96 bc 06 37 dc 3d d8 94 e9 bd
       0.063821025 -0.018401407 0.107526824 -0.11405343
000200 cc 5a 3d 3d 20 2a 4e bd ce 0a f1 bd 8c 2c 6f bd
       0.04622917 -0.050333142 -0.11769639 -0.058392093
000210 ae 2e 5f 3c a9 fb ab 3d 8f b6 2b 3d 9a 2a 3f 3d
       0.013621969 0.0839761 0.04192215 0.046671487
000220 e3 43 87 bc a1 77 ae 3d 42 50 f9 3d ac b8 8f 3c
       -0.016511863 0.08518911 0.12173511 0.017544113
000230 13 6e 32 bd d1 32 ae bd 77 d4 88 3d 76 93 91 bd
       -0.043562006 -0.08505786 0.066811495 -0.07108204
000240 57 b6 97 3d ee 95 3c 3d 45 0a b1 3d 0d 56 7e bd
       0.074078254 0.04604142 0.08644537 -0.062093783
000250 b5 a9 cd bd 4b 3c cd 3d 8d 62 cf bd e8 77 66 bd
       -0.10042135 0.100212656 -0.10126219 -0.056266695
000260 bb f9 f6 3d 4f 05 00 3d e4 7a b1 3d 7b ca 2c 3d
       0.12059351 0.031255063 0.08666018 0.042185288
000270 ff ca a4 bd 14 74 93 bd af af 45 3d 5b 98 83 bd
       -0.08046531 -0.071998745 0.048263248 -0.06425544
000280 0d b1 a1 3d 12 f5 91 bd da e6 ce bd c2 0b 89 3d
       0.07895098 -0.071268216 -0.10102625 0.06691696
000290 0a 99 d7 3d 4c 3e 73 bb 15 63 90 bd 4f 4f 94 bb
       0.10527237 -0.003711599 -0.070501484 -0.004526056
0002a0 e9 fd 56 3d 1b a3 b7 3d 81 ca 59 bd df d9 e4 3d
       0.05248824 0.08966657 -0.05317164 0.11174368
0002b0 d8 5c e0 bd e4 39 72 3d 0f 66 60 3d d5 3a 82 3b
       -0.109552085 0.05913724 0.05478483 0.0039742985
0002c0 2a 68 8f bc 93 c0 29 3c 46 cc 74 3c b3 2c 1b 3d
       -0.017505724 0.010360855 0.014941281 0.037884425
0002d0 44 02 e9 bd 32 cf 59 3d 77 31 b0 3d 8e 70 46 3d
       -0.11377385 0.053176112 0.08603185 0.048447184
0002e0 96 c8 d7 3d b5 a2 da bb 73 12 12 bd b5 25 f6 bd
       0.105363056 -0.006672228 -0.035662126 -0.12018911
0002f0 15 d0 a0 bd 21 de ce bd 9d 43 c1 bc 3e 3e 84 3d
       -0.078521885 -0.101009615 -0.02359181 0.06457184
000300 80 ee f3 bc 5c fc d9 3d 5c 59 0f bd dc a6 6e bd
       -0.029776812 0.10643837 -0.03499733 -0.0582646
000310 6a d1 97 bd 10 cf af bc 64 d0 cc 3d 60 ac 4a 3c
       -0.074129894 -0.02146104 0.10000685 0.012370199
000320 f4 b7 fb bd b8 9e eb 3d fc 91 d7 3d cc fe 08 3d
       -0.12290946 0.115048826 0.10525891 0.03344612
000330 38 0e 2c 3d 40 25 7c 3b c0 d4 c4 bb 50 e4 91 3c
       0.042005748 0.0038474351 -0.006006807 0.017809063
000340 aa b7 e0 3d 18 56 bc 3c 70 e7 52 bd b0 ce a7 bd
       0.10972531 0.022990271 -0.051490247 -0.081937194
000350 18 77 d7 3c 8e a2 94 3d 34 05 03 bd 6c 52 70 bd
       0.026301906 0.07257567 -0.031987384 -0.058672354
000360 d4 01 3d 3d 34 e2 8d 3d 40 7f 93 bc 00 c8 53 3a
       0.04614432 0.069279104 -0.018005013 0.00080788136
000370 de 37 d2 3d 46 74 a5 3d 80 8d 08 3c 20 a5 2c bc
       0.10264562 0.08078818 0.0083345175 -0.010537416
000380 94 b5 1d 3d 10 12 11 3c 60 4d f5 bd 80 ac 90 bc
       0.038503245 0.008854404 -0.11977649 -0.01766038
000390 fc b2 a8 bd 20 57 fc 3c 5e 8e f5 bd a2 a7 a2 3d
       -0.082372636 0.030803263 -0.11990045 0.0794213
0003a0 e4 28 94 3d 34 65 a7 3d 20 4c a3 bc 04 a5 9e bd
       0.07234362 0.081736 -0.01993376 -0.07746318
0003b0 54 cc da bd 8e 3c b4 3d a0 a9 e0 bd 22 4f f7 3d
       -0.10683504 0.088006124 -0.109698534 0.1207564
0003c0 40 4c 47 3b 1c 65 72 3d b4 c6 13 bd a2 41 84 bd
       0.0030410439 0.059178457 -0.03607817 -0.06457831
0003d0 3a 4e c6 bd 78 a1 a9 3d 0e 38 ba 3d c0 42 c8 3b
       -0.09682889 0.08282751 0.09092723 0.006111473
0003e0 d8 31 b8 bd c0 6a ad 3b 48 a0 b9 bc 00 79 bd bc
       -0.08993882 0.0052922666 -0.022659436 -0.023128986
0003f0 90 6f 39 bc dc 70 ae 3d 22 51 ce 3d 00 57 58 bb
       -0.0113181025 0.0851762 0.100740686 -0.003301084

fc.0.bias f4 [64]
000000 c0 70 0e bb 2d 54 48 3d 5e 40 f5 bc ee 67 c7 bd
       -0.0021734685 0.0489084 -0.02993792 -0.0973662
000010 12 69 d3 ba 10 fa 36 3d fa 78 cc bc d7 72 e1 3d
       -0.0016129336 0.044672072 -0.02496003 0.11008232
000020 a4 51 b7 bd 04 90 98 bd 17 8e 82 bc 7e a3 80 bd
       -0.089511186 -0.07449344 -0.015936894 -0.06281184
000030 22 54 97 bd 30 b8 dc bd e9 49 d1 3d d8 07 de bd
       -0.07389094 -0.107773185 0.10219175 -0.1084134
000040 fe 70 94 bd 7a 65 76 3d 47 f3 bc 3d 70 9d 03 3c
       -0.07248114 0.06015537 0.09226089 0.0080331415
000050 96 d5 f6 bd e2 4d 39 3d db 1f 64 3d c4 e9 c4 3b
       -0.12052457 0.04524029 0.055694442 0.0060093123
000060 90 ae c3 3c 1b c3 ba 3d 3a d2 c9 bc 28 1a ae 3c
       0.023886949 0.09119245 -0.024636377 0.021252707
000070 a1 a8 b4 3d d2 36 09 bd 48 85 9c 3c 19 0a ab 3d
       0.08821226 -0.033499546 0.019106522 0.08351535
000080 19 7e cb 3d 76 9a d2 bd e2 c6 ef bc 38 4a f6 bc
       0.099361606 -0.10283367 -0.02926964 -0.030064687
000090 f0 bf b5 3d a4 ab c6 bd 9a b0 e2 bd ac 3f 15 3d
       0.088745 -0.097007066 -0.1106884 0.036437675
0000a0 7f 6a b9 3d 0a f5 a5 3d 26 bb ca bd ac 79 8c 3d
       0.09053516 0.08103378 -0.09898977 0.068591446
0000b0 44 ff c8 bd b8 4f a9 bd 44 b8 c1 bd 83 67 09 bd
       -0.09814313 -0.08267158 -0.09458974 -0.033545982
0000c0 cc a8 00 3d 46 35 89 3c 94 41 36 3d ae b4 fb bd
       0.031410977 0.016749036 0.044496134 -0.12290321
0000d0 df 0e a1 3d 82 13 80 bd 38 c4 97 3c 40 fb 03 3e
       0.078641646 -0.06253721 0.018526182 0.12888813
0000e0 72 34 e6 3d d8 9f f9 3d 30 f0 67 bd 20 0a 84 bd
       0.11240472 0.12188691 -0.056625545 -0.06447244
0000f0 c0 8f 07 bd 5b fb 36 3d 70 c3 01 3e 0a 09 ae bd
       -0.033096075 0.044673305 0.1267221 -0.08497818

policy_head.weight f4 [2, 64]
000000 f8 e4 c8 3d c8 a5 e1 bd 53 17 e8 3d 24 51 f9 3d
       0.09809297 -0.110179484 0.11332574 0.121736795
000010 24 da a5 bd fe f1 28 bd aa 6b df bb 6c ff 31 bd
       -0.08098248 -0.041246407 -0.0068182545 -0.04345648
000020 30 9e e2 3c 30 67 cb 3c 10 1f 98 bb 08 58 82 bd
       0.02766332 0.024829477 -0.004642375 -0.06364447
000030 8a d6 80 3d e0 e8 a0 3b 60 c3 b2 bd 7c 07 fb 3d
       0.0629092 0.0049105734 -0.08728671 0.12257287
000040 8a bf f4 bd 45 60 b2 3d 7e b5 ba bd 70 d7 20 3c
       -0.11950596 0.08709768 -0.09116648 0.009816989
000050 18 44 b9 3c 09 84 b7 bd 1b e3 ea 3d d0 06 78 3d
       0.022615477 -0.089607306 0.11469098 0.060553372
000060 48 2a 98 bd 52 86 12 3d e3 a0 28 bd 34 af d8 3d
       -0.074299395 0.03577263 -0.04116906 0.10580292
000070 99 8e a3 3c 0f 0c 08 3d 92 3c a9 3d 25 7a 84 bd
       0.019965457 0.033214625 0.08263506 -0.0646861
000080 a1 e2 0f bb 4a 01 99 bd e3 56 b3 3d f2 5e a9 bd
       -0.002195515 -0.07470949 0.08756807 -0.082700625
000090 01 12 eb 3d b0 f0 67 3c 46 b7 fe bd e6 f1 d1 3d
       0.11478043 0.014156505 -0.124373004 0.102512166
0000a0 f2 c2 17 bd 05 94 86 bd 10 fb d8 3d d4 84 b6 3d
       -0.03705115 -0.06571201 0.10594761 0.08912054
0000b0 e8 83 c6 bd c0 b9 6b bb 5a f8 98 3d 5e e3 23 3d
       -0.09693128 -0.003596887 0.07469244 0.040011756
0000c0 cf fc e8 bd 51 5c 7a 3b 1f 40 55 bd 82 a5 e0 3d
       -0.113763444 0.0038201998 -0.052063104 0.10969068
0000d0 2f 94 02 3e 00 b3 1b 3d f8 4a 9f bc 36 66 b8 3d
       0.1275184 0.038012505 -0.019444928 0.0900387
0000e0 a8 90 1c bd 51 32 d8 3d 28 20 3b bd 96 7a dc bd
       -0.038223892 0.10556472 -0.045684963 -0.10765569
0000f0 2a 18 c2 3d 42 72 b3 3c 85 e5 22 3d 4e ff ca 3d
       0.09477265 0.021905068 0.039769668 0.09911977
000100 a8 ca a8 3c d9 38 ac bc 7c f9 33 3d bc 89 36 3d
       0.020604447 -0.0210232 0.0439391 0.044564947
000110 24 92 a2 3d 59 1e f8 3c 1b 4d a4 3c d4 97 43 3c
       0.0793803 0.030287908 0.020056298 0.011938054
000120 50 bd bf bd 80 51 35 bc f8 62 20 bc 18 ab 3c 3d
       -0.0936228 -0.011066794 -0.009789221 0.046061605
000130 d4 cd 23 3d 48 bc f1 3c 16 9f a2 bd 44 6f 9c bd
       0.039991215 0.029508725 -0.079404995 -0.0763841
000140 80 a6 9f bd 0d f2 32 bd 6c 24 17 bd 60 c9 c2 3b
       -0.07795429 -0.04368787 -0.03689997 0.005944416
000150 d0 f1 33 bc c1 e6 95 3d 2b d9 df 3d 31 78 b9 3d
       -0.010982946 0.073194034 0.109300934 0.09056128
000160 94 14 f4 bd 74 45 df 3d d5 06 46 bd 38 c5 ed 3d
       -0.119179875 0.10901919 -0.04834636 0.11609882
000170 69 53 45 bc 7e d6 d8 3d be 77 9e bd d1 18 12 3c
       -0.012043812 0.10587786 -0.07737683 0.0089170495
000180 a4 a3 65 3c 28 91 b0 3d 83 ee 1e bd 84 2b 7c 3d
       0.014016066 0.08621436 -0.03880168 0.061564937
000190 c5 19 0b 3c 80 ae f2 3d de 8e d1 3d eb 3a f6 3d
       0.008490031 0.118496895 0.10232328 0.120229565
0001a0 55 2a 81 3d 3b 25 9b bd 4c e5 21 3d e6 64 f3 bd
       0.06306902 -0.075754605 0.039525315 -0.11884479
0001b0 20 29 be 3b 4e 8d af 3d de 55 d4 3d 38 72 2c 3d
       0.0058032423 0.085718736 0.1036794 0.042101115
0001c0 7f 2b f7 bd f2 6c 75 3d 6b 40 34 bd a0 79 33 bd
       -0.12068843 0.05991835 -0.044006746 -0.043817163
0001d0 c5 ce b0 3c 34 ab a2 3d 70 db c0 bc c5 d9 83 3d
       0.02158297 0.07942811 -0.023542136 0.064380206
0001e0 f8 0d 98 bd c8 40 5d bd 7a 81 b2 bd 20 42 f1 bd
       -0.07424539 -0.05401686 -0.08716102 -0.117801905
0001f0 b2 45 c7 3d 0d 42 be bd 20 4b 00 3c 40 d8 b5 bc
       0.0973009 -0.09289942 0.007830411 -0.022197843

policy_head.bias f4 [2]
000000 8a 0d f1 3d 57 e0 4b bd
       0.117701605 -0.049774494

value_head.weight f4 [1, 64]
000000 36 5f d8 bd 69 d1 d2 bd 38 dd 06 be ea 4b bd bd
       -0.10565035 -0.10293848 -0.13170326 -0.09242995
000010 c2 7c a8 bd 68 c2 7c 3d b3 7b 8c 3d 7d c3 ce 3c
       -0.08226921 0.061708838 0.06859531 0.0252397
000020 5c db d8 3d 00 36 84 bc 02 8a 4f 3d 80 5a d0 3d
       0.105887145 -0.01613903 0.050668724 0.101735115
000030 b4 4c ab bd ec 4e c4 3d f2 c0 bd 3c 68 ab df 3c
       -0.08364239 0.09585366 0.023163293 0.027303413
000040 2e 8d c6 bd b4 6d ad 3d b6 53 c8 bd 70 53 88 bc
       -0.09694897 0.0846819 -0.097815916 -0.016641349
000050 84 08 82 3d 5a c1 b4 3d 2d 39 f5 bc 44 63 a3 3c
       0.063492805 0.088259414 -0.02993449 0.019944794
000060 d8 a5 73 3d f5 6b 60 bd e2 61 b7 3d d0 56 7f 3d
       0.059484333 -0.054790456 0.089542165 0.06233865
000070 f1 c9 a6 bd e5 71 56 3d 44 60 ab 3d 4a 4c d5 bd
       -0.08143986 0.052354712 0.083679706 -0.104149416
000080 6c 80 0d 3c 50 9b da bd da ff 40 bd 30 2f 9c bc
       0.008636575 -0.10674155 -0.047119 -0.01906547
000090 1f 17 ff 3b 78 b1 51 bd 08 c0 86 bc ba 59 e6 3b
       0.0077847387 -0.051194638 -0.01644899 0.007029739
0000a0 28 65 0c 3d 4c 43 d3 bd 2c b0 cf 3d 4a 8f ae 3c
       0.034276158 -0.1031557 0.10141024 0.02130856
0000b0 60 ce 28 3c 7a e5 f1 3d e4 af 9c 3d 49 86 f5 bd
       0.01030311 0.11811347 0.07650736 -0.119885035
0000c0 f9 ec c5 3d 98 b7 8c bc 8d 95 7c bd e0 21 ed 3b
       0.096643396 -0.017177388 -0.06166606 0.007236704
0000d0 89 1d 8f 3d f8 66 b9 3d 00 6e d8 bc 48 41 a9 ba
       0.06988055 0.09052843 -0.02641964 -0.0012913132
0000e0 b6 2c 2a bb e8 61 01 bc 46 2e 9e bd a8 97 d1 3c
       -0.0025966591 -0.007896878 -0.0772367 0.02558501
0000f0 58 22 79 3d f1 36 9c bd 60 2e e6 ba 54 55 b1 bd
       0.06082377 -0.07627667 -0.0017561428 -0.08658853
